

module {
  func @main_graph(%arg0: tensor<1x1x28x28xf32>) -> tensor<1x10xf32> {
    %cst = constant unit
    %0 = "onnx.Constant"() {value = dense<"…"> : tensor<16x4x4x10xf32>} : () -> tensor<16x4x4x10xf32>
    %1 = "onnx.Constant"() {value = dense<[256, 10]> : tensor<2xi64>} : () -> tensor<2xi64>
    %2 = "onnx.Reshape"(%0, %1) : (tensor<16x4x4x10xf32>, tensor<2xi64>) -> tensor<256x10xf32>
    %3 = "onnx.Constant"() {value = dense<"…"> : tensor<8x1x5x5xf32>} : () -> tensor<8x1x5x5xf32>
    %4 = "onnx.PadConstantValuePad"(%arg0) {constant_value = 0.000000e+00 : f32, mode = "constant", pads = [0, 0, 2, 2, 0, 0, 2, 2]} : (tensor<1x1x28x28xf32>) -> tensor<1x1x32x32xf32>
    %5 = "onnx.Conv"(%4, %3, %cst) {auto_pad = "NOTSET", dilations = [1, 1], group = 1 : i64, kernel_shape = [5, 5], pads = [0, 0, 0, 0], strides = [1, 1]} : (tensor<1x1x32x32xf32>, tensor<8x1x5x5xf32>, none) -> tensor<1x8x28x28xf32>
    %6 = "onnx.Constant"() {value = dense<[[[-0.161539719]], [[-0.433835655]], [[0.091641359]], [[-0.0168522168]], [[-0.0650264397]], [[-0.131737873]], [[0.0204175506]], [[-0.121110231]]]> : tensor<8x1x1xf32>} : () -> tensor<8x1x1xf32>
    %7 = "onnx.Add"(%5, %6) : (tensor<1x8x28x28xf32>, tensor<8x1x1xf32>) -> tensor<1x8x28x28xf32>
    %8 = "onnx.Relu"(%7) : (tensor<1x8x28x28xf32>) -> tensor<1x8x28x28xf32>
    %9 = "onnx.MaxPoolSingleOut"(%8) {auto_pad = "NOTSET", dilations = [1, 1], kernel_shape = [2, 2], pads = [0, 0, 0, 0], strides = [2, 2]} : (tensor<1x8x28x28xf32>) -> tensor<1x8x14x14xf32>
    %10 = "onnx.Constant"() {value = dense<"…"> : tensor<16x8x5x5xf32>} : () -> tensor<16x8x5x5xf32>
    %11 = "onnx.PadConstantValuePad"(%9) {constant_value = 0.000000e+00 : f32, mode = "constant", pads = [0, 0, 2, 2, 0, 0, 2, 2]} : (tensor<1x8x14x14xf32>) -> tensor<1x8x18x18xf32>
    %12 = "onnx.Conv"(%11, %10, %cst) {auto_pad = "NOTSET", dilations = [1, 1], group = 1 : i64, kernel_shape = [5, 5], pads = [0, 0, 0, 0], strides = [1, 1]} : (tensor<1x8x18x18xf32>, tensor<16x8x5x5xf32>, none) -> tensor<1x16x14x14xf32>
    %13 = "onnx.Constant"() {value = dense<[[[… > : tensor<16x1x1xf32>} : () -> tensor<16x1x1xf32>
    %14 = "onnx.Add"(%12, %13) : (tensor<1x16x14x14xf32>, tensor<16x1x1xf32>) -> tensor<1x16x14x14xf32>
    %15 = "onnx.Relu"(%14) : (tensor<1x16x14x14xf32>) -> tensor<1x16x14x14xf32>
    %16 = "onnx.MaxPoolSingleOut"(%15) {auto_pad = "NOTSET", dilations = [1, 1], kernel_shape = [3, 3], pads = [0, 0, 0, 0], strides = [3, 3]} : (tensor<1x16x14x14xf32>) -> tensor<1x16x4x4xf32>
    %17 = "onnx.Constant"() {value = dense<[1, 256]> : tensor<2xi64>} : () -> tensor<2xi64>
    %18 = "onnx.Reshape"(%16, %17) : (tensor<1x16x4x4xf32>, tensor<2xi64>) -> tensor<1x256xf32>
    %19 = "onnx.Constant"() {value = dense<[[-0.0448560268, 0.00779166119, 0.0681008175, 0.0299937408, -0.126409635, 0.14021875, -0.0552849025, -0.0493838154, 0.0843220502, -0.0545404144]]> : tensor<1x10xf32>} : () -> tensor<1x10xf32>
    %20 = "onnx.Gemm"(%18, %2, %19) {alpha = 1.000000e+00 : f32, beta = 1.000000e+00 : f32, transA = 0 : i64, transB = 0 : i64} : (tensor<1x256xf32>, tensor<256x10xf32>, tensor<1x10xf32>) -> tensor<1x10xf32>
    return %20 : tensor<1x10xf32>
  }
  "onnx.EntryPoint"() {func = @main_graph, numInputs = 1 : i32, numOutputs = 1 : i32} : () -> ()
}