module attributes {dlti.dl_spec = #dlti.dl_spec<#dlti.dl_entry<"dlti.endianness", "little">, #dlti.dl_entry<i64, dense<64> : vector<2xi32>>, #dlti.dl_entry<f80, dense<128> : vector<2xi32>>, #dlti.dl_entry<i1, dense<8> : vector<2xi32>>, #dlti.dl_entry<i8, dense<8> : vector<2xi32>>, #dlti.dl_entry<i16, dense<16> : vector<2xi32>>, #dlti.dl_entry<i32, dense<32> : vector<2xi32>>, #dlti.dl_entry<f16, dense<16> : vector<2xi32>>, #dlti.dl_entry<f64, dense<64> : vector<2xi32>>, #dlti.dl_entry<f128, dense<128> : vector<2xi32>>>, llvm.data_layout = "e-m:e-p270:32:32-p271:32:32-p272:64:64-i64:64-f80:128-n8:16:32:64-S128", llvm.target_triple = "x86_64-unknown-linux-gnu"} {
  func @kernel_bicg(%arg0: i32, %arg1: i32, %arg2: memref<410x390xf32>, %arg3: memref<390xf32>, %arg4: memref<410xf32>, %arg5: memref<390xf32>, %arg6: memref<410xf32>) attributes {llvm.linkage = #llvm.linkage<external>, top_func} {
    %cst = arith.constant 0.000000e+00 : f32
    affine.for %arg7 = 0 to 13 {
      affine.store %cst, %arg3[%arg7 * 30] : memref<390xf32>
      affine.store %cst, %arg3[%arg7 * 30 + 1] : memref<390xf32>
      affine.store %cst, %arg3[%arg7 * 30 + 2] : memref<390xf32>
      affine.store %cst, %arg3[%arg7 * 30 + 3] : memref<390xf32>
      affine.store %cst, %arg3[%arg7 * 30 + 4] : memref<390xf32>
      affine.store %cst, %arg3[%arg7 * 30 + 5] : memref<390xf32>
      affine.store %cst, %arg3[%arg7 * 30 + 6] : memref<390xf32>
      affine.store %cst, %arg3[%arg7 * 30 + 7] : memref<390xf32>
      affine.store %cst, %arg3[%arg7 * 30 + 8] : memref<390xf32>
      affine.store %cst, %arg3[%arg7 * 30 + 9] : memref<390xf32>
      affine.store %cst, %arg3[%arg7 * 30 + 10] : memref<390xf32>
      affine.store %cst, %arg3[%arg7 * 30 + 11] : memref<390xf32>
      affine.store %cst, %arg3[%arg7 * 30 + 12] : memref<390xf32>
      affine.store %cst, %arg3[%arg7 * 30 + 13] : memref<390xf32>
      affine.store %cst, %arg3[%arg7 * 30 + 14] : memref<390xf32>
      affine.store %cst, %arg3[%arg7 * 30 + 15] : memref<390xf32>
      affine.store %cst, %arg3[%arg7 * 30 + 16] : memref<390xf32>
      affine.store %cst, %arg3[%arg7 * 30 + 17] : memref<390xf32>
      affine.store %cst, %arg3[%arg7 * 30 + 18] : memref<390xf32>
      affine.store %cst, %arg3[%arg7 * 30 + 19] : memref<390xf32>
      affine.store %cst, %arg3[%arg7 * 30 + 20] : memref<390xf32>
      affine.store %cst, %arg3[%arg7 * 30 + 21] : memref<390xf32>
      affine.store %cst, %arg3[%arg7 * 30 + 22] : memref<390xf32>
      affine.store %cst, %arg3[%arg7 * 30 + 23] : memref<390xf32>
      affine.store %cst, %arg3[%arg7 * 30 + 24] : memref<390xf32>
      affine.store %cst, %arg3[%arg7 * 30 + 25] : memref<390xf32>
      affine.store %cst, %arg3[%arg7 * 30 + 26] : memref<390xf32>
      affine.store %cst, %arg3[%arg7 * 30 + 27] : memref<390xf32>
      affine.store %cst, %arg3[%arg7 * 30 + 28] : memref<390xf32>
      affine.store %cst, %arg3[%arg7 * 30 + 29] : memref<390xf32>
    } {loop_directive = #hls.ld<pipeline=true, targetII=1, dataflow=false, flatten=false>, parallel}
    affine.for %arg7 = 0 to 26 {
      affine.for %arg8 = 0 to 41 {
        affine.store %cst, %arg4[%arg8 * 10] : memref<410xf32>
        %0 = affine.load %arg3[%arg7 * 15] : memref<390xf32>
        %1 = affine.load %arg6[%arg8 * 10] : memref<410xf32>
        %2 = affine.load %arg2[%arg8 * 10, %arg7 * 15] : memref<410x390xf32>
        %3 = arith.mulf %1, %2 : f32
        %4 = arith.addf %0, %3 : f32
        affine.store %4, %arg3[%arg7 * 15] : memref<390xf32>
        %5 = affine.load %arg4[%arg8 * 10] : memref<410xf32>
        %6 = affine.load %arg2[%arg8 * 10, %arg7 * 15] : memref<410x390xf32>
        %7 = affine.load %arg5[%arg7 * 15] : memref<390xf32>
        %8 = arith.mulf %6, %7 : f32
        %9 = arith.addf %5, %8 : f32
        affine.store %9, %arg4[%arg8 * 10] : memref<410xf32>
        affine.store %cst, %arg4[%arg8 * 10 + 1] : memref<410xf32>
        %10 = affine.load %arg3[%arg7 * 15] : memref<390xf32>
        %11 = affine.load %arg6[%arg8 * 10 + 1] : memref<410xf32>
        %12 = affine.load %arg2[%arg8 * 10 + 1, %arg7 * 15] : memref<410x390xf32>
        %13 = arith.mulf %11, %12 : f32
        %14 = arith.addf %10, %13 : f32
        affine.store %14, %arg3[%arg7 * 15] : memref<390xf32>
        %15 = affine.load %arg4[%arg8 * 10 + 1] : memref<410xf32>
        %16 = affine.load %arg2[%arg8 * 10 + 1, %arg7 * 15] : memref<410x390xf32>
        %17 = affine.load %arg5[%arg7 * 15] : memref<390xf32>
        %18 = arith.mulf %16, %17 : f32
        %19 = arith.addf %15, %18 : f32
        affine.store %19, %arg4[%arg8 * 10 + 1] : memref<410xf32>
        affine.store %cst, %arg4[%arg8 * 10 + 2] : memref<410xf32>
        %20 = affine.load %arg3[%arg7 * 15] : memref<390xf32>
        %21 = affine.load %arg6[%arg8 * 10 + 2] : memref<410xf32>
        %22 = affine.load %arg2[%arg8 * 10 + 2, %arg7 * 15] : memref<410x390xf32>
        %23 = arith.mulf %21, %22 : f32
        %24 = arith.addf %20, %23 : f32
        affine.store %24, %arg3[%arg7 * 15] : memref<390xf32>
        %25 = affine.load %arg4[%arg8 * 10 + 2] : memref<410xf32>
        %26 = affine.load %arg2[%arg8 * 10 + 2, %arg7 * 15] : memref<410x390xf32>
        %27 = affine.load %arg5[%arg7 * 15] : memref<390xf32>
        %28 = arith.mulf %26, %27 : f32
        %29 = arith.addf %25, %28 : f32
        affine.store %29, %arg4[%arg8 * 10 + 2] : memref<410xf32>
        affine.store %cst, %arg4[%arg8 * 10 + 3] : memref<410xf32>
        %30 = affine.load %arg3[%arg7 * 15] : memref<390xf32>
        %31 = affine.load %arg6[%arg8 * 10 + 3] : memref<410xf32>
        %32 = affine.load %arg2[%arg8 * 10 + 3, %arg7 * 15] : memref<410x390xf32>
        %33 = arith.mulf %31, %32 : f32
        %34 = arith.addf %30, %33 : f32
        affine.store %34, %arg3[%arg7 * 15] : memref<390xf32>
        %35 = affine.load %arg4[%arg8 * 10 + 3] : memref<410xf32>
        %36 = affine.load %arg2[%arg8 * 10 + 3, %arg7 * 15] : memref<410x390xf32>
        %37 = affine.load %arg5[%arg7 * 15] : memref<390xf32>
        %38 = arith.mulf %36, %37 : f32
        %39 = arith.addf %35, %38 : f32
        affine.store %39, %arg4[%arg8 * 10 + 3] : memref<410xf32>
        affine.store %cst, %arg4[%arg8 * 10 + 4] : memref<410xf32>
        %40 = affine.load %arg3[%arg7 * 15] : memref<390xf32>
        %41 = affine.load %arg6[%arg8 * 10 + 4] : memref<410xf32>
        %42 = affine.load %arg2[%arg8 * 10 + 4, %arg7 * 15] : memref<410x390xf32>
        %43 = arith.mulf %41, %42 : f32
        %44 = arith.addf %40, %43 : f32
        affine.store %44, %arg3[%arg7 * 15] : memref<390xf32>
        %45 = affine.load %arg4[%arg8 * 10 + 4] : memref<410xf32>
        %46 = affine.load %arg2[%arg8 * 10 + 4, %arg7 * 15] : memref<410x390xf32>
        %47 = affine.load %arg5[%arg7 * 15] : memref<390xf32>
        %48 = arith.mulf %46, %47 : f32
        %49 = arith.addf %45, %48 : f32
        affine.store %49, %arg4[%arg8 * 10 + 4] : memref<410xf32>
        affine.store %cst, %arg4[%arg8 * 10 + 5] : memref<410xf32>
        %50 = affine.load %arg3[%arg7 * 15] : memref<390xf32>
        %51 = affine.load %arg6[%arg8 * 10 + 5] : memref<410xf32>
        %52 = affine.load %arg2[%arg8 * 10 + 5, %arg7 * 15] : memref<410x390xf32>
        %53 = arith.mulf %51, %52 : f32
        %54 = arith.addf %50, %53 : f32
        affine.store %54, %arg3[%arg7 * 15] : memref<390xf32>
        %55 = affine.load %arg4[%arg8 * 10 + 5] : memref<410xf32>
        %56 = affine.load %arg2[%arg8 * 10 + 5, %arg7 * 15] : memref<410x390xf32>
        %57 = affine.load %arg5[%arg7 * 15] : memref<390xf32>
        %58 = arith.mulf %56, %57 : f32
        %59 = arith.addf %55, %58 : f32
        affine.store %59, %arg4[%arg8 * 10 + 5] : memref<410xf32>
        affine.store %cst, %arg4[%arg8 * 10 + 6] : memref<410xf32>
        %60 = affine.load %arg3[%arg7 * 15] : memref<390xf32>
        %61 = affine.load %arg6[%arg8 * 10 + 6] : memref<410xf32>
        %62 = affine.load %arg2[%arg8 * 10 + 6, %arg7 * 15] : memref<410x390xf32>
        %63 = arith.mulf %61, %62 : f32
        %64 = arith.addf %60, %63 : f32
        affine.store %64, %arg3[%arg7 * 15] : memref<390xf32>
        %65 = affine.load %arg4[%arg8 * 10 + 6] : memref<410xf32>
        %66 = affine.load %arg2[%arg8 * 10 + 6, %arg7 * 15] : memref<410x390xf32>
        %67 = affine.load %arg5[%arg7 * 15] : memref<390xf32>
        %68 = arith.mulf %66, %67 : f32
        %69 = arith.addf %65, %68 : f32
        affine.store %69, %arg4[%arg8 * 10 + 6] : memref<410xf32>
        affine.store %cst, %arg4[%arg8 * 10 + 7] : memref<410xf32>
        %70 = affine.load %arg3[%arg7 * 15] : memref<390xf32>
        %71 = affine.load %arg6[%arg8 * 10 + 7] : memref<410xf32>
        %72 = affine.load %arg2[%arg8 * 10 + 7, %arg7 * 15] : memref<410x390xf32>
        %73 = arith.mulf %71, %72 : f32
        %74 = arith.addf %70, %73 : f32
        affine.store %74, %arg3[%arg7 * 15] : memref<390xf32>
        %75 = affine.load %arg4[%arg8 * 10 + 7] : memref<410xf32>
        %76 = affine.load %arg2[%arg8 * 10 + 7, %arg7 * 15] : memref<410x390xf32>
        %77 = affine.load %arg5[%arg7 * 15] : memref<390xf32>
        %78 = arith.mulf %76, %77 : f32
        %79 = arith.addf %75, %78 : f32
        affine.store %79, %arg4[%arg8 * 10 + 7] : memref<410xf32>
        affine.store %cst, %arg4[%arg8 * 10 + 8] : memref<410xf32>
        %80 = affine.load %arg3[%arg7 * 15] : memref<390xf32>
        %81 = affine.load %arg6[%arg8 * 10 + 8] : memref<410xf32>
        %82 = affine.load %arg2[%arg8 * 10 + 8, %arg7 * 15] : memref<410x390xf32>
        %83 = arith.mulf %81, %82 : f32
        %84 = arith.addf %80, %83 : f32
        affine.store %84, %arg3[%arg7 * 15] : memref<390xf32>
        %85 = affine.load %arg4[%arg8 * 10 + 8] : memref<410xf32>
        %86 = affine.load %arg2[%arg8 * 10 + 8, %arg7 * 15] : memref<410x390xf32>
        %87 = affine.load %arg5[%arg7 * 15] : memref<390xf32>
        %88 = arith.mulf %86, %87 : f32
        %89 = arith.addf %85, %88 : f32
        affine.store %89, %arg4[%arg8 * 10 + 8] : memref<410xf32>
        affine.store %cst, %arg4[%arg8 * 10 + 9] : memref<410xf32>
        %90 = affine.load %arg3[%arg7 * 15] : memref<390xf32>
        %91 = affine.load %arg6[%arg8 * 10 + 9] : memref<410xf32>
        %92 = affine.load %arg2[%arg8 * 10 + 9, %arg7 * 15] : memref<410x390xf32>
        %93 = arith.mulf %91, %92 : f32
        %94 = arith.addf %90, %93 : f32
        affine.store %94, %arg3[%arg7 * 15] : memref<390xf32>
        %95 = affine.load %arg4[%arg8 * 10 + 9] : memref<410xf32>
        %96 = affine.load %arg2[%arg8 * 10 + 9, %arg7 * 15] : memref<410x390xf32>
        %97 = affine.load %arg5[%arg7 * 15] : memref<390xf32>
        %98 = arith.mulf %96, %97 : f32
        %99 = arith.addf %95, %98 : f32
        affine.store %99, %arg4[%arg8 * 10 + 9] : memref<410xf32>
        affine.store %cst, %arg4[%arg8 * 10] : memref<410xf32>
        %100 = affine.load %arg3[%arg7 * 15 + 1] : memref<390xf32>
        %101 = affine.load %arg6[%arg8 * 10] : memref<410xf32>
        %102 = affine.load %arg2[%arg8 * 10, %arg7 * 15 + 1] : memref<410x390xf32>
        %103 = arith.mulf %101, %102 : f32
        %104 = arith.addf %100, %103 : f32
        affine.store %104, %arg3[%arg7 * 15 + 1] : memref<390xf32>
        %105 = affine.load %arg4[%arg8 * 10] : memref<410xf32>
        %106 = affine.load %arg2[%arg8 * 10, %arg7 * 15 + 1] : memref<410x390xf32>
        %107 = affine.load %arg5[%arg7 * 15 + 1] : memref<390xf32>
        %108 = arith.mulf %106, %107 : f32
        %109 = arith.addf %105, %108 : f32
        affine.store %109, %arg4[%arg8 * 10] : memref<410xf32>
        affine.store %cst, %arg4[%arg8 * 10 + 1] : memref<410xf32>
        %110 = affine.load %arg3[%arg7 * 15 + 1] : memref<390xf32>
        %111 = affine.load %arg6[%arg8 * 10 + 1] : memref<410xf32>
        %112 = affine.load %arg2[%arg8 * 10 + 1, %arg7 * 15 + 1] : memref<410x390xf32>
        %113 = arith.mulf %111, %112 : f32
        %114 = arith.addf %110, %113 : f32
        affine.store %114, %arg3[%arg7 * 15 + 1] : memref<390xf32>
        %115 = affine.load %arg4[%arg8 * 10 + 1] : memref<410xf32>
        %116 = affine.load %arg2[%arg8 * 10 + 1, %arg7 * 15 + 1] : memref<410x390xf32>
        %117 = affine.load %arg5[%arg7 * 15 + 1] : memref<390xf32>
        %118 = arith.mulf %116, %117 : f32
        %119 = arith.addf %115, %118 : f32
        affine.store %119, %arg4[%arg8 * 10 + 1] : memref<410xf32>
        affine.store %cst, %arg4[%arg8 * 10 + 2] : memref<410xf32>
        %120 = affine.load %arg3[%arg7 * 15 + 1] : memref<390xf32>
        %121 = affine.load %arg6[%arg8 * 10 + 2] : memref<410xf32>
        %122 = affine.load %arg2[%arg8 * 10 + 2, %arg7 * 15 + 1] : memref<410x390xf32>
        %123 = arith.mulf %121, %122 : f32
        %124 = arith.addf %120, %123 : f32
        affine.store %124, %arg3[%arg7 * 15 + 1] : memref<390xf32>
        %125 = affine.load %arg4[%arg8 * 10 + 2] : memref<410xf32>
        %126 = affine.load %arg2[%arg8 * 10 + 2, %arg7 * 15 + 1] : memref<410x390xf32>
        %127 = affine.load %arg5[%arg7 * 15 + 1] : memref<390xf32>
        %128 = arith.mulf %126, %127 : f32
        %129 = arith.addf %125, %128 : f32
        affine.store %129, %arg4[%arg8 * 10 + 2] : memref<410xf32>
        affine.store %cst, %arg4[%arg8 * 10 + 3] : memref<410xf32>
        %130 = affine.load %arg3[%arg7 * 15 + 1] : memref<390xf32>
        %131 = affine.load %arg6[%arg8 * 10 + 3] : memref<410xf32>
        %132 = affine.load %arg2[%arg8 * 10 + 3, %arg7 * 15 + 1] : memref<410x390xf32>
        %133 = arith.mulf %131, %132 : f32
        %134 = arith.addf %130, %133 : f32
        affine.store %134, %arg3[%arg7 * 15 + 1] : memref<390xf32>
        %135 = affine.load %arg4[%arg8 * 10 + 3] : memref<410xf32>
        %136 = affine.load %arg2[%arg8 * 10 + 3, %arg7 * 15 + 1] : memref<410x390xf32>
        %137 = affine.load %arg5[%arg7 * 15 + 1] : memref<390xf32>
        %138 = arith.mulf %136, %137 : f32
        %139 = arith.addf %135, %138 : f32
        affine.store %139, %arg4[%arg8 * 10 + 3] : memref<410xf32>
        affine.store %cst, %arg4[%arg8 * 10 + 4] : memref<410xf32>
        %140 = affine.load %arg3[%arg7 * 15 + 1] : memref<390xf32>
        %141 = affine.load %arg6[%arg8 * 10 + 4] : memref<410xf32>
        %142 = affine.load %arg2[%arg8 * 10 + 4, %arg7 * 15 + 1] : memref<410x390xf32>
        %143 = arith.mulf %141, %142 : f32
        %144 = arith.addf %140, %143 : f32
        affine.store %144, %arg3[%arg7 * 15 + 1] : memref<390xf32>
        %145 = affine.load %arg4[%arg8 * 10 + 4] : memref<410xf32>
        %146 = affine.load %arg2[%arg8 * 10 + 4, %arg7 * 15 + 1] : memref<410x390xf32>
        %147 = affine.load %arg5[%arg7 * 15 + 1] : memref<390xf32>
        %148 = arith.mulf %146, %147 : f32
        %149 = arith.addf %145, %148 : f32
        affine.store %149, %arg4[%arg8 * 10 + 4] : memref<410xf32>
        affine.store %cst, %arg4[%arg8 * 10 + 5] : memref<410xf32>
        %150 = affine.load %arg3[%arg7 * 15 + 1] : memref<390xf32>
        %151 = affine.load %arg6[%arg8 * 10 + 5] : memref<410xf32>
        %152 = affine.load %arg2[%arg8 * 10 + 5, %arg7 * 15 + 1] : memref<410x390xf32>
        %153 = arith.mulf %151, %152 : f32
        %154 = arith.addf %150, %153 : f32
        affine.store %154, %arg3[%arg7 * 15 + 1] : memref<390xf32>
        %155 = affine.load %arg4[%arg8 * 10 + 5] : memref<410xf32>
        %156 = affine.load %arg2[%arg8 * 10 + 5, %arg7 * 15 + 1] : memref<410x390xf32>
        %157 = affine.load %arg5[%arg7 * 15 + 1] : memref<390xf32>
        %158 = arith.mulf %156, %157 : f32
        %159 = arith.addf %155, %158 : f32
        affine.store %159, %arg4[%arg8 * 10 + 5] : memref<410xf32>
        affine.store %cst, %arg4[%arg8 * 10 + 6] : memref<410xf32>
        %160 = affine.load %arg3[%arg7 * 15 + 1] : memref<390xf32>
        %161 = affine.load %arg6[%arg8 * 10 + 6] : memref<410xf32>
        %162 = affine.load %arg2[%arg8 * 10 + 6, %arg7 * 15 + 1] : memref<410x390xf32>
        %163 = arith.mulf %161, %162 : f32
        %164 = arith.addf %160, %163 : f32
        affine.store %164, %arg3[%arg7 * 15 + 1] : memref<390xf32>
        %165 = affine.load %arg4[%arg8 * 10 + 6] : memref<410xf32>
        %166 = affine.load %arg2[%arg8 * 10 + 6, %arg7 * 15 + 1] : memref<410x390xf32>
        %167 = affine.load %arg5[%arg7 * 15 + 1] : memref<390xf32>
        %168 = arith.mulf %166, %167 : f32
        %169 = arith.addf %165, %168 : f32
        affine.store %169, %arg4[%arg8 * 10 + 6] : memref<410xf32>
        affine.store %cst, %arg4[%arg8 * 10 + 7] : memref<410xf32>
        %170 = affine.load %arg3[%arg7 * 15 + 1] : memref<390xf32>
        %171 = affine.load %arg6[%arg8 * 10 + 7] : memref<410xf32>
        %172 = affine.load %arg2[%arg8 * 10 + 7, %arg7 * 15 + 1] : memref<410x390xf32>
        %173 = arith.mulf %171, %172 : f32
        %174 = arith.addf %170, %173 : f32
        affine.store %174, %arg3[%arg7 * 15 + 1] : memref<390xf32>
        %175 = affine.load %arg4[%arg8 * 10 + 7] : memref<410xf32>
        %176 = affine.load %arg2[%arg8 * 10 + 7, %arg7 * 15 + 1] : memref<410x390xf32>
        %177 = affine.load %arg5[%arg7 * 15 + 1] : memref<390xf32>
        %178 = arith.mulf %176, %177 : f32
        %179 = arith.addf %175, %178 : f32
        affine.store %179, %arg4[%arg8 * 10 + 7] : memref<410xf32>
        affine.store %cst, %arg4[%arg8 * 10 + 8] : memref<410xf32>
        %180 = affine.load %arg3[%arg7 * 15 + 1] : memref<390xf32>
        %181 = affine.load %arg6[%arg8 * 10 + 8] : memref<410xf32>
        %182 = affine.load %arg2[%arg8 * 10 + 8, %arg7 * 15 + 1] : memref<410x390xf32>
        %183 = arith.mulf %181, %182 : f32
        %184 = arith.addf %180, %183 : f32
        affine.store %184, %arg3[%arg7 * 15 + 1] : memref<390xf32>
        %185 = affine.load %arg4[%arg8 * 10 + 8] : memref<410xf32>
        %186 = affine.load %arg2[%arg8 * 10 + 8, %arg7 * 15 + 1] : memref<410x390xf32>
        %187 = affine.load %arg5[%arg7 * 15 + 1] : memref<390xf32>
        %188 = arith.mulf %186, %187 : f32
        %189 = arith.addf %185, %188 : f32
        affine.store %189, %arg4[%arg8 * 10 + 8] : memref<410xf32>
        affine.store %cst, %arg4[%arg8 * 10 + 9] : memref<410xf32>
        %190 = affine.load %arg3[%arg7 * 15 + 1] : memref<390xf32>
        %191 = affine.load %arg6[%arg8 * 10 + 9] : memref<410xf32>
        %192 = affine.load %arg2[%arg8 * 10 + 9, %arg7 * 15 + 1] : memref<410x390xf32>
        %193 = arith.mulf %191, %192 : f32
        %194 = arith.addf %190, %193 : f32
        affine.store %194, %arg3[%arg7 * 15 + 1] : memref<390xf32>
        %195 = affine.load %arg4[%arg8 * 10 + 9] : memref<410xf32>
        %196 = affine.load %arg2[%arg8 * 10 + 9, %arg7 * 15 + 1] : memref<410x390xf32>
        %197 = affine.load %arg5[%arg7 * 15 + 1] : memref<390xf32>
        %198 = arith.mulf %196, %197 : f32
        %199 = arith.addf %195, %198 : f32
        affine.store %199, %arg4[%arg8 * 10 + 9] : memref<410xf32>
        affine.store %cst, %arg4[%arg8 * 10] : memref<410xf32>
        %200 = affine.load %arg3[%arg7 * 15 + 2] : memref<390xf32>
        %201 = affine.load %arg6[%arg8 * 10] : memref<410xf32>
        %202 = affine.load %arg2[%arg8 * 10, %arg7 * 15 + 2] : memref<410x390xf32>
        %203 = arith.mulf %201, %202 : f32
        %204 = arith.addf %200, %203 : f32
        affine.store %204, %arg3[%arg7 * 15 + 2] : memref<390xf32>
        %205 = affine.load %arg4[%arg8 * 10] : memref<410xf32>
        %206 = affine.load %arg2[%arg8 * 10, %arg7 * 15 + 2] : memref<410x390xf32>
        %207 = affine.load %arg5[%arg7 * 15 + 2] : memref<390xf32>
        %208 = arith.mulf %206, %207 : f32
        %209 = arith.addf %205, %208 : f32
        affine.store %209, %arg4[%arg8 * 10] : memref<410xf32>
        affine.store %cst, %arg4[%arg8 * 10 + 1] : memref<410xf32>
        %210 = affine.load %arg3[%arg7 * 15 + 2] : memref<390xf32>
        %211 = affine.load %arg6[%arg8 * 10 + 1] : memref<410xf32>
        %212 = affine.load %arg2[%arg8 * 10 + 1, %arg7 * 15 + 2] : memref<410x390xf32>
        %213 = arith.mulf %211, %212 : f32
        %214 = arith.addf %210, %213 : f32
        affine.store %214, %arg3[%arg7 * 15 + 2] : memref<390xf32>
        %215 = affine.load %arg4[%arg8 * 10 + 1] : memref<410xf32>
        %216 = affine.load %arg2[%arg8 * 10 + 1, %arg7 * 15 + 2] : memref<410x390xf32>
        %217 = affine.load %arg5[%arg7 * 15 + 2] : memref<390xf32>
        %218 = arith.mulf %216, %217 : f32
        %219 = arith.addf %215, %218 : f32
        affine.store %219, %arg4[%arg8 * 10 + 1] : memref<410xf32>
        affine.store %cst, %arg4[%arg8 * 10 + 2] : memref<410xf32>
        %220 = affine.load %arg3[%arg7 * 15 + 2] : memref<390xf32>
        %221 = affine.load %arg6[%arg8 * 10 + 2] : memref<410xf32>
        %222 = affine.load %arg2[%arg8 * 10 + 2, %arg7 * 15 + 2] : memref<410x390xf32>
        %223 = arith.mulf %221, %222 : f32
        %224 = arith.addf %220, %223 : f32
        affine.store %224, %arg3[%arg7 * 15 + 2] : memref<390xf32>
        %225 = affine.load %arg4[%arg8 * 10 + 2] : memref<410xf32>
        %226 = affine.load %arg2[%arg8 * 10 + 2, %arg7 * 15 + 2] : memref<410x390xf32>
        %227 = affine.load %arg5[%arg7 * 15 + 2] : memref<390xf32>
        %228 = arith.mulf %226, %227 : f32
        %229 = arith.addf %225, %228 : f32
        affine.store %229, %arg4[%arg8 * 10 + 2] : memref<410xf32>
        affine.store %cst, %arg4[%arg8 * 10 + 3] : memref<410xf32>
        %230 = affine.load %arg3[%arg7 * 15 + 2] : memref<390xf32>
        %231 = affine.load %arg6[%arg8 * 10 + 3] : memref<410xf32>
        %232 = affine.load %arg2[%arg8 * 10 + 3, %arg7 * 15 + 2] : memref<410x390xf32>
        %233 = arith.mulf %231, %232 : f32
        %234 = arith.addf %230, %233 : f32
        affine.store %234, %arg3[%arg7 * 15 + 2] : memref<390xf32>
        %235 = affine.load %arg4[%arg8 * 10 + 3] : memref<410xf32>
        %236 = affine.load %arg2[%arg8 * 10 + 3, %arg7 * 15 + 2] : memref<410x390xf32>
        %237 = affine.load %arg5[%arg7 * 15 + 2] : memref<390xf32>
        %238 = arith.mulf %236, %237 : f32
        %239 = arith.addf %235, %238 : f32
        affine.store %239, %arg4[%arg8 * 10 + 3] : memref<410xf32>
        affine.store %cst, %arg4[%arg8 * 10 + 4] : memref<410xf32>
        %240 = affine.load %arg3[%arg7 * 15 + 2] : memref<390xf32>
        %241 = affine.load %arg6[%arg8 * 10 + 4] : memref<410xf32>
        %242 = affine.load %arg2[%arg8 * 10 + 4, %arg7 * 15 + 2] : memref<410x390xf32>
        %243 = arith.mulf %241, %242 : f32
        %244 = arith.addf %240, %243 : f32
        affine.store %244, %arg3[%arg7 * 15 + 2] : memref<390xf32>
        %245 = affine.load %arg4[%arg8 * 10 + 4] : memref<410xf32>
        %246 = affine.load %arg2[%arg8 * 10 + 4, %arg7 * 15 + 2] : memref<410x390xf32>
        %247 = affine.load %arg5[%arg7 * 15 + 2] : memref<390xf32>
        %248 = arith.mulf %246, %247 : f32
        %249 = arith.addf %245, %248 : f32
        affine.store %249, %arg4[%arg8 * 10 + 4] : memref<410xf32>
        affine.store %cst, %arg4[%arg8 * 10 + 5] : memref<410xf32>
        %250 = affine.load %arg3[%arg7 * 15 + 2] : memref<390xf32>
        %251 = affine.load %arg6[%arg8 * 10 + 5] : memref<410xf32>
        %252 = affine.load %arg2[%arg8 * 10 + 5, %arg7 * 15 + 2] : memref<410x390xf32>
        %253 = arith.mulf %251, %252 : f32
        %254 = arith.addf %250, %253 : f32
        affine.store %254, %arg3[%arg7 * 15 + 2] : memref<390xf32>
        %255 = affine.load %arg4[%arg8 * 10 + 5] : memref<410xf32>
        %256 = affine.load %arg2[%arg8 * 10 + 5, %arg7 * 15 + 2] : memref<410x390xf32>
        %257 = affine.load %arg5[%arg7 * 15 + 2] : memref<390xf32>
        %258 = arith.mulf %256, %257 : f32
        %259 = arith.addf %255, %258 : f32
        affine.store %259, %arg4[%arg8 * 10 + 5] : memref<410xf32>
        affine.store %cst, %arg4[%arg8 * 10 + 6] : memref<410xf32>
        %260 = affine.load %arg3[%arg7 * 15 + 2] : memref<390xf32>
        %261 = affine.load %arg6[%arg8 * 10 + 6] : memref<410xf32>
        %262 = affine.load %arg2[%arg8 * 10 + 6, %arg7 * 15 + 2] : memref<410x390xf32>
        %263 = arith.mulf %261, %262 : f32
        %264 = arith.addf %260, %263 : f32
        affine.store %264, %arg3[%arg7 * 15 + 2] : memref<390xf32>
        %265 = affine.load %arg4[%arg8 * 10 + 6] : memref<410xf32>
        %266 = affine.load %arg2[%arg8 * 10 + 6, %arg7 * 15 + 2] : memref<410x390xf32>
        %267 = affine.load %arg5[%arg7 * 15 + 2] : memref<390xf32>
        %268 = arith.mulf %266, %267 : f32
        %269 = arith.addf %265, %268 : f32
        affine.store %269, %arg4[%arg8 * 10 + 6] : memref<410xf32>
        affine.store %cst, %arg4[%arg8 * 10 + 7] : memref<410xf32>
        %270 = affine.load %arg3[%arg7 * 15 + 2] : memref<390xf32>
        %271 = affine.load %arg6[%arg8 * 10 + 7] : memref<410xf32>
        %272 = affine.load %arg2[%arg8 * 10 + 7, %arg7 * 15 + 2] : memref<410x390xf32>
        %273 = arith.mulf %271, %272 : f32
        %274 = arith.addf %270, %273 : f32
        affine.store %274, %arg3[%arg7 * 15 + 2] : memref<390xf32>
        %275 = affine.load %arg4[%arg8 * 10 + 7] : memref<410xf32>
        %276 = affine.load %arg2[%arg8 * 10 + 7, %arg7 * 15 + 2] : memref<410x390xf32>
        %277 = affine.load %arg5[%arg7 * 15 + 2] : memref<390xf32>
        %278 = arith.mulf %276, %277 : f32
        %279 = arith.addf %275, %278 : f32
        affine.store %279, %arg4[%arg8 * 10 + 7] : memref<410xf32>
        affine.store %cst, %arg4[%arg8 * 10 + 8] : memref<410xf32>
        %280 = affine.load %arg3[%arg7 * 15 + 2] : memref<390xf32>
        %281 = affine.load %arg6[%arg8 * 10 + 8] : memref<410xf32>
        %282 = affine.load %arg2[%arg8 * 10 + 8, %arg7 * 15 + 2] : memref<410x390xf32>
        %283 = arith.mulf %281, %282 : f32
        %284 = arith.addf %280, %283 : f32
        affine.store %284, %arg3[%arg7 * 15 + 2] : memref<390xf32>
        %285 = affine.load %arg4[%arg8 * 10 + 8] : memref<410xf32>
        %286 = affine.load %arg2[%arg8 * 10 + 8, %arg7 * 15 + 2] : memref<410x390xf32>
        %287 = affine.load %arg5[%arg7 * 15 + 2] : memref<390xf32>
        %288 = arith.mulf %286, %287 : f32
        %289 = arith.addf %285, %288 : f32
        affine.store %289, %arg4[%arg8 * 10 + 8] : memref<410xf32>
        affine.store %cst, %arg4[%arg8 * 10 + 9] : memref<410xf32>
        %290 = affine.load %arg3[%arg7 * 15 + 2] : memref<390xf32>
        %291 = affine.load %arg6[%arg8 * 10 + 9] : memref<410xf32>
        %292 = affine.load %arg2[%arg8 * 10 + 9, %arg7 * 15 + 2] : memref<410x390xf32>
        %293 = arith.mulf %291, %292 : f32
        %294 = arith.addf %290, %293 : f32
        affine.store %294, %arg3[%arg7 * 15 + 2] : memref<390xf32>
        %295 = affine.load %arg4[%arg8 * 10 + 9] : memref<410xf32>
        %296 = affine.load %arg2[%arg8 * 10 + 9, %arg7 * 15 + 2] : memref<410x390xf32>
        %297 = affine.load %arg5[%arg7 * 15 + 2] : memref<390xf32>
        %298 = arith.mulf %296, %297 : f32
        %299 = arith.addf %295, %298 : f32
        affine.store %299, %arg4[%arg8 * 10 + 9] : memref<410xf32>
        affine.store %cst, %arg4[%arg8 * 10] : memref<410xf32>
        %300 = affine.load %arg3[%arg7 * 15 + 3] : memref<390xf32>
        %301 = affine.load %arg6[%arg8 * 10] : memref<410xf32>
        %302 = affine.load %arg2[%arg8 * 10, %arg7 * 15 + 3] : memref<410x390xf32>
        %303 = arith.mulf %301, %302 : f32
        %304 = arith.addf %300, %303 : f32
        affine.store %304, %arg3[%arg7 * 15 + 3] : memref<390xf32>
        %305 = affine.load %arg4[%arg8 * 10] : memref<410xf32>
        %306 = affine.load %arg2[%arg8 * 10, %arg7 * 15 + 3] : memref<410x390xf32>
        %307 = affine.load %arg5[%arg7 * 15 + 3] : memref<390xf32>
        %308 = arith.mulf %306, %307 : f32
        %309 = arith.addf %305, %308 : f32
        affine.store %309, %arg4[%arg8 * 10] : memref<410xf32>
        affine.store %cst, %arg4[%arg8 * 10 + 1] : memref<410xf32>
        %310 = affine.load %arg3[%arg7 * 15 + 3] : memref<390xf32>
        %311 = affine.load %arg6[%arg8 * 10 + 1] : memref<410xf32>
        %312 = affine.load %arg2[%arg8 * 10 + 1, %arg7 * 15 + 3] : memref<410x390xf32>
        %313 = arith.mulf %311, %312 : f32
        %314 = arith.addf %310, %313 : f32
        affine.store %314, %arg3[%arg7 * 15 + 3] : memref<390xf32>
        %315 = affine.load %arg4[%arg8 * 10 + 1] : memref<410xf32>
        %316 = affine.load %arg2[%arg8 * 10 + 1, %arg7 * 15 + 3] : memref<410x390xf32>
        %317 = affine.load %arg5[%arg7 * 15 + 3] : memref<390xf32>
        %318 = arith.mulf %316, %317 : f32
        %319 = arith.addf %315, %318 : f32
        affine.store %319, %arg4[%arg8 * 10 + 1] : memref<410xf32>
        affine.store %cst, %arg4[%arg8 * 10 + 2] : memref<410xf32>
        %320 = affine.load %arg3[%arg7 * 15 + 3] : memref<390xf32>
        %321 = affine.load %arg6[%arg8 * 10 + 2] : memref<410xf32>
        %322 = affine.load %arg2[%arg8 * 10 + 2, %arg7 * 15 + 3] : memref<410x390xf32>
        %323 = arith.mulf %321, %322 : f32
        %324 = arith.addf %320, %323 : f32
        affine.store %324, %arg3[%arg7 * 15 + 3] : memref<390xf32>
        %325 = affine.load %arg4[%arg8 * 10 + 2] : memref<410xf32>
        %326 = affine.load %arg2[%arg8 * 10 + 2, %arg7 * 15 + 3] : memref<410x390xf32>
        %327 = affine.load %arg5[%arg7 * 15 + 3] : memref<390xf32>
        %328 = arith.mulf %326, %327 : f32
        %329 = arith.addf %325, %328 : f32
        affine.store %329, %arg4[%arg8 * 10 + 2] : memref<410xf32>
        affine.store %cst, %arg4[%arg8 * 10 + 3] : memref<410xf32>
        %330 = affine.load %arg3[%arg7 * 15 + 3] : memref<390xf32>
        %331 = affine.load %arg6[%arg8 * 10 + 3] : memref<410xf32>
        %332 = affine.load %arg2[%arg8 * 10 + 3, %arg7 * 15 + 3] : memref<410x390xf32>
        %333 = arith.mulf %331, %332 : f32
        %334 = arith.addf %330, %333 : f32
        affine.store %334, %arg3[%arg7 * 15 + 3] : memref<390xf32>
        %335 = affine.load %arg4[%arg8 * 10 + 3] : memref<410xf32>
        %336 = affine.load %arg2[%arg8 * 10 + 3, %arg7 * 15 + 3] : memref<410x390xf32>
        %337 = affine.load %arg5[%arg7 * 15 + 3] : memref<390xf32>
        %338 = arith.mulf %336, %337 : f32
        %339 = arith.addf %335, %338 : f32
        affine.store %339, %arg4[%arg8 * 10 + 3] : memref<410xf32>
        affine.store %cst, %arg4[%arg8 * 10 + 4] : memref<410xf32>
        %340 = affine.load %arg3[%arg7 * 15 + 3] : memref<390xf32>
        %341 = affine.load %arg6[%arg8 * 10 + 4] : memref<410xf32>
        %342 = affine.load %arg2[%arg8 * 10 + 4, %arg7 * 15 + 3] : memref<410x390xf32>
        %343 = arith.mulf %341, %342 : f32
        %344 = arith.addf %340, %343 : f32
        affine.store %344, %arg3[%arg7 * 15 + 3] : memref<390xf32>
        %345 = affine.load %arg4[%arg8 * 10 + 4] : memref<410xf32>
        %346 = affine.load %arg2[%arg8 * 10 + 4, %arg7 * 15 + 3] : memref<410x390xf32>
        %347 = affine.load %arg5[%arg7 * 15 + 3] : memref<390xf32>
        %348 = arith.mulf %346, %347 : f32
        %349 = arith.addf %345, %348 : f32
        affine.store %349, %arg4[%arg8 * 10 + 4] : memref<410xf32>
        affine.store %cst, %arg4[%arg8 * 10 + 5] : memref<410xf32>
        %350 = affine.load %arg3[%arg7 * 15 + 3] : memref<390xf32>
        %351 = affine.load %arg6[%arg8 * 10 + 5] : memref<410xf32>
        %352 = affine.load %arg2[%arg8 * 10 + 5, %arg7 * 15 + 3] : memref<410x390xf32>
        %353 = arith.mulf %351, %352 : f32
        %354 = arith.addf %350, %353 : f32
        affine.store %354, %arg3[%arg7 * 15 + 3] : memref<390xf32>
        %355 = affine.load %arg4[%arg8 * 10 + 5] : memref<410xf32>
        %356 = affine.load %arg2[%arg8 * 10 + 5, %arg7 * 15 + 3] : memref<410x390xf32>
        %357 = affine.load %arg5[%arg7 * 15 + 3] : memref<390xf32>
        %358 = arith.mulf %356, %357 : f32
        %359 = arith.addf %355, %358 : f32
        affine.store %359, %arg4[%arg8 * 10 + 5] : memref<410xf32>
        affine.store %cst, %arg4[%arg8 * 10 + 6] : memref<410xf32>
        %360 = affine.load %arg3[%arg7 * 15 + 3] : memref<390xf32>
        %361 = affine.load %arg6[%arg8 * 10 + 6] : memref<410xf32>
        %362 = affine.load %arg2[%arg8 * 10 + 6, %arg7 * 15 + 3] : memref<410x390xf32>
        %363 = arith.mulf %361, %362 : f32
        %364 = arith.addf %360, %363 : f32
        affine.store %364, %arg3[%arg7 * 15 + 3] : memref<390xf32>
        %365 = affine.load %arg4[%arg8 * 10 + 6] : memref<410xf32>
        %366 = affine.load %arg2[%arg8 * 10 + 6, %arg7 * 15 + 3] : memref<410x390xf32>
        %367 = affine.load %arg5[%arg7 * 15 + 3] : memref<390xf32>
        %368 = arith.mulf %366, %367 : f32
        %369 = arith.addf %365, %368 : f32
        affine.store %369, %arg4[%arg8 * 10 + 6] : memref<410xf32>
        affine.store %cst, %arg4[%arg8 * 10 + 7] : memref<410xf32>
        %370 = affine.load %arg3[%arg7 * 15 + 3] : memref<390xf32>
        %371 = affine.load %arg6[%arg8 * 10 + 7] : memref<410xf32>
        %372 = affine.load %arg2[%arg8 * 10 + 7, %arg7 * 15 + 3] : memref<410x390xf32>
        %373 = arith.mulf %371, %372 : f32
        %374 = arith.addf %370, %373 : f32
        affine.store %374, %arg3[%arg7 * 15 + 3] : memref<390xf32>
        %375 = affine.load %arg4[%arg8 * 10 + 7] : memref<410xf32>
        %376 = affine.load %arg2[%arg8 * 10 + 7, %arg7 * 15 + 3] : memref<410x390xf32>
        %377 = affine.load %arg5[%arg7 * 15 + 3] : memref<390xf32>
        %378 = arith.mulf %376, %377 : f32
        %379 = arith.addf %375, %378 : f32
        affine.store %379, %arg4[%arg8 * 10 + 7] : memref<410xf32>
        affine.store %cst, %arg4[%arg8 * 10 + 8] : memref<410xf32>
        %380 = affine.load %arg3[%arg7 * 15 + 3] : memref<390xf32>
        %381 = affine.load %arg6[%arg8 * 10 + 8] : memref<410xf32>
        %382 = affine.load %arg2[%arg8 * 10 + 8, %arg7 * 15 + 3] : memref<410x390xf32>
        %383 = arith.mulf %381, %382 : f32
        %384 = arith.addf %380, %383 : f32
        affine.store %384, %arg3[%arg7 * 15 + 3] : memref<390xf32>
        %385 = affine.load %arg4[%arg8 * 10 + 8] : memref<410xf32>
        %386 = affine.load %arg2[%arg8 * 10 + 8, %arg7 * 15 + 3] : memref<410x390xf32>
        %387 = affine.load %arg5[%arg7 * 15 + 3] : memref<390xf32>
        %388 = arith.mulf %386, %387 : f32
        %389 = arith.addf %385, %388 : f32
        affine.store %389, %arg4[%arg8 * 10 + 8] : memref<410xf32>
        affine.store %cst, %arg4[%arg8 * 10 + 9] : memref<410xf32>
        %390 = affine.load %arg3[%arg7 * 15 + 3] : memref<390xf32>
        %391 = affine.load %arg6[%arg8 * 10 + 9] : memref<410xf32>
        %392 = affine.load %arg2[%arg8 * 10 + 9, %arg7 * 15 + 3] : memref<410x390xf32>
        %393 = arith.mulf %391, %392 : f32
        %394 = arith.addf %390, %393 : f32
        affine.store %394, %arg3[%arg7 * 15 + 3] : memref<390xf32>
        %395 = affine.load %arg4[%arg8 * 10 + 9] : memref<410xf32>
        %396 = affine.load %arg2[%arg8 * 10 + 9, %arg7 * 15 + 3] : memref<410x390xf32>
        %397 = affine.load %arg5[%arg7 * 15 + 3] : memref<390xf32>
        %398 = arith.mulf %396, %397 : f32
        %399 = arith.addf %395, %398 : f32
        affine.store %399, %arg4[%arg8 * 10 + 9] : memref<410xf32>
        affine.store %cst, %arg4[%arg8 * 10] : memref<410xf32>
        %400 = affine.load %arg3[%arg7 * 15 + 4] : memref<390xf32>
        %401 = affine.load %arg6[%arg8 * 10] : memref<410xf32>
        %402 = affine.load %arg2[%arg8 * 10, %arg7 * 15 + 4] : memref<410x390xf32>
        %403 = arith.mulf %401, %402 : f32
        %404 = arith.addf %400, %403 : f32
        affine.store %404, %arg3[%arg7 * 15 + 4] : memref<390xf32>
        %405 = affine.load %arg4[%arg8 * 10] : memref<410xf32>
        %406 = affine.load %arg2[%arg8 * 10, %arg7 * 15 + 4] : memref<410x390xf32>
        %407 = affine.load %arg5[%arg7 * 15 + 4] : memref<390xf32>
        %408 = arith.mulf %406, %407 : f32
        %409 = arith.addf %405, %408 : f32
        affine.store %409, %arg4[%arg8 * 10] : memref<410xf32>
        affine.store %cst, %arg4[%arg8 * 10 + 1] : memref<410xf32>
        %410 = affine.load %arg3[%arg7 * 15 + 4] : memref<390xf32>
        %411 = affine.load %arg6[%arg8 * 10 + 1] : memref<410xf32>
        %412 = affine.load %arg2[%arg8 * 10 + 1, %arg7 * 15 + 4] : memref<410x390xf32>
        %413 = arith.mulf %411, %412 : f32
        %414 = arith.addf %410, %413 : f32
        affine.store %414, %arg3[%arg7 * 15 + 4] : memref<390xf32>
        %415 = affine.load %arg4[%arg8 * 10 + 1] : memref<410xf32>
        %416 = affine.load %arg2[%arg8 * 10 + 1, %arg7 * 15 + 4] : memref<410x390xf32>
        %417 = affine.load %arg5[%arg7 * 15 + 4] : memref<390xf32>
        %418 = arith.mulf %416, %417 : f32
        %419 = arith.addf %415, %418 : f32
        affine.store %419, %arg4[%arg8 * 10 + 1] : memref<410xf32>
        affine.store %cst, %arg4[%arg8 * 10 + 2] : memref<410xf32>
        %420 = affine.load %arg3[%arg7 * 15 + 4] : memref<390xf32>
        %421 = affine.load %arg6[%arg8 * 10 + 2] : memref<410xf32>
        %422 = affine.load %arg2[%arg8 * 10 + 2, %arg7 * 15 + 4] : memref<410x390xf32>
        %423 = arith.mulf %421, %422 : f32
        %424 = arith.addf %420, %423 : f32
        affine.store %424, %arg3[%arg7 * 15 + 4] : memref<390xf32>
        %425 = affine.load %arg4[%arg8 * 10 + 2] : memref<410xf32>
        %426 = affine.load %arg2[%arg8 * 10 + 2, %arg7 * 15 + 4] : memref<410x390xf32>
        %427 = affine.load %arg5[%arg7 * 15 + 4] : memref<390xf32>
        %428 = arith.mulf %426, %427 : f32
        %429 = arith.addf %425, %428 : f32
        affine.store %429, %arg4[%arg8 * 10 + 2] : memref<410xf32>
        affine.store %cst, %arg4[%arg8 * 10 + 3] : memref<410xf32>
        %430 = affine.load %arg3[%arg7 * 15 + 4] : memref<390xf32>
        %431 = affine.load %arg6[%arg8 * 10 + 3] : memref<410xf32>
        %432 = affine.load %arg2[%arg8 * 10 + 3, %arg7 * 15 + 4] : memref<410x390xf32>
        %433 = arith.mulf %431, %432 : f32
        %434 = arith.addf %430, %433 : f32
        affine.store %434, %arg3[%arg7 * 15 + 4] : memref<390xf32>
        %435 = affine.load %arg4[%arg8 * 10 + 3] : memref<410xf32>
        %436 = affine.load %arg2[%arg8 * 10 + 3, %arg7 * 15 + 4] : memref<410x390xf32>
        %437 = affine.load %arg5[%arg7 * 15 + 4] : memref<390xf32>
        %438 = arith.mulf %436, %437 : f32
        %439 = arith.addf %435, %438 : f32
        affine.store %439, %arg4[%arg8 * 10 + 3] : memref<410xf32>
        affine.store %cst, %arg4[%arg8 * 10 + 4] : memref<410xf32>
        %440 = affine.load %arg3[%arg7 * 15 + 4] : memref<390xf32>
        %441 = affine.load %arg6[%arg8 * 10 + 4] : memref<410xf32>
        %442 = affine.load %arg2[%arg8 * 10 + 4, %arg7 * 15 + 4] : memref<410x390xf32>
        %443 = arith.mulf %441, %442 : f32
        %444 = arith.addf %440, %443 : f32
        affine.store %444, %arg3[%arg7 * 15 + 4] : memref<390xf32>
        %445 = affine.load %arg4[%arg8 * 10 + 4] : memref<410xf32>
        %446 = affine.load %arg2[%arg8 * 10 + 4, %arg7 * 15 + 4] : memref<410x390xf32>
        %447 = affine.load %arg5[%arg7 * 15 + 4] : memref<390xf32>
        %448 = arith.mulf %446, %447 : f32
        %449 = arith.addf %445, %448 : f32
        affine.store %449, %arg4[%arg8 * 10 + 4] : memref<410xf32>
        affine.store %cst, %arg4[%arg8 * 10 + 5] : memref<410xf32>
        %450 = affine.load %arg3[%arg7 * 15 + 4] : memref<390xf32>
        %451 = affine.load %arg6[%arg8 * 10 + 5] : memref<410xf32>
        %452 = affine.load %arg2[%arg8 * 10 + 5, %arg7 * 15 + 4] : memref<410x390xf32>
        %453 = arith.mulf %451, %452 : f32
        %454 = arith.addf %450, %453 : f32
        affine.store %454, %arg3[%arg7 * 15 + 4] : memref<390xf32>
        %455 = affine.load %arg4[%arg8 * 10 + 5] : memref<410xf32>
        %456 = affine.load %arg2[%arg8 * 10 + 5, %arg7 * 15 + 4] : memref<410x390xf32>
        %457 = affine.load %arg5[%arg7 * 15 + 4] : memref<390xf32>
        %458 = arith.mulf %456, %457 : f32
        %459 = arith.addf %455, %458 : f32
        affine.store %459, %arg4[%arg8 * 10 + 5] : memref<410xf32>
        affine.store %cst, %arg4[%arg8 * 10 + 6] : memref<410xf32>
        %460 = affine.load %arg3[%arg7 * 15 + 4] : memref<390xf32>
        %461 = affine.load %arg6[%arg8 * 10 + 6] : memref<410xf32>
        %462 = affine.load %arg2[%arg8 * 10 + 6, %arg7 * 15 + 4] : memref<410x390xf32>
        %463 = arith.mulf %461, %462 : f32
        %464 = arith.addf %460, %463 : f32
        affine.store %464, %arg3[%arg7 * 15 + 4] : memref<390xf32>
        %465 = affine.load %arg4[%arg8 * 10 + 6] : memref<410xf32>
        %466 = affine.load %arg2[%arg8 * 10 + 6, %arg7 * 15 + 4] : memref<410x390xf32>
        %467 = affine.load %arg5[%arg7 * 15 + 4] : memref<390xf32>
        %468 = arith.mulf %466, %467 : f32
        %469 = arith.addf %465, %468 : f32
        affine.store %469, %arg4[%arg8 * 10 + 6] : memref<410xf32>
        affine.store %cst, %arg4[%arg8 * 10 + 7] : memref<410xf32>
        %470 = affine.load %arg3[%arg7 * 15 + 4] : memref<390xf32>
        %471 = affine.load %arg6[%arg8 * 10 + 7] : memref<410xf32>
        %472 = affine.load %arg2[%arg8 * 10 + 7, %arg7 * 15 + 4] : memref<410x390xf32>
        %473 = arith.mulf %471, %472 : f32
        %474 = arith.addf %470, %473 : f32
        affine.store %474, %arg3[%arg7 * 15 + 4] : memref<390xf32>
        %475 = affine.load %arg4[%arg8 * 10 + 7] : memref<410xf32>
        %476 = affine.load %arg2[%arg8 * 10 + 7, %arg7 * 15 + 4] : memref<410x390xf32>
        %477 = affine.load %arg5[%arg7 * 15 + 4] : memref<390xf32>
        %478 = arith.mulf %476, %477 : f32
        %479 = arith.addf %475, %478 : f32
        affine.store %479, %arg4[%arg8 * 10 + 7] : memref<410xf32>
        affine.store %cst, %arg4[%arg8 * 10 + 8] : memref<410xf32>
        %480 = affine.load %arg3[%arg7 * 15 + 4] : memref<390xf32>
        %481 = affine.load %arg6[%arg8 * 10 + 8] : memref<410xf32>
        %482 = affine.load %arg2[%arg8 * 10 + 8, %arg7 * 15 + 4] : memref<410x390xf32>
        %483 = arith.mulf %481, %482 : f32
        %484 = arith.addf %480, %483 : f32
        affine.store %484, %arg3[%arg7 * 15 + 4] : memref<390xf32>
        %485 = affine.load %arg4[%arg8 * 10 + 8] : memref<410xf32>
        %486 = affine.load %arg2[%arg8 * 10 + 8, %arg7 * 15 + 4] : memref<410x390xf32>
        %487 = affine.load %arg5[%arg7 * 15 + 4] : memref<390xf32>
        %488 = arith.mulf %486, %487 : f32
        %489 = arith.addf %485, %488 : f32
        affine.store %489, %arg4[%arg8 * 10 + 8] : memref<410xf32>
        affine.store %cst, %arg4[%arg8 * 10 + 9] : memref<410xf32>
        %490 = affine.load %arg3[%arg7 * 15 + 4] : memref<390xf32>
        %491 = affine.load %arg6[%arg8 * 10 + 9] : memref<410xf32>
        %492 = affine.load %arg2[%arg8 * 10 + 9, %arg7 * 15 + 4] : memref<410x390xf32>
        %493 = arith.mulf %491, %492 : f32
        %494 = arith.addf %490, %493 : f32
        affine.store %494, %arg3[%arg7 * 15 + 4] : memref<390xf32>
        %495 = affine.load %arg4[%arg8 * 10 + 9] : memref<410xf32>
        %496 = affine.load %arg2[%arg8 * 10 + 9, %arg7 * 15 + 4] : memref<410x390xf32>
        %497 = affine.load %arg5[%arg7 * 15 + 4] : memref<390xf32>
        %498 = arith.mulf %496, %497 : f32
        %499 = arith.addf %495, %498 : f32
        affine.store %499, %arg4[%arg8 * 10 + 9] : memref<410xf32>
        affine.store %cst, %arg4[%arg8 * 10] : memref<410xf32>
        %500 = affine.load %arg3[%arg7 * 15 + 5] : memref<390xf32>
        %501 = affine.load %arg6[%arg8 * 10] : memref<410xf32>
        %502 = affine.load %arg2[%arg8 * 10, %arg7 * 15 + 5] : memref<410x390xf32>
        %503 = arith.mulf %501, %502 : f32
        %504 = arith.addf %500, %503 : f32
        affine.store %504, %arg3[%arg7 * 15 + 5] : memref<390xf32>
        %505 = affine.load %arg4[%arg8 * 10] : memref<410xf32>
        %506 = affine.load %arg2[%arg8 * 10, %arg7 * 15 + 5] : memref<410x390xf32>
        %507 = affine.load %arg5[%arg7 * 15 + 5] : memref<390xf32>
        %508 = arith.mulf %506, %507 : f32
        %509 = arith.addf %505, %508 : f32
        affine.store %509, %arg4[%arg8 * 10] : memref<410xf32>
        affine.store %cst, %arg4[%arg8 * 10 + 1] : memref<410xf32>
        %510 = affine.load %arg3[%arg7 * 15 + 5] : memref<390xf32>
        %511 = affine.load %arg6[%arg8 * 10 + 1] : memref<410xf32>
        %512 = affine.load %arg2[%arg8 * 10 + 1, %arg7 * 15 + 5] : memref<410x390xf32>
        %513 = arith.mulf %511, %512 : f32
        %514 = arith.addf %510, %513 : f32
        affine.store %514, %arg3[%arg7 * 15 + 5] : memref<390xf32>
        %515 = affine.load %arg4[%arg8 * 10 + 1] : memref<410xf32>
        %516 = affine.load %arg2[%arg8 * 10 + 1, %arg7 * 15 + 5] : memref<410x390xf32>
        %517 = affine.load %arg5[%arg7 * 15 + 5] : memref<390xf32>
        %518 = arith.mulf %516, %517 : f32
        %519 = arith.addf %515, %518 : f32
        affine.store %519, %arg4[%arg8 * 10 + 1] : memref<410xf32>
        affine.store %cst, %arg4[%arg8 * 10 + 2] : memref<410xf32>
        %520 = affine.load %arg3[%arg7 * 15 + 5] : memref<390xf32>
        %521 = affine.load %arg6[%arg8 * 10 + 2] : memref<410xf32>
        %522 = affine.load %arg2[%arg8 * 10 + 2, %arg7 * 15 + 5] : memref<410x390xf32>
        %523 = arith.mulf %521, %522 : f32
        %524 = arith.addf %520, %523 : f32
        affine.store %524, %arg3[%arg7 * 15 + 5] : memref<390xf32>
        %525 = affine.load %arg4[%arg8 * 10 + 2] : memref<410xf32>
        %526 = affine.load %arg2[%arg8 * 10 + 2, %arg7 * 15 + 5] : memref<410x390xf32>
        %527 = affine.load %arg5[%arg7 * 15 + 5] : memref<390xf32>
        %528 = arith.mulf %526, %527 : f32
        %529 = arith.addf %525, %528 : f32
        affine.store %529, %arg4[%arg8 * 10 + 2] : memref<410xf32>
        affine.store %cst, %arg4[%arg8 * 10 + 3] : memref<410xf32>
        %530 = affine.load %arg3[%arg7 * 15 + 5] : memref<390xf32>
        %531 = affine.load %arg6[%arg8 * 10 + 3] : memref<410xf32>
        %532 = affine.load %arg2[%arg8 * 10 + 3, %arg7 * 15 + 5] : memref<410x390xf32>
        %533 = arith.mulf %531, %532 : f32
        %534 = arith.addf %530, %533 : f32
        affine.store %534, %arg3[%arg7 * 15 + 5] : memref<390xf32>
        %535 = affine.load %arg4[%arg8 * 10 + 3] : memref<410xf32>
        %536 = affine.load %arg2[%arg8 * 10 + 3, %arg7 * 15 + 5] : memref<410x390xf32>
        %537 = affine.load %arg5[%arg7 * 15 + 5] : memref<390xf32>
        %538 = arith.mulf %536, %537 : f32
        %539 = arith.addf %535, %538 : f32
        affine.store %539, %arg4[%arg8 * 10 + 3] : memref<410xf32>
        affine.store %cst, %arg4[%arg8 * 10 + 4] : memref<410xf32>
        %540 = affine.load %arg3[%arg7 * 15 + 5] : memref<390xf32>
        %541 = affine.load %arg6[%arg8 * 10 + 4] : memref<410xf32>
        %542 = affine.load %arg2[%arg8 * 10 + 4, %arg7 * 15 + 5] : memref<410x390xf32>
        %543 = arith.mulf %541, %542 : f32
        %544 = arith.addf %540, %543 : f32
        affine.store %544, %arg3[%arg7 * 15 + 5] : memref<390xf32>
        %545 = affine.load %arg4[%arg8 * 10 + 4] : memref<410xf32>
        %546 = affine.load %arg2[%arg8 * 10 + 4, %arg7 * 15 + 5] : memref<410x390xf32>
        %547 = affine.load %arg5[%arg7 * 15 + 5] : memref<390xf32>
        %548 = arith.mulf %546, %547 : f32
        %549 = arith.addf %545, %548 : f32
        affine.store %549, %arg4[%arg8 * 10 + 4] : memref<410xf32>
        affine.store %cst, %arg4[%arg8 * 10 + 5] : memref<410xf32>
        %550 = affine.load %arg3[%arg7 * 15 + 5] : memref<390xf32>
        %551 = affine.load %arg6[%arg8 * 10 + 5] : memref<410xf32>
        %552 = affine.load %arg2[%arg8 * 10 + 5, %arg7 * 15 + 5] : memref<410x390xf32>
        %553 = arith.mulf %551, %552 : f32
        %554 = arith.addf %550, %553 : f32
        affine.store %554, %arg3[%arg7 * 15 + 5] : memref<390xf32>
        %555 = affine.load %arg4[%arg8 * 10 + 5] : memref<410xf32>
        %556 = affine.load %arg2[%arg8 * 10 + 5, %arg7 * 15 + 5] : memref<410x390xf32>
        %557 = affine.load %arg5[%arg7 * 15 + 5] : memref<390xf32>
        %558 = arith.mulf %556, %557 : f32
        %559 = arith.addf %555, %558 : f32
        affine.store %559, %arg4[%arg8 * 10 + 5] : memref<410xf32>
        affine.store %cst, %arg4[%arg8 * 10 + 6] : memref<410xf32>
        %560 = affine.load %arg3[%arg7 * 15 + 5] : memref<390xf32>
        %561 = affine.load %arg6[%arg8 * 10 + 6] : memref<410xf32>
        %562 = affine.load %arg2[%arg8 * 10 + 6, %arg7 * 15 + 5] : memref<410x390xf32>
        %563 = arith.mulf %561, %562 : f32
        %564 = arith.addf %560, %563 : f32
        affine.store %564, %arg3[%arg7 * 15 + 5] : memref<390xf32>
        %565 = affine.load %arg4[%arg8 * 10 + 6] : memref<410xf32>
        %566 = affine.load %arg2[%arg8 * 10 + 6, %arg7 * 15 + 5] : memref<410x390xf32>
        %567 = affine.load %arg5[%arg7 * 15 + 5] : memref<390xf32>
        %568 = arith.mulf %566, %567 : f32
        %569 = arith.addf %565, %568 : f32
        affine.store %569, %arg4[%arg8 * 10 + 6] : memref<410xf32>
        affine.store %cst, %arg4[%arg8 * 10 + 7] : memref<410xf32>
        %570 = affine.load %arg3[%arg7 * 15 + 5] : memref<390xf32>
        %571 = affine.load %arg6[%arg8 * 10 + 7] : memref<410xf32>
        %572 = affine.load %arg2[%arg8 * 10 + 7, %arg7 * 15 + 5] : memref<410x390xf32>
        %573 = arith.mulf %571, %572 : f32
        %574 = arith.addf %570, %573 : f32
        affine.store %574, %arg3[%arg7 * 15 + 5] : memref<390xf32>
        %575 = affine.load %arg4[%arg8 * 10 + 7] : memref<410xf32>
        %576 = affine.load %arg2[%arg8 * 10 + 7, %arg7 * 15 + 5] : memref<410x390xf32>
        %577 = affine.load %arg5[%arg7 * 15 + 5] : memref<390xf32>
        %578 = arith.mulf %576, %577 : f32
        %579 = arith.addf %575, %578 : f32
        affine.store %579, %arg4[%arg8 * 10 + 7] : memref<410xf32>
        affine.store %cst, %arg4[%arg8 * 10 + 8] : memref<410xf32>
        %580 = affine.load %arg3[%arg7 * 15 + 5] : memref<390xf32>
        %581 = affine.load %arg6[%arg8 * 10 + 8] : memref<410xf32>
        %582 = affine.load %arg2[%arg8 * 10 + 8, %arg7 * 15 + 5] : memref<410x390xf32>
        %583 = arith.mulf %581, %582 : f32
        %584 = arith.addf %580, %583 : f32
        affine.store %584, %arg3[%arg7 * 15 + 5] : memref<390xf32>
        %585 = affine.load %arg4[%arg8 * 10 + 8] : memref<410xf32>
        %586 = affine.load %arg2[%arg8 * 10 + 8, %arg7 * 15 + 5] : memref<410x390xf32>
        %587 = affine.load %arg5[%arg7 * 15 + 5] : memref<390xf32>
        %588 = arith.mulf %586, %587 : f32
        %589 = arith.addf %585, %588 : f32
        affine.store %589, %arg4[%arg8 * 10 + 8] : memref<410xf32>
        affine.store %cst, %arg4[%arg8 * 10 + 9] : memref<410xf32>
        %590 = affine.load %arg3[%arg7 * 15 + 5] : memref<390xf32>
        %591 = affine.load %arg6[%arg8 * 10 + 9] : memref<410xf32>
        %592 = affine.load %arg2[%arg8 * 10 + 9, %arg7 * 15 + 5] : memref<410x390xf32>
        %593 = arith.mulf %591, %592 : f32
        %594 = arith.addf %590, %593 : f32
        affine.store %594, %arg3[%arg7 * 15 + 5] : memref<390xf32>
        %595 = affine.load %arg4[%arg8 * 10 + 9] : memref<410xf32>
        %596 = affine.load %arg2[%arg8 * 10 + 9, %arg7 * 15 + 5] : memref<410x390xf32>
        %597 = affine.load %arg5[%arg7 * 15 + 5] : memref<390xf32>
        %598 = arith.mulf %596, %597 : f32
        %599 = arith.addf %595, %598 : f32
        affine.store %599, %arg4[%arg8 * 10 + 9] : memref<410xf32>
        affine.store %cst, %arg4[%arg8 * 10] : memref<410xf32>
        %600 = affine.load %arg3[%arg7 * 15 + 6] : memref<390xf32>
        %601 = affine.load %arg6[%arg8 * 10] : memref<410xf32>
        %602 = affine.load %arg2[%arg8 * 10, %arg7 * 15 + 6] : memref<410x390xf32>
        %603 = arith.mulf %601, %602 : f32
        %604 = arith.addf %600, %603 : f32
        affine.store %604, %arg3[%arg7 * 15 + 6] : memref<390xf32>
        %605 = affine.load %arg4[%arg8 * 10] : memref<410xf32>
        %606 = affine.load %arg2[%arg8 * 10, %arg7 * 15 + 6] : memref<410x390xf32>
        %607 = affine.load %arg5[%arg7 * 15 + 6] : memref<390xf32>
        %608 = arith.mulf %606, %607 : f32
        %609 = arith.addf %605, %608 : f32
        affine.store %609, %arg4[%arg8 * 10] : memref<410xf32>
        affine.store %cst, %arg4[%arg8 * 10 + 1] : memref<410xf32>
        %610 = affine.load %arg3[%arg7 * 15 + 6] : memref<390xf32>
        %611 = affine.load %arg6[%arg8 * 10 + 1] : memref<410xf32>
        %612 = affine.load %arg2[%arg8 * 10 + 1, %arg7 * 15 + 6] : memref<410x390xf32>
        %613 = arith.mulf %611, %612 : f32
        %614 = arith.addf %610, %613 : f32
        affine.store %614, %arg3[%arg7 * 15 + 6] : memref<390xf32>
        %615 = affine.load %arg4[%arg8 * 10 + 1] : memref<410xf32>
        %616 = affine.load %arg2[%arg8 * 10 + 1, %arg7 * 15 + 6] : memref<410x390xf32>
        %617 = affine.load %arg5[%arg7 * 15 + 6] : memref<390xf32>
        %618 = arith.mulf %616, %617 : f32
        %619 = arith.addf %615, %618 : f32
        affine.store %619, %arg4[%arg8 * 10 + 1] : memref<410xf32>
        affine.store %cst, %arg4[%arg8 * 10 + 2] : memref<410xf32>
        %620 = affine.load %arg3[%arg7 * 15 + 6] : memref<390xf32>
        %621 = affine.load %arg6[%arg8 * 10 + 2] : memref<410xf32>
        %622 = affine.load %arg2[%arg8 * 10 + 2, %arg7 * 15 + 6] : memref<410x390xf32>
        %623 = arith.mulf %621, %622 : f32
        %624 = arith.addf %620, %623 : f32
        affine.store %624, %arg3[%arg7 * 15 + 6] : memref<390xf32>
        %625 = affine.load %arg4[%arg8 * 10 + 2] : memref<410xf32>
        %626 = affine.load %arg2[%arg8 * 10 + 2, %arg7 * 15 + 6] : memref<410x390xf32>
        %627 = affine.load %arg5[%arg7 * 15 + 6] : memref<390xf32>
        %628 = arith.mulf %626, %627 : f32
        %629 = arith.addf %625, %628 : f32
        affine.store %629, %arg4[%arg8 * 10 + 2] : memref<410xf32>
        affine.store %cst, %arg4[%arg8 * 10 + 3] : memref<410xf32>
        %630 = affine.load %arg3[%arg7 * 15 + 6] : memref<390xf32>
        %631 = affine.load %arg6[%arg8 * 10 + 3] : memref<410xf32>
        %632 = affine.load %arg2[%arg8 * 10 + 3, %arg7 * 15 + 6] : memref<410x390xf32>
        %633 = arith.mulf %631, %632 : f32
        %634 = arith.addf %630, %633 : f32
        affine.store %634, %arg3[%arg7 * 15 + 6] : memref<390xf32>
        %635 = affine.load %arg4[%arg8 * 10 + 3] : memref<410xf32>
        %636 = affine.load %arg2[%arg8 * 10 + 3, %arg7 * 15 + 6] : memref<410x390xf32>
        %637 = affine.load %arg5[%arg7 * 15 + 6] : memref<390xf32>
        %638 = arith.mulf %636, %637 : f32
        %639 = arith.addf %635, %638 : f32
        affine.store %639, %arg4[%arg8 * 10 + 3] : memref<410xf32>
        affine.store %cst, %arg4[%arg8 * 10 + 4] : memref<410xf32>
        %640 = affine.load %arg3[%arg7 * 15 + 6] : memref<390xf32>
        %641 = affine.load %arg6[%arg8 * 10 + 4] : memref<410xf32>
        %642 = affine.load %arg2[%arg8 * 10 + 4, %arg7 * 15 + 6] : memref<410x390xf32>
        %643 = arith.mulf %641, %642 : f32
        %644 = arith.addf %640, %643 : f32
        affine.store %644, %arg3[%arg7 * 15 + 6] : memref<390xf32>
        %645 = affine.load %arg4[%arg8 * 10 + 4] : memref<410xf32>
        %646 = affine.load %arg2[%arg8 * 10 + 4, %arg7 * 15 + 6] : memref<410x390xf32>
        %647 = affine.load %arg5[%arg7 * 15 + 6] : memref<390xf32>
        %648 = arith.mulf %646, %647 : f32
        %649 = arith.addf %645, %648 : f32
        affine.store %649, %arg4[%arg8 * 10 + 4] : memref<410xf32>
        affine.store %cst, %arg4[%arg8 * 10 + 5] : memref<410xf32>
        %650 = affine.load %arg3[%arg7 * 15 + 6] : memref<390xf32>
        %651 = affine.load %arg6[%arg8 * 10 + 5] : memref<410xf32>
        %652 = affine.load %arg2[%arg8 * 10 + 5, %arg7 * 15 + 6] : memref<410x390xf32>
        %653 = arith.mulf %651, %652 : f32
        %654 = arith.addf %650, %653 : f32
        affine.store %654, %arg3[%arg7 * 15 + 6] : memref<390xf32>
        %655 = affine.load %arg4[%arg8 * 10 + 5] : memref<410xf32>
        %656 = affine.load %arg2[%arg8 * 10 + 5, %arg7 * 15 + 6] : memref<410x390xf32>
        %657 = affine.load %arg5[%arg7 * 15 + 6] : memref<390xf32>
        %658 = arith.mulf %656, %657 : f32
        %659 = arith.addf %655, %658 : f32
        affine.store %659, %arg4[%arg8 * 10 + 5] : memref<410xf32>
        affine.store %cst, %arg4[%arg8 * 10 + 6] : memref<410xf32>
        %660 = affine.load %arg3[%arg7 * 15 + 6] : memref<390xf32>
        %661 = affine.load %arg6[%arg8 * 10 + 6] : memref<410xf32>
        %662 = affine.load %arg2[%arg8 * 10 + 6, %arg7 * 15 + 6] : memref<410x390xf32>
        %663 = arith.mulf %661, %662 : f32
        %664 = arith.addf %660, %663 : f32
        affine.store %664, %arg3[%arg7 * 15 + 6] : memref<390xf32>
        %665 = affine.load %arg4[%arg8 * 10 + 6] : memref<410xf32>
        %666 = affine.load %arg2[%arg8 * 10 + 6, %arg7 * 15 + 6] : memref<410x390xf32>
        %667 = affine.load %arg5[%arg7 * 15 + 6] : memref<390xf32>
        %668 = arith.mulf %666, %667 : f32
        %669 = arith.addf %665, %668 : f32
        affine.store %669, %arg4[%arg8 * 10 + 6] : memref<410xf32>
        affine.store %cst, %arg4[%arg8 * 10 + 7] : memref<410xf32>
        %670 = affine.load %arg3[%arg7 * 15 + 6] : memref<390xf32>
        %671 = affine.load %arg6[%arg8 * 10 + 7] : memref<410xf32>
        %672 = affine.load %arg2[%arg8 * 10 + 7, %arg7 * 15 + 6] : memref<410x390xf32>
        %673 = arith.mulf %671, %672 : f32
        %674 = arith.addf %670, %673 : f32
        affine.store %674, %arg3[%arg7 * 15 + 6] : memref<390xf32>
        %675 = affine.load %arg4[%arg8 * 10 + 7] : memref<410xf32>
        %676 = affine.load %arg2[%arg8 * 10 + 7, %arg7 * 15 + 6] : memref<410x390xf32>
        %677 = affine.load %arg5[%arg7 * 15 + 6] : memref<390xf32>
        %678 = arith.mulf %676, %677 : f32
        %679 = arith.addf %675, %678 : f32
        affine.store %679, %arg4[%arg8 * 10 + 7] : memref<410xf32>
        affine.store %cst, %arg4[%arg8 * 10 + 8] : memref<410xf32>
        %680 = affine.load %arg3[%arg7 * 15 + 6] : memref<390xf32>
        %681 = affine.load %arg6[%arg8 * 10 + 8] : memref<410xf32>
        %682 = affine.load %arg2[%arg8 * 10 + 8, %arg7 * 15 + 6] : memref<410x390xf32>
        %683 = arith.mulf %681, %682 : f32
        %684 = arith.addf %680, %683 : f32
        affine.store %684, %arg3[%arg7 * 15 + 6] : memref<390xf32>
        %685 = affine.load %arg4[%arg8 * 10 + 8] : memref<410xf32>
        %686 = affine.load %arg2[%arg8 * 10 + 8, %arg7 * 15 + 6] : memref<410x390xf32>
        %687 = affine.load %arg5[%arg7 * 15 + 6] : memref<390xf32>
        %688 = arith.mulf %686, %687 : f32
        %689 = arith.addf %685, %688 : f32
        affine.store %689, %arg4[%arg8 * 10 + 8] : memref<410xf32>
        affine.store %cst, %arg4[%arg8 * 10 + 9] : memref<410xf32>
        %690 = affine.load %arg3[%arg7 * 15 + 6] : memref<390xf32>
        %691 = affine.load %arg6[%arg8 * 10 + 9] : memref<410xf32>
        %692 = affine.load %arg2[%arg8 * 10 + 9, %arg7 * 15 + 6] : memref<410x390xf32>
        %693 = arith.mulf %691, %692 : f32
        %694 = arith.addf %690, %693 : f32
        affine.store %694, %arg3[%arg7 * 15 + 6] : memref<390xf32>
        %695 = affine.load %arg4[%arg8 * 10 + 9] : memref<410xf32>
        %696 = affine.load %arg2[%arg8 * 10 + 9, %arg7 * 15 + 6] : memref<410x390xf32>
        %697 = affine.load %arg5[%arg7 * 15 + 6] : memref<390xf32>
        %698 = arith.mulf %696, %697 : f32
        %699 = arith.addf %695, %698 : f32
        affine.store %699, %arg4[%arg8 * 10 + 9] : memref<410xf32>
        affine.store %cst, %arg4[%arg8 * 10] : memref<410xf32>
        %700 = affine.load %arg3[%arg7 * 15 + 7] : memref<390xf32>
        %701 = affine.load %arg6[%arg8 * 10] : memref<410xf32>
        %702 = affine.load %arg2[%arg8 * 10, %arg7 * 15 + 7] : memref<410x390xf32>
        %703 = arith.mulf %701, %702 : f32
        %704 = arith.addf %700, %703 : f32
        affine.store %704, %arg3[%arg7 * 15 + 7] : memref<390xf32>
        %705 = affine.load %arg4[%arg8 * 10] : memref<410xf32>
        %706 = affine.load %arg2[%arg8 * 10, %arg7 * 15 + 7] : memref<410x390xf32>
        %707 = affine.load %arg5[%arg7 * 15 + 7] : memref<390xf32>
        %708 = arith.mulf %706, %707 : f32
        %709 = arith.addf %705, %708 : f32
        affine.store %709, %arg4[%arg8 * 10] : memref<410xf32>
        affine.store %cst, %arg4[%arg8 * 10 + 1] : memref<410xf32>
        %710 = affine.load %arg3[%arg7 * 15 + 7] : memref<390xf32>
        %711 = affine.load %arg6[%arg8 * 10 + 1] : memref<410xf32>
        %712 = affine.load %arg2[%arg8 * 10 + 1, %arg7 * 15 + 7] : memref<410x390xf32>
        %713 = arith.mulf %711, %712 : f32
        %714 = arith.addf %710, %713 : f32
        affine.store %714, %arg3[%arg7 * 15 + 7] : memref<390xf32>
        %715 = affine.load %arg4[%arg8 * 10 + 1] : memref<410xf32>
        %716 = affine.load %arg2[%arg8 * 10 + 1, %arg7 * 15 + 7] : memref<410x390xf32>
        %717 = affine.load %arg5[%arg7 * 15 + 7] : memref<390xf32>
        %718 = arith.mulf %716, %717 : f32
        %719 = arith.addf %715, %718 : f32
        affine.store %719, %arg4[%arg8 * 10 + 1] : memref<410xf32>
        affine.store %cst, %arg4[%arg8 * 10 + 2] : memref<410xf32>
        %720 = affine.load %arg3[%arg7 * 15 + 7] : memref<390xf32>
        %721 = affine.load %arg6[%arg8 * 10 + 2] : memref<410xf32>
        %722 = affine.load %arg2[%arg8 * 10 + 2, %arg7 * 15 + 7] : memref<410x390xf32>
        %723 = arith.mulf %721, %722 : f32
        %724 = arith.addf %720, %723 : f32
        affine.store %724, %arg3[%arg7 * 15 + 7] : memref<390xf32>
        %725 = affine.load %arg4[%arg8 * 10 + 2] : memref<410xf32>
        %726 = affine.load %arg2[%arg8 * 10 + 2, %arg7 * 15 + 7] : memref<410x390xf32>
        %727 = affine.load %arg5[%arg7 * 15 + 7] : memref<390xf32>
        %728 = arith.mulf %726, %727 : f32
        %729 = arith.addf %725, %728 : f32
        affine.store %729, %arg4[%arg8 * 10 + 2] : memref<410xf32>
        affine.store %cst, %arg4[%arg8 * 10 + 3] : memref<410xf32>
        %730 = affine.load %arg3[%arg7 * 15 + 7] : memref<390xf32>
        %731 = affine.load %arg6[%arg8 * 10 + 3] : memref<410xf32>
        %732 = affine.load %arg2[%arg8 * 10 + 3, %arg7 * 15 + 7] : memref<410x390xf32>
        %733 = arith.mulf %731, %732 : f32
        %734 = arith.addf %730, %733 : f32
        affine.store %734, %arg3[%arg7 * 15 + 7] : memref<390xf32>
        %735 = affine.load %arg4[%arg8 * 10 + 3] : memref<410xf32>
        %736 = affine.load %arg2[%arg8 * 10 + 3, %arg7 * 15 + 7] : memref<410x390xf32>
        %737 = affine.load %arg5[%arg7 * 15 + 7] : memref<390xf32>
        %738 = arith.mulf %736, %737 : f32
        %739 = arith.addf %735, %738 : f32
        affine.store %739, %arg4[%arg8 * 10 + 3] : memref<410xf32>
        affine.store %cst, %arg4[%arg8 * 10 + 4] : memref<410xf32>
        %740 = affine.load %arg3[%arg7 * 15 + 7] : memref<390xf32>
        %741 = affine.load %arg6[%arg8 * 10 + 4] : memref<410xf32>
        %742 = affine.load %arg2[%arg8 * 10 + 4, %arg7 * 15 + 7] : memref<410x390xf32>
        %743 = arith.mulf %741, %742 : f32
        %744 = arith.addf %740, %743 : f32
        affine.store %744, %arg3[%arg7 * 15 + 7] : memref<390xf32>
        %745 = affine.load %arg4[%arg8 * 10 + 4] : memref<410xf32>
        %746 = affine.load %arg2[%arg8 * 10 + 4, %arg7 * 15 + 7] : memref<410x390xf32>
        %747 = affine.load %arg5[%arg7 * 15 + 7] : memref<390xf32>
        %748 = arith.mulf %746, %747 : f32
        %749 = arith.addf %745, %748 : f32
        affine.store %749, %arg4[%arg8 * 10 + 4] : memref<410xf32>
        affine.store %cst, %arg4[%arg8 * 10 + 5] : memref<410xf32>
        %750 = affine.load %arg3[%arg7 * 15 + 7] : memref<390xf32>
        %751 = affine.load %arg6[%arg8 * 10 + 5] : memref<410xf32>
        %752 = affine.load %arg2[%arg8 * 10 + 5, %arg7 * 15 + 7] : memref<410x390xf32>
        %753 = arith.mulf %751, %752 : f32
        %754 = arith.addf %750, %753 : f32
        affine.store %754, %arg3[%arg7 * 15 + 7] : memref<390xf32>
        %755 = affine.load %arg4[%arg8 * 10 + 5] : memref<410xf32>
        %756 = affine.load %arg2[%arg8 * 10 + 5, %arg7 * 15 + 7] : memref<410x390xf32>
        %757 = affine.load %arg5[%arg7 * 15 + 7] : memref<390xf32>
        %758 = arith.mulf %756, %757 : f32
        %759 = arith.addf %755, %758 : f32
        affine.store %759, %arg4[%arg8 * 10 + 5] : memref<410xf32>
        affine.store %cst, %arg4[%arg8 * 10 + 6] : memref<410xf32>
        %760 = affine.load %arg3[%arg7 * 15 + 7] : memref<390xf32>
        %761 = affine.load %arg6[%arg8 * 10 + 6] : memref<410xf32>
        %762 = affine.load %arg2[%arg8 * 10 + 6, %arg7 * 15 + 7] : memref<410x390xf32>
        %763 = arith.mulf %761, %762 : f32
        %764 = arith.addf %760, %763 : f32
        affine.store %764, %arg3[%arg7 * 15 + 7] : memref<390xf32>
        %765 = affine.load %arg4[%arg8 * 10 + 6] : memref<410xf32>
        %766 = affine.load %arg2[%arg8 * 10 + 6, %arg7 * 15 + 7] : memref<410x390xf32>
        %767 = affine.load %arg5[%arg7 * 15 + 7] : memref<390xf32>
        %768 = arith.mulf %766, %767 : f32
        %769 = arith.addf %765, %768 : f32
        affine.store %769, %arg4[%arg8 * 10 + 6] : memref<410xf32>
        affine.store %cst, %arg4[%arg8 * 10 + 7] : memref<410xf32>
        %770 = affine.load %arg3[%arg7 * 15 + 7] : memref<390xf32>
        %771 = affine.load %arg6[%arg8 * 10 + 7] : memref<410xf32>
        %772 = affine.load %arg2[%arg8 * 10 + 7, %arg7 * 15 + 7] : memref<410x390xf32>
        %773 = arith.mulf %771, %772 : f32
        %774 = arith.addf %770, %773 : f32
        affine.store %774, %arg3[%arg7 * 15 + 7] : memref<390xf32>
        %775 = affine.load %arg4[%arg8 * 10 + 7] : memref<410xf32>
        %776 = affine.load %arg2[%arg8 * 10 + 7, %arg7 * 15 + 7] : memref<410x390xf32>
        %777 = affine.load %arg5[%arg7 * 15 + 7] : memref<390xf32>
        %778 = arith.mulf %776, %777 : f32
        %779 = arith.addf %775, %778 : f32
        affine.store %779, %arg4[%arg8 * 10 + 7] : memref<410xf32>
        affine.store %cst, %arg4[%arg8 * 10 + 8] : memref<410xf32>
        %780 = affine.load %arg3[%arg7 * 15 + 7] : memref<390xf32>
        %781 = affine.load %arg6[%arg8 * 10 + 8] : memref<410xf32>
        %782 = affine.load %arg2[%arg8 * 10 + 8, %arg7 * 15 + 7] : memref<410x390xf32>
        %783 = arith.mulf %781, %782 : f32
        %784 = arith.addf %780, %783 : f32
        affine.store %784, %arg3[%arg7 * 15 + 7] : memref<390xf32>
        %785 = affine.load %arg4[%arg8 * 10 + 8] : memref<410xf32>
        %786 = affine.load %arg2[%arg8 * 10 + 8, %arg7 * 15 + 7] : memref<410x390xf32>
        %787 = affine.load %arg5[%arg7 * 15 + 7] : memref<390xf32>
        %788 = arith.mulf %786, %787 : f32
        %789 = arith.addf %785, %788 : f32
        affine.store %789, %arg4[%arg8 * 10 + 8] : memref<410xf32>
        affine.store %cst, %arg4[%arg8 * 10 + 9] : memref<410xf32>
        %790 = affine.load %arg3[%arg7 * 15 + 7] : memref<390xf32>
        %791 = affine.load %arg6[%arg8 * 10 + 9] : memref<410xf32>
        %792 = affine.load %arg2[%arg8 * 10 + 9, %arg7 * 15 + 7] : memref<410x390xf32>
        %793 = arith.mulf %791, %792 : f32
        %794 = arith.addf %790, %793 : f32
        affine.store %794, %arg3[%arg7 * 15 + 7] : memref<390xf32>
        %795 = affine.load %arg4[%arg8 * 10 + 9] : memref<410xf32>
        %796 = affine.load %arg2[%arg8 * 10 + 9, %arg7 * 15 + 7] : memref<410x390xf32>
        %797 = affine.load %arg5[%arg7 * 15 + 7] : memref<390xf32>
        %798 = arith.mulf %796, %797 : f32
        %799 = arith.addf %795, %798 : f32
        affine.store %799, %arg4[%arg8 * 10 + 9] : memref<410xf32>
        affine.store %cst, %arg4[%arg8 * 10] : memref<410xf32>
        %800 = affine.load %arg3[%arg7 * 15 + 8] : memref<390xf32>
        %801 = affine.load %arg6[%arg8 * 10] : memref<410xf32>
        %802 = affine.load %arg2[%arg8 * 10, %arg7 * 15 + 8] : memref<410x390xf32>
        %803 = arith.mulf %801, %802 : f32
        %804 = arith.addf %800, %803 : f32
        affine.store %804, %arg3[%arg7 * 15 + 8] : memref<390xf32>
        %805 = affine.load %arg4[%arg8 * 10] : memref<410xf32>
        %806 = affine.load %arg2[%arg8 * 10, %arg7 * 15 + 8] : memref<410x390xf32>
        %807 = affine.load %arg5[%arg7 * 15 + 8] : memref<390xf32>
        %808 = arith.mulf %806, %807 : f32
        %809 = arith.addf %805, %808 : f32
        affine.store %809, %arg4[%arg8 * 10] : memref<410xf32>
        affine.store %cst, %arg4[%arg8 * 10 + 1] : memref<410xf32>
        %810 = affine.load %arg3[%arg7 * 15 + 8] : memref<390xf32>
        %811 = affine.load %arg6[%arg8 * 10 + 1] : memref<410xf32>
        %812 = affine.load %arg2[%arg8 * 10 + 1, %arg7 * 15 + 8] : memref<410x390xf32>
        %813 = arith.mulf %811, %812 : f32
        %814 = arith.addf %810, %813 : f32
        affine.store %814, %arg3[%arg7 * 15 + 8] : memref<390xf32>
        %815 = affine.load %arg4[%arg8 * 10 + 1] : memref<410xf32>
        %816 = affine.load %arg2[%arg8 * 10 + 1, %arg7 * 15 + 8] : memref<410x390xf32>
        %817 = affine.load %arg5[%arg7 * 15 + 8] : memref<390xf32>
        %818 = arith.mulf %816, %817 : f32
        %819 = arith.addf %815, %818 : f32
        affine.store %819, %arg4[%arg8 * 10 + 1] : memref<410xf32>
        affine.store %cst, %arg4[%arg8 * 10 + 2] : memref<410xf32>
        %820 = affine.load %arg3[%arg7 * 15 + 8] : memref<390xf32>
        %821 = affine.load %arg6[%arg8 * 10 + 2] : memref<410xf32>
        %822 = affine.load %arg2[%arg8 * 10 + 2, %arg7 * 15 + 8] : memref<410x390xf32>
        %823 = arith.mulf %821, %822 : f32
        %824 = arith.addf %820, %823 : f32
        affine.store %824, %arg3[%arg7 * 15 + 8] : memref<390xf32>
        %825 = affine.load %arg4[%arg8 * 10 + 2] : memref<410xf32>
        %826 = affine.load %arg2[%arg8 * 10 + 2, %arg7 * 15 + 8] : memref<410x390xf32>
        %827 = affine.load %arg5[%arg7 * 15 + 8] : memref<390xf32>
        %828 = arith.mulf %826, %827 : f32
        %829 = arith.addf %825, %828 : f32
        affine.store %829, %arg4[%arg8 * 10 + 2] : memref<410xf32>
        affine.store %cst, %arg4[%arg8 * 10 + 3] : memref<410xf32>
        %830 = affine.load %arg3[%arg7 * 15 + 8] : memref<390xf32>
        %831 = affine.load %arg6[%arg8 * 10 + 3] : memref<410xf32>
        %832 = affine.load %arg2[%arg8 * 10 + 3, %arg7 * 15 + 8] : memref<410x390xf32>
        %833 = arith.mulf %831, %832 : f32
        %834 = arith.addf %830, %833 : f32
        affine.store %834, %arg3[%arg7 * 15 + 8] : memref<390xf32>
        %835 = affine.load %arg4[%arg8 * 10 + 3] : memref<410xf32>
        %836 = affine.load %arg2[%arg8 * 10 + 3, %arg7 * 15 + 8] : memref<410x390xf32>
        %837 = affine.load %arg5[%arg7 * 15 + 8] : memref<390xf32>
        %838 = arith.mulf %836, %837 : f32
        %839 = arith.addf %835, %838 : f32
        affine.store %839, %arg4[%arg8 * 10 + 3] : memref<410xf32>
        affine.store %cst, %arg4[%arg8 * 10 + 4] : memref<410xf32>
        %840 = affine.load %arg3[%arg7 * 15 + 8] : memref<390xf32>
        %841 = affine.load %arg6[%arg8 * 10 + 4] : memref<410xf32>
        %842 = affine.load %arg2[%arg8 * 10 + 4, %arg7 * 15 + 8] : memref<410x390xf32>
        %843 = arith.mulf %841, %842 : f32
        %844 = arith.addf %840, %843 : f32
        affine.store %844, %arg3[%arg7 * 15 + 8] : memref<390xf32>
        %845 = affine.load %arg4[%arg8 * 10 + 4] : memref<410xf32>
        %846 = affine.load %arg2[%arg8 * 10 + 4, %arg7 * 15 + 8] : memref<410x390xf32>
        %847 = affine.load %arg5[%arg7 * 15 + 8] : memref<390xf32>
        %848 = arith.mulf %846, %847 : f32
        %849 = arith.addf %845, %848 : f32
        affine.store %849, %arg4[%arg8 * 10 + 4] : memref<410xf32>
        affine.store %cst, %arg4[%arg8 * 10 + 5] : memref<410xf32>
        %850 = affine.load %arg3[%arg7 * 15 + 8] : memref<390xf32>
        %851 = affine.load %arg6[%arg8 * 10 + 5] : memref<410xf32>
        %852 = affine.load %arg2[%arg8 * 10 + 5, %arg7 * 15 + 8] : memref<410x390xf32>
        %853 = arith.mulf %851, %852 : f32
        %854 = arith.addf %850, %853 : f32
        affine.store %854, %arg3[%arg7 * 15 + 8] : memref<390xf32>
        %855 = affine.load %arg4[%arg8 * 10 + 5] : memref<410xf32>
        %856 = affine.load %arg2[%arg8 * 10 + 5, %arg7 * 15 + 8] : memref<410x390xf32>
        %857 = affine.load %arg5[%arg7 * 15 + 8] : memref<390xf32>
        %858 = arith.mulf %856, %857 : f32
        %859 = arith.addf %855, %858 : f32
        affine.store %859, %arg4[%arg8 * 10 + 5] : memref<410xf32>
        affine.store %cst, %arg4[%arg8 * 10 + 6] : memref<410xf32>
        %860 = affine.load %arg3[%arg7 * 15 + 8] : memref<390xf32>
        %861 = affine.load %arg6[%arg8 * 10 + 6] : memref<410xf32>
        %862 = affine.load %arg2[%arg8 * 10 + 6, %arg7 * 15 + 8] : memref<410x390xf32>
        %863 = arith.mulf %861, %862 : f32
        %864 = arith.addf %860, %863 : f32
        affine.store %864, %arg3[%arg7 * 15 + 8] : memref<390xf32>
        %865 = affine.load %arg4[%arg8 * 10 + 6] : memref<410xf32>
        %866 = affine.load %arg2[%arg8 * 10 + 6, %arg7 * 15 + 8] : memref<410x390xf32>
        %867 = affine.load %arg5[%arg7 * 15 + 8] : memref<390xf32>
        %868 = arith.mulf %866, %867 : f32
        %869 = arith.addf %865, %868 : f32
        affine.store %869, %arg4[%arg8 * 10 + 6] : memref<410xf32>
        affine.store %cst, %arg4[%arg8 * 10 + 7] : memref<410xf32>
        %870 = affine.load %arg3[%arg7 * 15 + 8] : memref<390xf32>
        %871 = affine.load %arg6[%arg8 * 10 + 7] : memref<410xf32>
        %872 = affine.load %arg2[%arg8 * 10 + 7, %arg7 * 15 + 8] : memref<410x390xf32>
        %873 = arith.mulf %871, %872 : f32
        %874 = arith.addf %870, %873 : f32
        affine.store %874, %arg3[%arg7 * 15 + 8] : memref<390xf32>
        %875 = affine.load %arg4[%arg8 * 10 + 7] : memref<410xf32>
        %876 = affine.load %arg2[%arg8 * 10 + 7, %arg7 * 15 + 8] : memref<410x390xf32>
        %877 = affine.load %arg5[%arg7 * 15 + 8] : memref<390xf32>
        %878 = arith.mulf %876, %877 : f32
        %879 = arith.addf %875, %878 : f32
        affine.store %879, %arg4[%arg8 * 10 + 7] : memref<410xf32>
        affine.store %cst, %arg4[%arg8 * 10 + 8] : memref<410xf32>
        %880 = affine.load %arg3[%arg7 * 15 + 8] : memref<390xf32>
        %881 = affine.load %arg6[%arg8 * 10 + 8] : memref<410xf32>
        %882 = affine.load %arg2[%arg8 * 10 + 8, %arg7 * 15 + 8] : memref<410x390xf32>
        %883 = arith.mulf %881, %882 : f32
        %884 = arith.addf %880, %883 : f32
        affine.store %884, %arg3[%arg7 * 15 + 8] : memref<390xf32>
        %885 = affine.load %arg4[%arg8 * 10 + 8] : memref<410xf32>
        %886 = affine.load %arg2[%arg8 * 10 + 8, %arg7 * 15 + 8] : memref<410x390xf32>
        %887 = affine.load %arg5[%arg7 * 15 + 8] : memref<390xf32>
        %888 = arith.mulf %886, %887 : f32
        %889 = arith.addf %885, %888 : f32
        affine.store %889, %arg4[%arg8 * 10 + 8] : memref<410xf32>
        affine.store %cst, %arg4[%arg8 * 10 + 9] : memref<410xf32>
        %890 = affine.load %arg3[%arg7 * 15 + 8] : memref<390xf32>
        %891 = affine.load %arg6[%arg8 * 10 + 9] : memref<410xf32>
        %892 = affine.load %arg2[%arg8 * 10 + 9, %arg7 * 15 + 8] : memref<410x390xf32>
        %893 = arith.mulf %891, %892 : f32
        %894 = arith.addf %890, %893 : f32
        affine.store %894, %arg3[%arg7 * 15 + 8] : memref<390xf32>
        %895 = affine.load %arg4[%arg8 * 10 + 9] : memref<410xf32>
        %896 = affine.load %arg2[%arg8 * 10 + 9, %arg7 * 15 + 8] : memref<410x390xf32>
        %897 = affine.load %arg5[%arg7 * 15 + 8] : memref<390xf32>
        %898 = arith.mulf %896, %897 : f32
        %899 = arith.addf %895, %898 : f32
        affine.store %899, %arg4[%arg8 * 10 + 9] : memref<410xf32>
        affine.store %cst, %arg4[%arg8 * 10] : memref<410xf32>
        %900 = affine.load %arg3[%arg7 * 15 + 9] : memref<390xf32>
        %901 = affine.load %arg6[%arg8 * 10] : memref<410xf32>
        %902 = affine.load %arg2[%arg8 * 10, %arg7 * 15 + 9] : memref<410x390xf32>
        %903 = arith.mulf %901, %902 : f32
        %904 = arith.addf %900, %903 : f32
        affine.store %904, %arg3[%arg7 * 15 + 9] : memref<390xf32>
        %905 = affine.load %arg4[%arg8 * 10] : memref<410xf32>
        %906 = affine.load %arg2[%arg8 * 10, %arg7 * 15 + 9] : memref<410x390xf32>
        %907 = affine.load %arg5[%arg7 * 15 + 9] : memref<390xf32>
        %908 = arith.mulf %906, %907 : f32
        %909 = arith.addf %905, %908 : f32
        affine.store %909, %arg4[%arg8 * 10] : memref<410xf32>
        affine.store %cst, %arg4[%arg8 * 10 + 1] : memref<410xf32>
        %910 = affine.load %arg3[%arg7 * 15 + 9] : memref<390xf32>
        %911 = affine.load %arg6[%arg8 * 10 + 1] : memref<410xf32>
        %912 = affine.load %arg2[%arg8 * 10 + 1, %arg7 * 15 + 9] : memref<410x390xf32>
        %913 = arith.mulf %911, %912 : f32
        %914 = arith.addf %910, %913 : f32
        affine.store %914, %arg3[%arg7 * 15 + 9] : memref<390xf32>
        %915 = affine.load %arg4[%arg8 * 10 + 1] : memref<410xf32>
        %916 = affine.load %arg2[%arg8 * 10 + 1, %arg7 * 15 + 9] : memref<410x390xf32>
        %917 = affine.load %arg5[%arg7 * 15 + 9] : memref<390xf32>
        %918 = arith.mulf %916, %917 : f32
        %919 = arith.addf %915, %918 : f32
        affine.store %919, %arg4[%arg8 * 10 + 1] : memref<410xf32>
        affine.store %cst, %arg4[%arg8 * 10 + 2] : memref<410xf32>
        %920 = affine.load %arg3[%arg7 * 15 + 9] : memref<390xf32>
        %921 = affine.load %arg6[%arg8 * 10 + 2] : memref<410xf32>
        %922 = affine.load %arg2[%arg8 * 10 + 2, %arg7 * 15 + 9] : memref<410x390xf32>
        %923 = arith.mulf %921, %922 : f32
        %924 = arith.addf %920, %923 : f32
        affine.store %924, %arg3[%arg7 * 15 + 9] : memref<390xf32>
        %925 = affine.load %arg4[%arg8 * 10 + 2] : memref<410xf32>
        %926 = affine.load %arg2[%arg8 * 10 + 2, %arg7 * 15 + 9] : memref<410x390xf32>
        %927 = affine.load %arg5[%arg7 * 15 + 9] : memref<390xf32>
        %928 = arith.mulf %926, %927 : f32
        %929 = arith.addf %925, %928 : f32
        affine.store %929, %arg4[%arg8 * 10 + 2] : memref<410xf32>
        affine.store %cst, %arg4[%arg8 * 10 + 3] : memref<410xf32>
        %930 = affine.load %arg3[%arg7 * 15 + 9] : memref<390xf32>
        %931 = affine.load %arg6[%arg8 * 10 + 3] : memref<410xf32>
        %932 = affine.load %arg2[%arg8 * 10 + 3, %arg7 * 15 + 9] : memref<410x390xf32>
        %933 = arith.mulf %931, %932 : f32
        %934 = arith.addf %930, %933 : f32
        affine.store %934, %arg3[%arg7 * 15 + 9] : memref<390xf32>
        %935 = affine.load %arg4[%arg8 * 10 + 3] : memref<410xf32>
        %936 = affine.load %arg2[%arg8 * 10 + 3, %arg7 * 15 + 9] : memref<410x390xf32>
        %937 = affine.load %arg5[%arg7 * 15 + 9] : memref<390xf32>
        %938 = arith.mulf %936, %937 : f32
        %939 = arith.addf %935, %938 : f32
        affine.store %939, %arg4[%arg8 * 10 + 3] : memref<410xf32>
        affine.store %cst, %arg4[%arg8 * 10 + 4] : memref<410xf32>
        %940 = affine.load %arg3[%arg7 * 15 + 9] : memref<390xf32>
        %941 = affine.load %arg6[%arg8 * 10 + 4] : memref<410xf32>
        %942 = affine.load %arg2[%arg8 * 10 + 4, %arg7 * 15 + 9] : memref<410x390xf32>
        %943 = arith.mulf %941, %942 : f32
        %944 = arith.addf %940, %943 : f32
        affine.store %944, %arg3[%arg7 * 15 + 9] : memref<390xf32>
        %945 = affine.load %arg4[%arg8 * 10 + 4] : memref<410xf32>
        %946 = affine.load %arg2[%arg8 * 10 + 4, %arg7 * 15 + 9] : memref<410x390xf32>
        %947 = affine.load %arg5[%arg7 * 15 + 9] : memref<390xf32>
        %948 = arith.mulf %946, %947 : f32
        %949 = arith.addf %945, %948 : f32
        affine.store %949, %arg4[%arg8 * 10 + 4] : memref<410xf32>
        affine.store %cst, %arg4[%arg8 * 10 + 5] : memref<410xf32>
        %950 = affine.load %arg3[%arg7 * 15 + 9] : memref<390xf32>
        %951 = affine.load %arg6[%arg8 * 10 + 5] : memref<410xf32>
        %952 = affine.load %arg2[%arg8 * 10 + 5, %arg7 * 15 + 9] : memref<410x390xf32>
        %953 = arith.mulf %951, %952 : f32
        %954 = arith.addf %950, %953 : f32
        affine.store %954, %arg3[%arg7 * 15 + 9] : memref<390xf32>
        %955 = affine.load %arg4[%arg8 * 10 + 5] : memref<410xf32>
        %956 = affine.load %arg2[%arg8 * 10 + 5, %arg7 * 15 + 9] : memref<410x390xf32>
        %957 = affine.load %arg5[%arg7 * 15 + 9] : memref<390xf32>
        %958 = arith.mulf %956, %957 : f32
        %959 = arith.addf %955, %958 : f32
        affine.store %959, %arg4[%arg8 * 10 + 5] : memref<410xf32>
        affine.store %cst, %arg4[%arg8 * 10 + 6] : memref<410xf32>
        %960 = affine.load %arg3[%arg7 * 15 + 9] : memref<390xf32>
        %961 = affine.load %arg6[%arg8 * 10 + 6] : memref<410xf32>
        %962 = affine.load %arg2[%arg8 * 10 + 6, %arg7 * 15 + 9] : memref<410x390xf32>
        %963 = arith.mulf %961, %962 : f32
        %964 = arith.addf %960, %963 : f32
        affine.store %964, %arg3[%arg7 * 15 + 9] : memref<390xf32>
        %965 = affine.load %arg4[%arg8 * 10 + 6] : memref<410xf32>
        %966 = affine.load %arg2[%arg8 * 10 + 6, %arg7 * 15 + 9] : memref<410x390xf32>
        %967 = affine.load %arg5[%arg7 * 15 + 9] : memref<390xf32>
        %968 = arith.mulf %966, %967 : f32
        %969 = arith.addf %965, %968 : f32
        affine.store %969, %arg4[%arg8 * 10 + 6] : memref<410xf32>
        affine.store %cst, %arg4[%arg8 * 10 + 7] : memref<410xf32>
        %970 = affine.load %arg3[%arg7 * 15 + 9] : memref<390xf32>
        %971 = affine.load %arg6[%arg8 * 10 + 7] : memref<410xf32>
        %972 = affine.load %arg2[%arg8 * 10 + 7, %arg7 * 15 + 9] : memref<410x390xf32>
        %973 = arith.mulf %971, %972 : f32
        %974 = arith.addf %970, %973 : f32
        affine.store %974, %arg3[%arg7 * 15 + 9] : memref<390xf32>
        %975 = affine.load %arg4[%arg8 * 10 + 7] : memref<410xf32>
        %976 = affine.load %arg2[%arg8 * 10 + 7, %arg7 * 15 + 9] : memref<410x390xf32>
        %977 = affine.load %arg5[%arg7 * 15 + 9] : memref<390xf32>
        %978 = arith.mulf %976, %977 : f32
        %979 = arith.addf %975, %978 : f32
        affine.store %979, %arg4[%arg8 * 10 + 7] : memref<410xf32>
        affine.store %cst, %arg4[%arg8 * 10 + 8] : memref<410xf32>
        %980 = affine.load %arg3[%arg7 * 15 + 9] : memref<390xf32>
        %981 = affine.load %arg6[%arg8 * 10 + 8] : memref<410xf32>
        %982 = affine.load %arg2[%arg8 * 10 + 8, %arg7 * 15 + 9] : memref<410x390xf32>
        %983 = arith.mulf %981, %982 : f32
        %984 = arith.addf %980, %983 : f32
        affine.store %984, %arg3[%arg7 * 15 + 9] : memref<390xf32>
        %985 = affine.load %arg4[%arg8 * 10 + 8] : memref<410xf32>
        %986 = affine.load %arg2[%arg8 * 10 + 8, %arg7 * 15 + 9] : memref<410x390xf32>
        %987 = affine.load %arg5[%arg7 * 15 + 9] : memref<390xf32>
        %988 = arith.mulf %986, %987 : f32
        %989 = arith.addf %985, %988 : f32
        affine.store %989, %arg4[%arg8 * 10 + 8] : memref<410xf32>
        affine.store %cst, %arg4[%arg8 * 10 + 9] : memref<410xf32>
        %990 = affine.load %arg3[%arg7 * 15 + 9] : memref<390xf32>
        %991 = affine.load %arg6[%arg8 * 10 + 9] : memref<410xf32>
        %992 = affine.load %arg2[%arg8 * 10 + 9, %arg7 * 15 + 9] : memref<410x390xf32>
        %993 = arith.mulf %991, %992 : f32
        %994 = arith.addf %990, %993 : f32
        affine.store %994, %arg3[%arg7 * 15 + 9] : memref<390xf32>
        %995 = affine.load %arg4[%arg8 * 10 + 9] : memref<410xf32>
        %996 = affine.load %arg2[%arg8 * 10 + 9, %arg7 * 15 + 9] : memref<410x390xf32>
        %997 = affine.load %arg5[%arg7 * 15 + 9] : memref<390xf32>
        %998 = arith.mulf %996, %997 : f32
        %999 = arith.addf %995, %998 : f32
        affine.store %999, %arg4[%arg8 * 10 + 9] : memref<410xf32>
        affine.store %cst, %arg4[%arg8 * 10] : memref<410xf32>
        %1000 = affine.load %arg3[%arg7 * 15 + 10] : memref<390xf32>
        %1001 = affine.load %arg6[%arg8 * 10] : memref<410xf32>
        %1002 = affine.load %arg2[%arg8 * 10, %arg7 * 15 + 10] : memref<410x390xf32>
        %1003 = arith.mulf %1001, %1002 : f32
        %1004 = arith.addf %1000, %1003 : f32
        affine.store %1004, %arg3[%arg7 * 15 + 10] : memref<390xf32>
        %1005 = affine.load %arg4[%arg8 * 10] : memref<410xf32>
        %1006 = affine.load %arg2[%arg8 * 10, %arg7 * 15 + 10] : memref<410x390xf32>
        %1007 = affine.load %arg5[%arg7 * 15 + 10] : memref<390xf32>
        %1008 = arith.mulf %1006, %1007 : f32
        %1009 = arith.addf %1005, %1008 : f32
        affine.store %1009, %arg4[%arg8 * 10] : memref<410xf32>
        affine.store %cst, %arg4[%arg8 * 10 + 1] : memref<410xf32>
        %1010 = affine.load %arg3[%arg7 * 15 + 10] : memref<390xf32>
        %1011 = affine.load %arg6[%arg8 * 10 + 1] : memref<410xf32>
        %1012 = affine.load %arg2[%arg8 * 10 + 1, %arg7 * 15 + 10] : memref<410x390xf32>
        %1013 = arith.mulf %1011, %1012 : f32
        %1014 = arith.addf %1010, %1013 : f32
        affine.store %1014, %arg3[%arg7 * 15 + 10] : memref<390xf32>
        %1015 = affine.load %arg4[%arg8 * 10 + 1] : memref<410xf32>
        %1016 = affine.load %arg2[%arg8 * 10 + 1, %arg7 * 15 + 10] : memref<410x390xf32>
        %1017 = affine.load %arg5[%arg7 * 15 + 10] : memref<390xf32>
        %1018 = arith.mulf %1016, %1017 : f32
        %1019 = arith.addf %1015, %1018 : f32
        affine.store %1019, %arg4[%arg8 * 10 + 1] : memref<410xf32>
        affine.store %cst, %arg4[%arg8 * 10 + 2] : memref<410xf32>
        %1020 = affine.load %arg3[%arg7 * 15 + 10] : memref<390xf32>
        %1021 = affine.load %arg6[%arg8 * 10 + 2] : memref<410xf32>
        %1022 = affine.load %arg2[%arg8 * 10 + 2, %arg7 * 15 + 10] : memref<410x390xf32>
        %1023 = arith.mulf %1021, %1022 : f32
        %1024 = arith.addf %1020, %1023 : f32
        affine.store %1024, %arg3[%arg7 * 15 + 10] : memref<390xf32>
        %1025 = affine.load %arg4[%arg8 * 10 + 2] : memref<410xf32>
        %1026 = affine.load %arg2[%arg8 * 10 + 2, %arg7 * 15 + 10] : memref<410x390xf32>
        %1027 = affine.load %arg5[%arg7 * 15 + 10] : memref<390xf32>
        %1028 = arith.mulf %1026, %1027 : f32
        %1029 = arith.addf %1025, %1028 : f32
        affine.store %1029, %arg4[%arg8 * 10 + 2] : memref<410xf32>
        affine.store %cst, %arg4[%arg8 * 10 + 3] : memref<410xf32>
        %1030 = affine.load %arg3[%arg7 * 15 + 10] : memref<390xf32>
        %1031 = affine.load %arg6[%arg8 * 10 + 3] : memref<410xf32>
        %1032 = affine.load %arg2[%arg8 * 10 + 3, %arg7 * 15 + 10] : memref<410x390xf32>
        %1033 = arith.mulf %1031, %1032 : f32
        %1034 = arith.addf %1030, %1033 : f32
        affine.store %1034, %arg3[%arg7 * 15 + 10] : memref<390xf32>
        %1035 = affine.load %arg4[%arg8 * 10 + 3] : memref<410xf32>
        %1036 = affine.load %arg2[%arg8 * 10 + 3, %arg7 * 15 + 10] : memref<410x390xf32>
        %1037 = affine.load %arg5[%arg7 * 15 + 10] : memref<390xf32>
        %1038 = arith.mulf %1036, %1037 : f32
        %1039 = arith.addf %1035, %1038 : f32
        affine.store %1039, %arg4[%arg8 * 10 + 3] : memref<410xf32>
        affine.store %cst, %arg4[%arg8 * 10 + 4] : memref<410xf32>
        %1040 = affine.load %arg3[%arg7 * 15 + 10] : memref<390xf32>
        %1041 = affine.load %arg6[%arg8 * 10 + 4] : memref<410xf32>
        %1042 = affine.load %arg2[%arg8 * 10 + 4, %arg7 * 15 + 10] : memref<410x390xf32>
        %1043 = arith.mulf %1041, %1042 : f32
        %1044 = arith.addf %1040, %1043 : f32
        affine.store %1044, %arg3[%arg7 * 15 + 10] : memref<390xf32>
        %1045 = affine.load %arg4[%arg8 * 10 + 4] : memref<410xf32>
        %1046 = affine.load %arg2[%arg8 * 10 + 4, %arg7 * 15 + 10] : memref<410x390xf32>
        %1047 = affine.load %arg5[%arg7 * 15 + 10] : memref<390xf32>
        %1048 = arith.mulf %1046, %1047 : f32
        %1049 = arith.addf %1045, %1048 : f32
        affine.store %1049, %arg4[%arg8 * 10 + 4] : memref<410xf32>
        affine.store %cst, %arg4[%arg8 * 10 + 5] : memref<410xf32>
        %1050 = affine.load %arg3[%arg7 * 15 + 10] : memref<390xf32>
        %1051 = affine.load %arg6[%arg8 * 10 + 5] : memref<410xf32>
        %1052 = affine.load %arg2[%arg8 * 10 + 5, %arg7 * 15 + 10] : memref<410x390xf32>
        %1053 = arith.mulf %1051, %1052 : f32
        %1054 = arith.addf %1050, %1053 : f32
        affine.store %1054, %arg3[%arg7 * 15 + 10] : memref<390xf32>
        %1055 = affine.load %arg4[%arg8 * 10 + 5] : memref<410xf32>
        %1056 = affine.load %arg2[%arg8 * 10 + 5, %arg7 * 15 + 10] : memref<410x390xf32>
        %1057 = affine.load %arg5[%arg7 * 15 + 10] : memref<390xf32>
        %1058 = arith.mulf %1056, %1057 : f32
        %1059 = arith.addf %1055, %1058 : f32
        affine.store %1059, %arg4[%arg8 * 10 + 5] : memref<410xf32>
        affine.store %cst, %arg4[%arg8 * 10 + 6] : memref<410xf32>
        %1060 = affine.load %arg3[%arg7 * 15 + 10] : memref<390xf32>
        %1061 = affine.load %arg6[%arg8 * 10 + 6] : memref<410xf32>
        %1062 = affine.load %arg2[%arg8 * 10 + 6, %arg7 * 15 + 10] : memref<410x390xf32>
        %1063 = arith.mulf %1061, %1062 : f32
        %1064 = arith.addf %1060, %1063 : f32
        affine.store %1064, %arg3[%arg7 * 15 + 10] : memref<390xf32>
        %1065 = affine.load %arg4[%arg8 * 10 + 6] : memref<410xf32>
        %1066 = affine.load %arg2[%arg8 * 10 + 6, %arg7 * 15 + 10] : memref<410x390xf32>
        %1067 = affine.load %arg5[%arg7 * 15 + 10] : memref<390xf32>
        %1068 = arith.mulf %1066, %1067 : f32
        %1069 = arith.addf %1065, %1068 : f32
        affine.store %1069, %arg4[%arg8 * 10 + 6] : memref<410xf32>
        affine.store %cst, %arg4[%arg8 * 10 + 7] : memref<410xf32>
        %1070 = affine.load %arg3[%arg7 * 15 + 10] : memref<390xf32>
        %1071 = affine.load %arg6[%arg8 * 10 + 7] : memref<410xf32>
        %1072 = affine.load %arg2[%arg8 * 10 + 7, %arg7 * 15 + 10] : memref<410x390xf32>
        %1073 = arith.mulf %1071, %1072 : f32
        %1074 = arith.addf %1070, %1073 : f32
        affine.store %1074, %arg3[%arg7 * 15 + 10] : memref<390xf32>
        %1075 = affine.load %arg4[%arg8 * 10 + 7] : memref<410xf32>
        %1076 = affine.load %arg2[%arg8 * 10 + 7, %arg7 * 15 + 10] : memref<410x390xf32>
        %1077 = affine.load %arg5[%arg7 * 15 + 10] : memref<390xf32>
        %1078 = arith.mulf %1076, %1077 : f32
        %1079 = arith.addf %1075, %1078 : f32
        affine.store %1079, %arg4[%arg8 * 10 + 7] : memref<410xf32>
        affine.store %cst, %arg4[%arg8 * 10 + 8] : memref<410xf32>
        %1080 = affine.load %arg3[%arg7 * 15 + 10] : memref<390xf32>
        %1081 = affine.load %arg6[%arg8 * 10 + 8] : memref<410xf32>
        %1082 = affine.load %arg2[%arg8 * 10 + 8, %arg7 * 15 + 10] : memref<410x390xf32>
        %1083 = arith.mulf %1081, %1082 : f32
        %1084 = arith.addf %1080, %1083 : f32
        affine.store %1084, %arg3[%arg7 * 15 + 10] : memref<390xf32>
        %1085 = affine.load %arg4[%arg8 * 10 + 8] : memref<410xf32>
        %1086 = affine.load %arg2[%arg8 * 10 + 8, %arg7 * 15 + 10] : memref<410x390xf32>
        %1087 = affine.load %arg5[%arg7 * 15 + 10] : memref<390xf32>
        %1088 = arith.mulf %1086, %1087 : f32
        %1089 = arith.addf %1085, %1088 : f32
        affine.store %1089, %arg4[%arg8 * 10 + 8] : memref<410xf32>
        affine.store %cst, %arg4[%arg8 * 10 + 9] : memref<410xf32>
        %1090 = affine.load %arg3[%arg7 * 15 + 10] : memref<390xf32>
        %1091 = affine.load %arg6[%arg8 * 10 + 9] : memref<410xf32>
        %1092 = affine.load %arg2[%arg8 * 10 + 9, %arg7 * 15 + 10] : memref<410x390xf32>
        %1093 = arith.mulf %1091, %1092 : f32
        %1094 = arith.addf %1090, %1093 : f32
        affine.store %1094, %arg3[%arg7 * 15 + 10] : memref<390xf32>
        %1095 = affine.load %arg4[%arg8 * 10 + 9] : memref<410xf32>
        %1096 = affine.load %arg2[%arg8 * 10 + 9, %arg7 * 15 + 10] : memref<410x390xf32>
        %1097 = affine.load %arg5[%arg7 * 15 + 10] : memref<390xf32>
        %1098 = arith.mulf %1096, %1097 : f32
        %1099 = arith.addf %1095, %1098 : f32
        affine.store %1099, %arg4[%arg8 * 10 + 9] : memref<410xf32>
        affine.store %cst, %arg4[%arg8 * 10] : memref<410xf32>
        %1100 = affine.load %arg3[%arg7 * 15 + 11] : memref<390xf32>
        %1101 = affine.load %arg6[%arg8 * 10] : memref<410xf32>
        %1102 = affine.load %arg2[%arg8 * 10, %arg7 * 15 + 11] : memref<410x390xf32>
        %1103 = arith.mulf %1101, %1102 : f32
        %1104 = arith.addf %1100, %1103 : f32
        affine.store %1104, %arg3[%arg7 * 15 + 11] : memref<390xf32>
        %1105 = affine.load %arg4[%arg8 * 10] : memref<410xf32>
        %1106 = affine.load %arg2[%arg8 * 10, %arg7 * 15 + 11] : memref<410x390xf32>
        %1107 = affine.load %arg5[%arg7 * 15 + 11] : memref<390xf32>
        %1108 = arith.mulf %1106, %1107 : f32
        %1109 = arith.addf %1105, %1108 : f32
        affine.store %1109, %arg4[%arg8 * 10] : memref<410xf32>
        affine.store %cst, %arg4[%arg8 * 10 + 1] : memref<410xf32>
        %1110 = affine.load %arg3[%arg7 * 15 + 11] : memref<390xf32>
        %1111 = affine.load %arg6[%arg8 * 10 + 1] : memref<410xf32>
        %1112 = affine.load %arg2[%arg8 * 10 + 1, %arg7 * 15 + 11] : memref<410x390xf32>
        %1113 = arith.mulf %1111, %1112 : f32
        %1114 = arith.addf %1110, %1113 : f32
        affine.store %1114, %arg3[%arg7 * 15 + 11] : memref<390xf32>
        %1115 = affine.load %arg4[%arg8 * 10 + 1] : memref<410xf32>
        %1116 = affine.load %arg2[%arg8 * 10 + 1, %arg7 * 15 + 11] : memref<410x390xf32>
        %1117 = affine.load %arg5[%arg7 * 15 + 11] : memref<390xf32>
        %1118 = arith.mulf %1116, %1117 : f32
        %1119 = arith.addf %1115, %1118 : f32
        affine.store %1119, %arg4[%arg8 * 10 + 1] : memref<410xf32>
        affine.store %cst, %arg4[%arg8 * 10 + 2] : memref<410xf32>
        %1120 = affine.load %arg3[%arg7 * 15 + 11] : memref<390xf32>
        %1121 = affine.load %arg6[%arg8 * 10 + 2] : memref<410xf32>
        %1122 = affine.load %arg2[%arg8 * 10 + 2, %arg7 * 15 + 11] : memref<410x390xf32>
        %1123 = arith.mulf %1121, %1122 : f32
        %1124 = arith.addf %1120, %1123 : f32
        affine.store %1124, %arg3[%arg7 * 15 + 11] : memref<390xf32>
        %1125 = affine.load %arg4[%arg8 * 10 + 2] : memref<410xf32>
        %1126 = affine.load %arg2[%arg8 * 10 + 2, %arg7 * 15 + 11] : memref<410x390xf32>
        %1127 = affine.load %arg5[%arg7 * 15 + 11] : memref<390xf32>
        %1128 = arith.mulf %1126, %1127 : f32
        %1129 = arith.addf %1125, %1128 : f32
        affine.store %1129, %arg4[%arg8 * 10 + 2] : memref<410xf32>
        affine.store %cst, %arg4[%arg8 * 10 + 3] : memref<410xf32>
        %1130 = affine.load %arg3[%arg7 * 15 + 11] : memref<390xf32>
        %1131 = affine.load %arg6[%arg8 * 10 + 3] : memref<410xf32>
        %1132 = affine.load %arg2[%arg8 * 10 + 3, %arg7 * 15 + 11] : memref<410x390xf32>
        %1133 = arith.mulf %1131, %1132 : f32
        %1134 = arith.addf %1130, %1133 : f32
        affine.store %1134, %arg3[%arg7 * 15 + 11] : memref<390xf32>
        %1135 = affine.load %arg4[%arg8 * 10 + 3] : memref<410xf32>
        %1136 = affine.load %arg2[%arg8 * 10 + 3, %arg7 * 15 + 11] : memref<410x390xf32>
        %1137 = affine.load %arg5[%arg7 * 15 + 11] : memref<390xf32>
        %1138 = arith.mulf %1136, %1137 : f32
        %1139 = arith.addf %1135, %1138 : f32
        affine.store %1139, %arg4[%arg8 * 10 + 3] : memref<410xf32>
        affine.store %cst, %arg4[%arg8 * 10 + 4] : memref<410xf32>
        %1140 = affine.load %arg3[%arg7 * 15 + 11] : memref<390xf32>
        %1141 = affine.load %arg6[%arg8 * 10 + 4] : memref<410xf32>
        %1142 = affine.load %arg2[%arg8 * 10 + 4, %arg7 * 15 + 11] : memref<410x390xf32>
        %1143 = arith.mulf %1141, %1142 : f32
        %1144 = arith.addf %1140, %1143 : f32
        affine.store %1144, %arg3[%arg7 * 15 + 11] : memref<390xf32>
        %1145 = affine.load %arg4[%arg8 * 10 + 4] : memref<410xf32>
        %1146 = affine.load %arg2[%arg8 * 10 + 4, %arg7 * 15 + 11] : memref<410x390xf32>
        %1147 = affine.load %arg5[%arg7 * 15 + 11] : memref<390xf32>
        %1148 = arith.mulf %1146, %1147 : f32
        %1149 = arith.addf %1145, %1148 : f32
        affine.store %1149, %arg4[%arg8 * 10 + 4] : memref<410xf32>
        affine.store %cst, %arg4[%arg8 * 10 + 5] : memref<410xf32>
        %1150 = affine.load %arg3[%arg7 * 15 + 11] : memref<390xf32>
        %1151 = affine.load %arg6[%arg8 * 10 + 5] : memref<410xf32>
        %1152 = affine.load %arg2[%arg8 * 10 + 5, %arg7 * 15 + 11] : memref<410x390xf32>
        %1153 = arith.mulf %1151, %1152 : f32
        %1154 = arith.addf %1150, %1153 : f32
        affine.store %1154, %arg3[%arg7 * 15 + 11] : memref<390xf32>
        %1155 = affine.load %arg4[%arg8 * 10 + 5] : memref<410xf32>
        %1156 = affine.load %arg2[%arg8 * 10 + 5, %arg7 * 15 + 11] : memref<410x390xf32>
        %1157 = affine.load %arg5[%arg7 * 15 + 11] : memref<390xf32>
        %1158 = arith.mulf %1156, %1157 : f32
        %1159 = arith.addf %1155, %1158 : f32
        affine.store %1159, %arg4[%arg8 * 10 + 5] : memref<410xf32>
        affine.store %cst, %arg4[%arg8 * 10 + 6] : memref<410xf32>
        %1160 = affine.load %arg3[%arg7 * 15 + 11] : memref<390xf32>
        %1161 = affine.load %arg6[%arg8 * 10 + 6] : memref<410xf32>
        %1162 = affine.load %arg2[%arg8 * 10 + 6, %arg7 * 15 + 11] : memref<410x390xf32>
        %1163 = arith.mulf %1161, %1162 : f32
        %1164 = arith.addf %1160, %1163 : f32
        affine.store %1164, %arg3[%arg7 * 15 + 11] : memref<390xf32>
        %1165 = affine.load %arg4[%arg8 * 10 + 6] : memref<410xf32>
        %1166 = affine.load %arg2[%arg8 * 10 + 6, %arg7 * 15 + 11] : memref<410x390xf32>
        %1167 = affine.load %arg5[%arg7 * 15 + 11] : memref<390xf32>
        %1168 = arith.mulf %1166, %1167 : f32
        %1169 = arith.addf %1165, %1168 : f32
        affine.store %1169, %arg4[%arg8 * 10 + 6] : memref<410xf32>
        affine.store %cst, %arg4[%arg8 * 10 + 7] : memref<410xf32>
        %1170 = affine.load %arg3[%arg7 * 15 + 11] : memref<390xf32>
        %1171 = affine.load %arg6[%arg8 * 10 + 7] : memref<410xf32>
        %1172 = affine.load %arg2[%arg8 * 10 + 7, %arg7 * 15 + 11] : memref<410x390xf32>
        %1173 = arith.mulf %1171, %1172 : f32
        %1174 = arith.addf %1170, %1173 : f32
        affine.store %1174, %arg3[%arg7 * 15 + 11] : memref<390xf32>
        %1175 = affine.load %arg4[%arg8 * 10 + 7] : memref<410xf32>
        %1176 = affine.load %arg2[%arg8 * 10 + 7, %arg7 * 15 + 11] : memref<410x390xf32>
        %1177 = affine.load %arg5[%arg7 * 15 + 11] : memref<390xf32>
        %1178 = arith.mulf %1176, %1177 : f32
        %1179 = arith.addf %1175, %1178 : f32
        affine.store %1179, %arg4[%arg8 * 10 + 7] : memref<410xf32>
        affine.store %cst, %arg4[%arg8 * 10 + 8] : memref<410xf32>
        %1180 = affine.load %arg3[%arg7 * 15 + 11] : memref<390xf32>
        %1181 = affine.load %arg6[%arg8 * 10 + 8] : memref<410xf32>
        %1182 = affine.load %arg2[%arg8 * 10 + 8, %arg7 * 15 + 11] : memref<410x390xf32>
        %1183 = arith.mulf %1181, %1182 : f32
        %1184 = arith.addf %1180, %1183 : f32
        affine.store %1184, %arg3[%arg7 * 15 + 11] : memref<390xf32>
        %1185 = affine.load %arg4[%arg8 * 10 + 8] : memref<410xf32>
        %1186 = affine.load %arg2[%arg8 * 10 + 8, %arg7 * 15 + 11] : memref<410x390xf32>
        %1187 = affine.load %arg5[%arg7 * 15 + 11] : memref<390xf32>
        %1188 = arith.mulf %1186, %1187 : f32
        %1189 = arith.addf %1185, %1188 : f32
        affine.store %1189, %arg4[%arg8 * 10 + 8] : memref<410xf32>
        affine.store %cst, %arg4[%arg8 * 10 + 9] : memref<410xf32>
        %1190 = affine.load %arg3[%arg7 * 15 + 11] : memref<390xf32>
        %1191 = affine.load %arg6[%arg8 * 10 + 9] : memref<410xf32>
        %1192 = affine.load %arg2[%arg8 * 10 + 9, %arg7 * 15 + 11] : memref<410x390xf32>
        %1193 = arith.mulf %1191, %1192 : f32
        %1194 = arith.addf %1190, %1193 : f32
        affine.store %1194, %arg3[%arg7 * 15 + 11] : memref<390xf32>
        %1195 = affine.load %arg4[%arg8 * 10 + 9] : memref<410xf32>
        %1196 = affine.load %arg2[%arg8 * 10 + 9, %arg7 * 15 + 11] : memref<410x390xf32>
        %1197 = affine.load %arg5[%arg7 * 15 + 11] : memref<390xf32>
        %1198 = arith.mulf %1196, %1197 : f32
        %1199 = arith.addf %1195, %1198 : f32
        affine.store %1199, %arg4[%arg8 * 10 + 9] : memref<410xf32>
        affine.store %cst, %arg4[%arg8 * 10] : memref<410xf32>
        %1200 = affine.load %arg3[%arg7 * 15 + 12] : memref<390xf32>
        %1201 = affine.load %arg6[%arg8 * 10] : memref<410xf32>
        %1202 = affine.load %arg2[%arg8 * 10, %arg7 * 15 + 12] : memref<410x390xf32>
        %1203 = arith.mulf %1201, %1202 : f32
        %1204 = arith.addf %1200, %1203 : f32
        affine.store %1204, %arg3[%arg7 * 15 + 12] : memref<390xf32>
        %1205 = affine.load %arg4[%arg8 * 10] : memref<410xf32>
        %1206 = affine.load %arg2[%arg8 * 10, %arg7 * 15 + 12] : memref<410x390xf32>
        %1207 = affine.load %arg5[%arg7 * 15 + 12] : memref<390xf32>
        %1208 = arith.mulf %1206, %1207 : f32
        %1209 = arith.addf %1205, %1208 : f32
        affine.store %1209, %arg4[%arg8 * 10] : memref<410xf32>
        affine.store %cst, %arg4[%arg8 * 10 + 1] : memref<410xf32>
        %1210 = affine.load %arg3[%arg7 * 15 + 12] : memref<390xf32>
        %1211 = affine.load %arg6[%arg8 * 10 + 1] : memref<410xf32>
        %1212 = affine.load %arg2[%arg8 * 10 + 1, %arg7 * 15 + 12] : memref<410x390xf32>
        %1213 = arith.mulf %1211, %1212 : f32
        %1214 = arith.addf %1210, %1213 : f32
        affine.store %1214, %arg3[%arg7 * 15 + 12] : memref<390xf32>
        %1215 = affine.load %arg4[%arg8 * 10 + 1] : memref<410xf32>
        %1216 = affine.load %arg2[%arg8 * 10 + 1, %arg7 * 15 + 12] : memref<410x390xf32>
        %1217 = affine.load %arg5[%arg7 * 15 + 12] : memref<390xf32>
        %1218 = arith.mulf %1216, %1217 : f32
        %1219 = arith.addf %1215, %1218 : f32
        affine.store %1219, %arg4[%arg8 * 10 + 1] : memref<410xf32>
        affine.store %cst, %arg4[%arg8 * 10 + 2] : memref<410xf32>
        %1220 = affine.load %arg3[%arg7 * 15 + 12] : memref<390xf32>
        %1221 = affine.load %arg6[%arg8 * 10 + 2] : memref<410xf32>
        %1222 = affine.load %arg2[%arg8 * 10 + 2, %arg7 * 15 + 12] : memref<410x390xf32>
        %1223 = arith.mulf %1221, %1222 : f32
        %1224 = arith.addf %1220, %1223 : f32
        affine.store %1224, %arg3[%arg7 * 15 + 12] : memref<390xf32>
        %1225 = affine.load %arg4[%arg8 * 10 + 2] : memref<410xf32>
        %1226 = affine.load %arg2[%arg8 * 10 + 2, %arg7 * 15 + 12] : memref<410x390xf32>
        %1227 = affine.load %arg5[%arg7 * 15 + 12] : memref<390xf32>
        %1228 = arith.mulf %1226, %1227 : f32
        %1229 = arith.addf %1225, %1228 : f32
        affine.store %1229, %arg4[%arg8 * 10 + 2] : memref<410xf32>
        affine.store %cst, %arg4[%arg8 * 10 + 3] : memref<410xf32>
        %1230 = affine.load %arg3[%arg7 * 15 + 12] : memref<390xf32>
        %1231 = affine.load %arg6[%arg8 * 10 + 3] : memref<410xf32>
        %1232 = affine.load %arg2[%arg8 * 10 + 3, %arg7 * 15 + 12] : memref<410x390xf32>
        %1233 = arith.mulf %1231, %1232 : f32
        %1234 = arith.addf %1230, %1233 : f32
        affine.store %1234, %arg3[%arg7 * 15 + 12] : memref<390xf32>
        %1235 = affine.load %arg4[%arg8 * 10 + 3] : memref<410xf32>
        %1236 = affine.load %arg2[%arg8 * 10 + 3, %arg7 * 15 + 12] : memref<410x390xf32>
        %1237 = affine.load %arg5[%arg7 * 15 + 12] : memref<390xf32>
        %1238 = arith.mulf %1236, %1237 : f32
        %1239 = arith.addf %1235, %1238 : f32
        affine.store %1239, %arg4[%arg8 * 10 + 3] : memref<410xf32>
        affine.store %cst, %arg4[%arg8 * 10 + 4] : memref<410xf32>
        %1240 = affine.load %arg3[%arg7 * 15 + 12] : memref<390xf32>
        %1241 = affine.load %arg6[%arg8 * 10 + 4] : memref<410xf32>
        %1242 = affine.load %arg2[%arg8 * 10 + 4, %arg7 * 15 + 12] : memref<410x390xf32>
        %1243 = arith.mulf %1241, %1242 : f32
        %1244 = arith.addf %1240, %1243 : f32
        affine.store %1244, %arg3[%arg7 * 15 + 12] : memref<390xf32>
        %1245 = affine.load %arg4[%arg8 * 10 + 4] : memref<410xf32>
        %1246 = affine.load %arg2[%arg8 * 10 + 4, %arg7 * 15 + 12] : memref<410x390xf32>
        %1247 = affine.load %arg5[%arg7 * 15 + 12] : memref<390xf32>
        %1248 = arith.mulf %1246, %1247 : f32
        %1249 = arith.addf %1245, %1248 : f32
        affine.store %1249, %arg4[%arg8 * 10 + 4] : memref<410xf32>
        affine.store %cst, %arg4[%arg8 * 10 + 5] : memref<410xf32>
        %1250 = affine.load %arg3[%arg7 * 15 + 12] : memref<390xf32>
        %1251 = affine.load %arg6[%arg8 * 10 + 5] : memref<410xf32>
        %1252 = affine.load %arg2[%arg8 * 10 + 5, %arg7 * 15 + 12] : memref<410x390xf32>
        %1253 = arith.mulf %1251, %1252 : f32
        %1254 = arith.addf %1250, %1253 : f32
        affine.store %1254, %arg3[%arg7 * 15 + 12] : memref<390xf32>
        %1255 = affine.load %arg4[%arg8 * 10 + 5] : memref<410xf32>
        %1256 = affine.load %arg2[%arg8 * 10 + 5, %arg7 * 15 + 12] : memref<410x390xf32>
        %1257 = affine.load %arg5[%arg7 * 15 + 12] : memref<390xf32>
        %1258 = arith.mulf %1256, %1257 : f32
        %1259 = arith.addf %1255, %1258 : f32
        affine.store %1259, %arg4[%arg8 * 10 + 5] : memref<410xf32>
        affine.store %cst, %arg4[%arg8 * 10 + 6] : memref<410xf32>
        %1260 = affine.load %arg3[%arg7 * 15 + 12] : memref<390xf32>
        %1261 = affine.load %arg6[%arg8 * 10 + 6] : memref<410xf32>
        %1262 = affine.load %arg2[%arg8 * 10 + 6, %arg7 * 15 + 12] : memref<410x390xf32>
        %1263 = arith.mulf %1261, %1262 : f32
        %1264 = arith.addf %1260, %1263 : f32
        affine.store %1264, %arg3[%arg7 * 15 + 12] : memref<390xf32>
        %1265 = affine.load %arg4[%arg8 * 10 + 6] : memref<410xf32>
        %1266 = affine.load %arg2[%arg8 * 10 + 6, %arg7 * 15 + 12] : memref<410x390xf32>
        %1267 = affine.load %arg5[%arg7 * 15 + 12] : memref<390xf32>
        %1268 = arith.mulf %1266, %1267 : f32
        %1269 = arith.addf %1265, %1268 : f32
        affine.store %1269, %arg4[%arg8 * 10 + 6] : memref<410xf32>
        affine.store %cst, %arg4[%arg8 * 10 + 7] : memref<410xf32>
        %1270 = affine.load %arg3[%arg7 * 15 + 12] : memref<390xf32>
        %1271 = affine.load %arg6[%arg8 * 10 + 7] : memref<410xf32>
        %1272 = affine.load %arg2[%arg8 * 10 + 7, %arg7 * 15 + 12] : memref<410x390xf32>
        %1273 = arith.mulf %1271, %1272 : f32
        %1274 = arith.addf %1270, %1273 : f32
        affine.store %1274, %arg3[%arg7 * 15 + 12] : memref<390xf32>
        %1275 = affine.load %arg4[%arg8 * 10 + 7] : memref<410xf32>
        %1276 = affine.load %arg2[%arg8 * 10 + 7, %arg7 * 15 + 12] : memref<410x390xf32>
        %1277 = affine.load %arg5[%arg7 * 15 + 12] : memref<390xf32>
        %1278 = arith.mulf %1276, %1277 : f32
        %1279 = arith.addf %1275, %1278 : f32
        affine.store %1279, %arg4[%arg8 * 10 + 7] : memref<410xf32>
        affine.store %cst, %arg4[%arg8 * 10 + 8] : memref<410xf32>
        %1280 = affine.load %arg3[%arg7 * 15 + 12] : memref<390xf32>
        %1281 = affine.load %arg6[%arg8 * 10 + 8] : memref<410xf32>
        %1282 = affine.load %arg2[%arg8 * 10 + 8, %arg7 * 15 + 12] : memref<410x390xf32>
        %1283 = arith.mulf %1281, %1282 : f32
        %1284 = arith.addf %1280, %1283 : f32
        affine.store %1284, %arg3[%arg7 * 15 + 12] : memref<390xf32>
        %1285 = affine.load %arg4[%arg8 * 10 + 8] : memref<410xf32>
        %1286 = affine.load %arg2[%arg8 * 10 + 8, %arg7 * 15 + 12] : memref<410x390xf32>
        %1287 = affine.load %arg5[%arg7 * 15 + 12] : memref<390xf32>
        %1288 = arith.mulf %1286, %1287 : f32
        %1289 = arith.addf %1285, %1288 : f32
        affine.store %1289, %arg4[%arg8 * 10 + 8] : memref<410xf32>
        affine.store %cst, %arg4[%arg8 * 10 + 9] : memref<410xf32>
        %1290 = affine.load %arg3[%arg7 * 15 + 12] : memref<390xf32>
        %1291 = affine.load %arg6[%arg8 * 10 + 9] : memref<410xf32>
        %1292 = affine.load %arg2[%arg8 * 10 + 9, %arg7 * 15 + 12] : memref<410x390xf32>
        %1293 = arith.mulf %1291, %1292 : f32
        %1294 = arith.addf %1290, %1293 : f32
        affine.store %1294, %arg3[%arg7 * 15 + 12] : memref<390xf32>
        %1295 = affine.load %arg4[%arg8 * 10 + 9] : memref<410xf32>
        %1296 = affine.load %arg2[%arg8 * 10 + 9, %arg7 * 15 + 12] : memref<410x390xf32>
        %1297 = affine.load %arg5[%arg7 * 15 + 12] : memref<390xf32>
        %1298 = arith.mulf %1296, %1297 : f32
        %1299 = arith.addf %1295, %1298 : f32
        affine.store %1299, %arg4[%arg8 * 10 + 9] : memref<410xf32>
        affine.store %cst, %arg4[%arg8 * 10] : memref<410xf32>
        %1300 = affine.load %arg3[%arg7 * 15 + 13] : memref<390xf32>
        %1301 = affine.load %arg6[%arg8 * 10] : memref<410xf32>
        %1302 = affine.load %arg2[%arg8 * 10, %arg7 * 15 + 13] : memref<410x390xf32>
        %1303 = arith.mulf %1301, %1302 : f32
        %1304 = arith.addf %1300, %1303 : f32
        affine.store %1304, %arg3[%arg7 * 15 + 13] : memref<390xf32>
        %1305 = affine.load %arg4[%arg8 * 10] : memref<410xf32>
        %1306 = affine.load %arg2[%arg8 * 10, %arg7 * 15 + 13] : memref<410x390xf32>
        %1307 = affine.load %arg5[%arg7 * 15 + 13] : memref<390xf32>
        %1308 = arith.mulf %1306, %1307 : f32
        %1309 = arith.addf %1305, %1308 : f32
        affine.store %1309, %arg4[%arg8 * 10] : memref<410xf32>
        affine.store %cst, %arg4[%arg8 * 10 + 1] : memref<410xf32>
        %1310 = affine.load %arg3[%arg7 * 15 + 13] : memref<390xf32>
        %1311 = affine.load %arg6[%arg8 * 10 + 1] : memref<410xf32>
        %1312 = affine.load %arg2[%arg8 * 10 + 1, %arg7 * 15 + 13] : memref<410x390xf32>
        %1313 = arith.mulf %1311, %1312 : f32
        %1314 = arith.addf %1310, %1313 : f32
        affine.store %1314, %arg3[%arg7 * 15 + 13] : memref<390xf32>
        %1315 = affine.load %arg4[%arg8 * 10 + 1] : memref<410xf32>
        %1316 = affine.load %arg2[%arg8 * 10 + 1, %arg7 * 15 + 13] : memref<410x390xf32>
        %1317 = affine.load %arg5[%arg7 * 15 + 13] : memref<390xf32>
        %1318 = arith.mulf %1316, %1317 : f32
        %1319 = arith.addf %1315, %1318 : f32
        affine.store %1319, %arg4[%arg8 * 10 + 1] : memref<410xf32>
        affine.store %cst, %arg4[%arg8 * 10 + 2] : memref<410xf32>
        %1320 = affine.load %arg3[%arg7 * 15 + 13] : memref<390xf32>
        %1321 = affine.load %arg6[%arg8 * 10 + 2] : memref<410xf32>
        %1322 = affine.load %arg2[%arg8 * 10 + 2, %arg7 * 15 + 13] : memref<410x390xf32>
        %1323 = arith.mulf %1321, %1322 : f32
        %1324 = arith.addf %1320, %1323 : f32
        affine.store %1324, %arg3[%arg7 * 15 + 13] : memref<390xf32>
        %1325 = affine.load %arg4[%arg8 * 10 + 2] : memref<410xf32>
        %1326 = affine.load %arg2[%arg8 * 10 + 2, %arg7 * 15 + 13] : memref<410x390xf32>
        %1327 = affine.load %arg5[%arg7 * 15 + 13] : memref<390xf32>
        %1328 = arith.mulf %1326, %1327 : f32
        %1329 = arith.addf %1325, %1328 : f32
        affine.store %1329, %arg4[%arg8 * 10 + 2] : memref<410xf32>
        affine.store %cst, %arg4[%arg8 * 10 + 3] : memref<410xf32>
        %1330 = affine.load %arg3[%arg7 * 15 + 13] : memref<390xf32>
        %1331 = affine.load %arg6[%arg8 * 10 + 3] : memref<410xf32>
        %1332 = affine.load %arg2[%arg8 * 10 + 3, %arg7 * 15 + 13] : memref<410x390xf32>
        %1333 = arith.mulf %1331, %1332 : f32
        %1334 = arith.addf %1330, %1333 : f32
        affine.store %1334, %arg3[%arg7 * 15 + 13] : memref<390xf32>
        %1335 = affine.load %arg4[%arg8 * 10 + 3] : memref<410xf32>
        %1336 = affine.load %arg2[%arg8 * 10 + 3, %arg7 * 15 + 13] : memref<410x390xf32>
        %1337 = affine.load %arg5[%arg7 * 15 + 13] : memref<390xf32>
        %1338 = arith.mulf %1336, %1337 : f32
        %1339 = arith.addf %1335, %1338 : f32
        affine.store %1339, %arg4[%arg8 * 10 + 3] : memref<410xf32>
        affine.store %cst, %arg4[%arg8 * 10 + 4] : memref<410xf32>
        %1340 = affine.load %arg3[%arg7 * 15 + 13] : memref<390xf32>
        %1341 = affine.load %arg6[%arg8 * 10 + 4] : memref<410xf32>
        %1342 = affine.load %arg2[%arg8 * 10 + 4, %arg7 * 15 + 13] : memref<410x390xf32>
        %1343 = arith.mulf %1341, %1342 : f32
        %1344 = arith.addf %1340, %1343 : f32
        affine.store %1344, %arg3[%arg7 * 15 + 13] : memref<390xf32>
        %1345 = affine.load %arg4[%arg8 * 10 + 4] : memref<410xf32>
        %1346 = affine.load %arg2[%arg8 * 10 + 4, %arg7 * 15 + 13] : memref<410x390xf32>
        %1347 = affine.load %arg5[%arg7 * 15 + 13] : memref<390xf32>
        %1348 = arith.mulf %1346, %1347 : f32
        %1349 = arith.addf %1345, %1348 : f32
        affine.store %1349, %arg4[%arg8 * 10 + 4] : memref<410xf32>
        affine.store %cst, %arg4[%arg8 * 10 + 5] : memref<410xf32>
        %1350 = affine.load %arg3[%arg7 * 15 + 13] : memref<390xf32>
        %1351 = affine.load %arg6[%arg8 * 10 + 5] : memref<410xf32>
        %1352 = affine.load %arg2[%arg8 * 10 + 5, %arg7 * 15 + 13] : memref<410x390xf32>
        %1353 = arith.mulf %1351, %1352 : f32
        %1354 = arith.addf %1350, %1353 : f32
        affine.store %1354, %arg3[%arg7 * 15 + 13] : memref<390xf32>
        %1355 = affine.load %arg4[%arg8 * 10 + 5] : memref<410xf32>
        %1356 = affine.load %arg2[%arg8 * 10 + 5, %arg7 * 15 + 13] : memref<410x390xf32>
        %1357 = affine.load %arg5[%arg7 * 15 + 13] : memref<390xf32>
        %1358 = arith.mulf %1356, %1357 : f32
        %1359 = arith.addf %1355, %1358 : f32
        affine.store %1359, %arg4[%arg8 * 10 + 5] : memref<410xf32>
        affine.store %cst, %arg4[%arg8 * 10 + 6] : memref<410xf32>
        %1360 = affine.load %arg3[%arg7 * 15 + 13] : memref<390xf32>
        %1361 = affine.load %arg6[%arg8 * 10 + 6] : memref<410xf32>
        %1362 = affine.load %arg2[%arg8 * 10 + 6, %arg7 * 15 + 13] : memref<410x390xf32>
        %1363 = arith.mulf %1361, %1362 : f32
        %1364 = arith.addf %1360, %1363 : f32
        affine.store %1364, %arg3[%arg7 * 15 + 13] : memref<390xf32>
        %1365 = affine.load %arg4[%arg8 * 10 + 6] : memref<410xf32>
        %1366 = affine.load %arg2[%arg8 * 10 + 6, %arg7 * 15 + 13] : memref<410x390xf32>
        %1367 = affine.load %arg5[%arg7 * 15 + 13] : memref<390xf32>
        %1368 = arith.mulf %1366, %1367 : f32
        %1369 = arith.addf %1365, %1368 : f32
        affine.store %1369, %arg4[%arg8 * 10 + 6] : memref<410xf32>
        affine.store %cst, %arg4[%arg8 * 10 + 7] : memref<410xf32>
        %1370 = affine.load %arg3[%arg7 * 15 + 13] : memref<390xf32>
        %1371 = affine.load %arg6[%arg8 * 10 + 7] : memref<410xf32>
        %1372 = affine.load %arg2[%arg8 * 10 + 7, %arg7 * 15 + 13] : memref<410x390xf32>
        %1373 = arith.mulf %1371, %1372 : f32
        %1374 = arith.addf %1370, %1373 : f32
        affine.store %1374, %arg3[%arg7 * 15 + 13] : memref<390xf32>
        %1375 = affine.load %arg4[%arg8 * 10 + 7] : memref<410xf32>
        %1376 = affine.load %arg2[%arg8 * 10 + 7, %arg7 * 15 + 13] : memref<410x390xf32>
        %1377 = affine.load %arg5[%arg7 * 15 + 13] : memref<390xf32>
        %1378 = arith.mulf %1376, %1377 : f32
        %1379 = arith.addf %1375, %1378 : f32
        affine.store %1379, %arg4[%arg8 * 10 + 7] : memref<410xf32>
        affine.store %cst, %arg4[%arg8 * 10 + 8] : memref<410xf32>
        %1380 = affine.load %arg3[%arg7 * 15 + 13] : memref<390xf32>
        %1381 = affine.load %arg6[%arg8 * 10 + 8] : memref<410xf32>
        %1382 = affine.load %arg2[%arg8 * 10 + 8, %arg7 * 15 + 13] : memref<410x390xf32>
        %1383 = arith.mulf %1381, %1382 : f32
        %1384 = arith.addf %1380, %1383 : f32
        affine.store %1384, %arg3[%arg7 * 15 + 13] : memref<390xf32>
        %1385 = affine.load %arg4[%arg8 * 10 + 8] : memref<410xf32>
        %1386 = affine.load %arg2[%arg8 * 10 + 8, %arg7 * 15 + 13] : memref<410x390xf32>
        %1387 = affine.load %arg5[%arg7 * 15 + 13] : memref<390xf32>
        %1388 = arith.mulf %1386, %1387 : f32
        %1389 = arith.addf %1385, %1388 : f32
        affine.store %1389, %arg4[%arg8 * 10 + 8] : memref<410xf32>
        affine.store %cst, %arg4[%arg8 * 10 + 9] : memref<410xf32>
        %1390 = affine.load %arg3[%arg7 * 15 + 13] : memref<390xf32>
        %1391 = affine.load %arg6[%arg8 * 10 + 9] : memref<410xf32>
        %1392 = affine.load %arg2[%arg8 * 10 + 9, %arg7 * 15 + 13] : memref<410x390xf32>
        %1393 = arith.mulf %1391, %1392 : f32
        %1394 = arith.addf %1390, %1393 : f32
        affine.store %1394, %arg3[%arg7 * 15 + 13] : memref<390xf32>
        %1395 = affine.load %arg4[%arg8 * 10 + 9] : memref<410xf32>
        %1396 = affine.load %arg2[%arg8 * 10 + 9, %arg7 * 15 + 13] : memref<410x390xf32>
        %1397 = affine.load %arg5[%arg7 * 15 + 13] : memref<390xf32>
        %1398 = arith.mulf %1396, %1397 : f32
        %1399 = arith.addf %1395, %1398 : f32
        affine.store %1399, %arg4[%arg8 * 10 + 9] : memref<410xf32>
        affine.store %cst, %arg4[%arg8 * 10] : memref<410xf32>
        %1400 = affine.load %arg3[%arg7 * 15 + 14] : memref<390xf32>
        %1401 = affine.load %arg6[%arg8 * 10] : memref<410xf32>
        %1402 = affine.load %arg2[%arg8 * 10, %arg7 * 15 + 14] : memref<410x390xf32>
        %1403 = arith.mulf %1401, %1402 : f32
        %1404 = arith.addf %1400, %1403 : f32
        affine.store %1404, %arg3[%arg7 * 15 + 14] : memref<390xf32>
        %1405 = affine.load %arg4[%arg8 * 10] : memref<410xf32>
        %1406 = affine.load %arg2[%arg8 * 10, %arg7 * 15 + 14] : memref<410x390xf32>
        %1407 = affine.load %arg5[%arg7 * 15 + 14] : memref<390xf32>
        %1408 = arith.mulf %1406, %1407 : f32
        %1409 = arith.addf %1405, %1408 : f32
        affine.store %1409, %arg4[%arg8 * 10] : memref<410xf32>
        affine.store %cst, %arg4[%arg8 * 10 + 1] : memref<410xf32>
        %1410 = affine.load %arg3[%arg7 * 15 + 14] : memref<390xf32>
        %1411 = affine.load %arg6[%arg8 * 10 + 1] : memref<410xf32>
        %1412 = affine.load %arg2[%arg8 * 10 + 1, %arg7 * 15 + 14] : memref<410x390xf32>
        %1413 = arith.mulf %1411, %1412 : f32
        %1414 = arith.addf %1410, %1413 : f32
        affine.store %1414, %arg3[%arg7 * 15 + 14] : memref<390xf32>
        %1415 = affine.load %arg4[%arg8 * 10 + 1] : memref<410xf32>
        %1416 = affine.load %arg2[%arg8 * 10 + 1, %arg7 * 15 + 14] : memref<410x390xf32>
        %1417 = affine.load %arg5[%arg7 * 15 + 14] : memref<390xf32>
        %1418 = arith.mulf %1416, %1417 : f32
        %1419 = arith.addf %1415, %1418 : f32
        affine.store %1419, %arg4[%arg8 * 10 + 1] : memref<410xf32>
        affine.store %cst, %arg4[%arg8 * 10 + 2] : memref<410xf32>
        %1420 = affine.load %arg3[%arg7 * 15 + 14] : memref<390xf32>
        %1421 = affine.load %arg6[%arg8 * 10 + 2] : memref<410xf32>
        %1422 = affine.load %arg2[%arg8 * 10 + 2, %arg7 * 15 + 14] : memref<410x390xf32>
        %1423 = arith.mulf %1421, %1422 : f32
        %1424 = arith.addf %1420, %1423 : f32
        affine.store %1424, %arg3[%arg7 * 15 + 14] : memref<390xf32>
        %1425 = affine.load %arg4[%arg8 * 10 + 2] : memref<410xf32>
        %1426 = affine.load %arg2[%arg8 * 10 + 2, %arg7 * 15 + 14] : memref<410x390xf32>
        %1427 = affine.load %arg5[%arg7 * 15 + 14] : memref<390xf32>
        %1428 = arith.mulf %1426, %1427 : f32
        %1429 = arith.addf %1425, %1428 : f32
        affine.store %1429, %arg4[%arg8 * 10 + 2] : memref<410xf32>
        affine.store %cst, %arg4[%arg8 * 10 + 3] : memref<410xf32>
        %1430 = affine.load %arg3[%arg7 * 15 + 14] : memref<390xf32>
        %1431 = affine.load %arg6[%arg8 * 10 + 3] : memref<410xf32>
        %1432 = affine.load %arg2[%arg8 * 10 + 3, %arg7 * 15 + 14] : memref<410x390xf32>
        %1433 = arith.mulf %1431, %1432 : f32
        %1434 = arith.addf %1430, %1433 : f32
        affine.store %1434, %arg3[%arg7 * 15 + 14] : memref<390xf32>
        %1435 = affine.load %arg4[%arg8 * 10 + 3] : memref<410xf32>
        %1436 = affine.load %arg2[%arg8 * 10 + 3, %arg7 * 15 + 14] : memref<410x390xf32>
        %1437 = affine.load %arg5[%arg7 * 15 + 14] : memref<390xf32>
        %1438 = arith.mulf %1436, %1437 : f32
        %1439 = arith.addf %1435, %1438 : f32
        affine.store %1439, %arg4[%arg8 * 10 + 3] : memref<410xf32>
        affine.store %cst, %arg4[%arg8 * 10 + 4] : memref<410xf32>
        %1440 = affine.load %arg3[%arg7 * 15 + 14] : memref<390xf32>
        %1441 = affine.load %arg6[%arg8 * 10 + 4] : memref<410xf32>
        %1442 = affine.load %arg2[%arg8 * 10 + 4, %arg7 * 15 + 14] : memref<410x390xf32>
        %1443 = arith.mulf %1441, %1442 : f32
        %1444 = arith.addf %1440, %1443 : f32
        affine.store %1444, %arg3[%arg7 * 15 + 14] : memref<390xf32>
        %1445 = affine.load %arg4[%arg8 * 10 + 4] : memref<410xf32>
        %1446 = affine.load %arg2[%arg8 * 10 + 4, %arg7 * 15 + 14] : memref<410x390xf32>
        %1447 = affine.load %arg5[%arg7 * 15 + 14] : memref<390xf32>
        %1448 = arith.mulf %1446, %1447 : f32
        %1449 = arith.addf %1445, %1448 : f32
        affine.store %1449, %arg4[%arg8 * 10 + 4] : memref<410xf32>
        affine.store %cst, %arg4[%arg8 * 10 + 5] : memref<410xf32>
        %1450 = affine.load %arg3[%arg7 * 15 + 14] : memref<390xf32>
        %1451 = affine.load %arg6[%arg8 * 10 + 5] : memref<410xf32>
        %1452 = affine.load %arg2[%arg8 * 10 + 5, %arg7 * 15 + 14] : memref<410x390xf32>
        %1453 = arith.mulf %1451, %1452 : f32
        %1454 = arith.addf %1450, %1453 : f32
        affine.store %1454, %arg3[%arg7 * 15 + 14] : memref<390xf32>
        %1455 = affine.load %arg4[%arg8 * 10 + 5] : memref<410xf32>
        %1456 = affine.load %arg2[%arg8 * 10 + 5, %arg7 * 15 + 14] : memref<410x390xf32>
        %1457 = affine.load %arg5[%arg7 * 15 + 14] : memref<390xf32>
        %1458 = arith.mulf %1456, %1457 : f32
        %1459 = arith.addf %1455, %1458 : f32
        affine.store %1459, %arg4[%arg8 * 10 + 5] : memref<410xf32>
        affine.store %cst, %arg4[%arg8 * 10 + 6] : memref<410xf32>
        %1460 = affine.load %arg3[%arg7 * 15 + 14] : memref<390xf32>
        %1461 = affine.load %arg6[%arg8 * 10 + 6] : memref<410xf32>
        %1462 = affine.load %arg2[%arg8 * 10 + 6, %arg7 * 15 + 14] : memref<410x390xf32>
        %1463 = arith.mulf %1461, %1462 : f32
        %1464 = arith.addf %1460, %1463 : f32
        affine.store %1464, %arg3[%arg7 * 15 + 14] : memref<390xf32>
        %1465 = affine.load %arg4[%arg8 * 10 + 6] : memref<410xf32>
        %1466 = affine.load %arg2[%arg8 * 10 + 6, %arg7 * 15 + 14] : memref<410x390xf32>
        %1467 = affine.load %arg5[%arg7 * 15 + 14] : memref<390xf32>
        %1468 = arith.mulf %1466, %1467 : f32
        %1469 = arith.addf %1465, %1468 : f32
        affine.store %1469, %arg4[%arg8 * 10 + 6] : memref<410xf32>
        affine.store %cst, %arg4[%arg8 * 10 + 7] : memref<410xf32>
        %1470 = affine.load %arg3[%arg7 * 15 + 14] : memref<390xf32>
        %1471 = affine.load %arg6[%arg8 * 10 + 7] : memref<410xf32>
        %1472 = affine.load %arg2[%arg8 * 10 + 7, %arg7 * 15 + 14] : memref<410x390xf32>
        %1473 = arith.mulf %1471, %1472 : f32
        %1474 = arith.addf %1470, %1473 : f32
        affine.store %1474, %arg3[%arg7 * 15 + 14] : memref<390xf32>
        %1475 = affine.load %arg4[%arg8 * 10 + 7] : memref<410xf32>
        %1476 = affine.load %arg2[%arg8 * 10 + 7, %arg7 * 15 + 14] : memref<410x390xf32>
        %1477 = affine.load %arg5[%arg7 * 15 + 14] : memref<390xf32>
        %1478 = arith.mulf %1476, %1477 : f32
        %1479 = arith.addf %1475, %1478 : f32
        affine.store %1479, %arg4[%arg8 * 10 + 7] : memref<410xf32>
        affine.store %cst, %arg4[%arg8 * 10 + 8] : memref<410xf32>
        %1480 = affine.load %arg3[%arg7 * 15 + 14] : memref<390xf32>
        %1481 = affine.load %arg6[%arg8 * 10 + 8] : memref<410xf32>
        %1482 = affine.load %arg2[%arg8 * 10 + 8, %arg7 * 15 + 14] : memref<410x390xf32>
        %1483 = arith.mulf %1481, %1482 : f32
        %1484 = arith.addf %1480, %1483 : f32
        affine.store %1484, %arg3[%arg7 * 15 + 14] : memref<390xf32>
        %1485 = affine.load %arg4[%arg8 * 10 + 8] : memref<410xf32>
        %1486 = affine.load %arg2[%arg8 * 10 + 8, %arg7 * 15 + 14] : memref<410x390xf32>
        %1487 = affine.load %arg5[%arg7 * 15 + 14] : memref<390xf32>
        %1488 = arith.mulf %1486, %1487 : f32
        %1489 = arith.addf %1485, %1488 : f32
        affine.store %1489, %arg4[%arg8 * 10 + 8] : memref<410xf32>
        affine.store %cst, %arg4[%arg8 * 10 + 9] : memref<410xf32>
        %1490 = affine.load %arg3[%arg7 * 15 + 14] : memref<390xf32>
        %1491 = affine.load %arg6[%arg8 * 10 + 9] : memref<410xf32>
        %1492 = affine.load %arg2[%arg8 * 10 + 9, %arg7 * 15 + 14] : memref<410x390xf32>
        %1493 = arith.mulf %1491, %1492 : f32
        %1494 = arith.addf %1490, %1493 : f32
        affine.store %1494, %arg3[%arg7 * 15 + 14] : memref<390xf32>
        %1495 = affine.load %arg4[%arg8 * 10 + 9] : memref<410xf32>
        %1496 = affine.load %arg2[%arg8 * 10 + 9, %arg7 * 15 + 14] : memref<410x390xf32>
        %1497 = affine.load %arg5[%arg7 * 15 + 14] : memref<390xf32>
        %1498 = arith.mulf %1496, %1497 : f32
        %1499 = arith.addf %1495, %1498 : f32
        affine.store %1499, %arg4[%arg8 * 10 + 9] : memref<410xf32>
      } {loop_directive = #hls.ld<pipeline=true, targetII=1, dataflow=false, flatten=false>}
    } {loop_directive = #hls.ld<pipeline=false, targetII=1, dataflow=false, flatten=true>}
    return
  }
}

