module attributes {dlti.dl_spec = #dlti.dl_spec<#dlti.dl_entry<"dlti.endianness", "little">, #dlti.dl_entry<i64, dense<64> : vector<2xi32>>, #dlti.dl_entry<f80, dense<128> : vector<2xi32>>, #dlti.dl_entry<i1, dense<8> : vector<2xi32>>, #dlti.dl_entry<i8, dense<8> : vector<2xi32>>, #dlti.dl_entry<i16, dense<16> : vector<2xi32>>, #dlti.dl_entry<i32, dense<32> : vector<2xi32>>, #dlti.dl_entry<f16, dense<16> : vector<2xi32>>, #dlti.dl_entry<f64, dense<64> : vector<2xi32>>, #dlti.dl_entry<f128, dense<128> : vector<2xi32>>>, llvm.data_layout = "e-m:e-p270:32:32-p271:32:32-p272:64:64-i64:64-f80:128-n8:16:32:64-S128", llvm.target_triple = "x86_64-unknown-linux-gnu"} {
  func @kernel_3mm(%arg0: memref<40x60xf32>, %arg1: memref<60x50xf32>, %arg2: memref<50x80xf32>, %arg3: memref<80x70xf32>, %arg4: memref<40x50xf32>, %arg5: memref<50x70xf32>, %arg6: memref<40x70xf32>) attributes {llvm.linkage = #llvm.linkage<external>} {
    %cst = arith.constant 0.000000e+00 : f32
    affine.for %arg7 = 0 to 60 {
      affine.for %arg8 = 0 to 10 {
        affine.for %arg9 = 0 to 2 {
          affine.store %cst, %arg4[%arg8 * 4, %arg9 * 25] : memref<40x50xf32>
          %0 = affine.load %arg0[%arg8 * 4, %arg7] : memref<40x60xf32>
          %1 = affine.load %arg1[%arg7, %arg9 * 25] : memref<60x50xf32>
          %2 = arith.mulf %0, %1 : f32
          %3 = affine.load %arg4[%arg8 * 4, %arg9 * 25] : memref<40x50xf32>
          %4 = arith.addf %3, %2 : f32
          affine.store %4, %arg4[%arg8 * 4, %arg9 * 25] : memref<40x50xf32>
          affine.store %cst, %arg4[%arg8 * 4, %arg9 * 25 + 1] : memref<40x50xf32>
          %5 = affine.load %arg0[%arg8 * 4, %arg7] : memref<40x60xf32>
          %6 = affine.load %arg1[%arg7, %arg9 * 25 + 1] : memref<60x50xf32>
          %7 = arith.mulf %5, %6 : f32
          %8 = affine.load %arg4[%arg8 * 4, %arg9 * 25 + 1] : memref<40x50xf32>
          %9 = arith.addf %8, %7 : f32
          affine.store %9, %arg4[%arg8 * 4, %arg9 * 25 + 1] : memref<40x50xf32>
          affine.store %cst, %arg4[%arg8 * 4, %arg9 * 25 + 2] : memref<40x50xf32>
          %10 = affine.load %arg0[%arg8 * 4, %arg7] : memref<40x60xf32>
          %11 = affine.load %arg1[%arg7, %arg9 * 25 + 2] : memref<60x50xf32>
          %12 = arith.mulf %10, %11 : f32
          %13 = affine.load %arg4[%arg8 * 4, %arg9 * 25 + 2] : memref<40x50xf32>
          %14 = arith.addf %13, %12 : f32
          affine.store %14, %arg4[%arg8 * 4, %arg9 * 25 + 2] : memref<40x50xf32>
          affine.store %cst, %arg4[%arg8 * 4, %arg9 * 25 + 3] : memref<40x50xf32>
          %15 = affine.load %arg0[%arg8 * 4, %arg7] : memref<40x60xf32>
          %16 = affine.load %arg1[%arg7, %arg9 * 25 + 3] : memref<60x50xf32>
          %17 = arith.mulf %15, %16 : f32
          %18 = affine.load %arg4[%arg8 * 4, %arg9 * 25 + 3] : memref<40x50xf32>
          %19 = arith.addf %18, %17 : f32
          affine.store %19, %arg4[%arg8 * 4, %arg9 * 25 + 3] : memref<40x50xf32>
          affine.store %cst, %arg4[%arg8 * 4, %arg9 * 25 + 4] : memref<40x50xf32>
          %20 = affine.load %arg0[%arg8 * 4, %arg7] : memref<40x60xf32>
          %21 = affine.load %arg1[%arg7, %arg9 * 25 + 4] : memref<60x50xf32>
          %22 = arith.mulf %20, %21 : f32
          %23 = affine.load %arg4[%arg8 * 4, %arg9 * 25 + 4] : memref<40x50xf32>
          %24 = arith.addf %23, %22 : f32
          affine.store %24, %arg4[%arg8 * 4, %arg9 * 25 + 4] : memref<40x50xf32>
          affine.store %cst, %arg4[%arg8 * 4, %arg9 * 25 + 5] : memref<40x50xf32>
          %25 = affine.load %arg0[%arg8 * 4, %arg7] : memref<40x60xf32>
          %26 = affine.load %arg1[%arg7, %arg9 * 25 + 5] : memref<60x50xf32>
          %27 = arith.mulf %25, %26 : f32
          %28 = affine.load %arg4[%arg8 * 4, %arg9 * 25 + 5] : memref<40x50xf32>
          %29 = arith.addf %28, %27 : f32
          affine.store %29, %arg4[%arg8 * 4, %arg9 * 25 + 5] : memref<40x50xf32>
          affine.store %cst, %arg4[%arg8 * 4, %arg9 * 25 + 6] : memref<40x50xf32>
          %30 = affine.load %arg0[%arg8 * 4, %arg7] : memref<40x60xf32>
          %31 = affine.load %arg1[%arg7, %arg9 * 25 + 6] : memref<60x50xf32>
          %32 = arith.mulf %30, %31 : f32
          %33 = affine.load %arg4[%arg8 * 4, %arg9 * 25 + 6] : memref<40x50xf32>
          %34 = arith.addf %33, %32 : f32
          affine.store %34, %arg4[%arg8 * 4, %arg9 * 25 + 6] : memref<40x50xf32>
          affine.store %cst, %arg4[%arg8 * 4, %arg9 * 25 + 7] : memref<40x50xf32>
          %35 = affine.load %arg0[%arg8 * 4, %arg7] : memref<40x60xf32>
          %36 = affine.load %arg1[%arg7, %arg9 * 25 + 7] : memref<60x50xf32>
          %37 = arith.mulf %35, %36 : f32
          %38 = affine.load %arg4[%arg8 * 4, %arg9 * 25 + 7] : memref<40x50xf32>
          %39 = arith.addf %38, %37 : f32
          affine.store %39, %arg4[%arg8 * 4, %arg9 * 25 + 7] : memref<40x50xf32>
          affine.store %cst, %arg4[%arg8 * 4, %arg9 * 25 + 8] : memref<40x50xf32>
          %40 = affine.load %arg0[%arg8 * 4, %arg7] : memref<40x60xf32>
          %41 = affine.load %arg1[%arg7, %arg9 * 25 + 8] : memref<60x50xf32>
          %42 = arith.mulf %40, %41 : f32
          %43 = affine.load %arg4[%arg8 * 4, %arg9 * 25 + 8] : memref<40x50xf32>
          %44 = arith.addf %43, %42 : f32
          affine.store %44, %arg4[%arg8 * 4, %arg9 * 25 + 8] : memref<40x50xf32>
          affine.store %cst, %arg4[%arg8 * 4, %arg9 * 25 + 9] : memref<40x50xf32>
          %45 = affine.load %arg0[%arg8 * 4, %arg7] : memref<40x60xf32>
          %46 = affine.load %arg1[%arg7, %arg9 * 25 + 9] : memref<60x50xf32>
          %47 = arith.mulf %45, %46 : f32
          %48 = affine.load %arg4[%arg8 * 4, %arg9 * 25 + 9] : memref<40x50xf32>
          %49 = arith.addf %48, %47 : f32
          affine.store %49, %arg4[%arg8 * 4, %arg9 * 25 + 9] : memref<40x50xf32>
          affine.store %cst, %arg4[%arg8 * 4, %arg9 * 25 + 10] : memref<40x50xf32>
          %50 = affine.load %arg0[%arg8 * 4, %arg7] : memref<40x60xf32>
          %51 = affine.load %arg1[%arg7, %arg9 * 25 + 10] : memref<60x50xf32>
          %52 = arith.mulf %50, %51 : f32
          %53 = affine.load %arg4[%arg8 * 4, %arg9 * 25 + 10] : memref<40x50xf32>
          %54 = arith.addf %53, %52 : f32
          affine.store %54, %arg4[%arg8 * 4, %arg9 * 25 + 10] : memref<40x50xf32>
          affine.store %cst, %arg4[%arg8 * 4, %arg9 * 25 + 11] : memref<40x50xf32>
          %55 = affine.load %arg0[%arg8 * 4, %arg7] : memref<40x60xf32>
          %56 = affine.load %arg1[%arg7, %arg9 * 25 + 11] : memref<60x50xf32>
          %57 = arith.mulf %55, %56 : f32
          %58 = affine.load %arg4[%arg8 * 4, %arg9 * 25 + 11] : memref<40x50xf32>
          %59 = arith.addf %58, %57 : f32
          affine.store %59, %arg4[%arg8 * 4, %arg9 * 25 + 11] : memref<40x50xf32>
          affine.store %cst, %arg4[%arg8 * 4, %arg9 * 25 + 12] : memref<40x50xf32>
          %60 = affine.load %arg0[%arg8 * 4, %arg7] : memref<40x60xf32>
          %61 = affine.load %arg1[%arg7, %arg9 * 25 + 12] : memref<60x50xf32>
          %62 = arith.mulf %60, %61 : f32
          %63 = affine.load %arg4[%arg8 * 4, %arg9 * 25 + 12] : memref<40x50xf32>
          %64 = arith.addf %63, %62 : f32
          affine.store %64, %arg4[%arg8 * 4, %arg9 * 25 + 12] : memref<40x50xf32>
          affine.store %cst, %arg4[%arg8 * 4, %arg9 * 25 + 13] : memref<40x50xf32>
          %65 = affine.load %arg0[%arg8 * 4, %arg7] : memref<40x60xf32>
          %66 = affine.load %arg1[%arg7, %arg9 * 25 + 13] : memref<60x50xf32>
          %67 = arith.mulf %65, %66 : f32
          %68 = affine.load %arg4[%arg8 * 4, %arg9 * 25 + 13] : memref<40x50xf32>
          %69 = arith.addf %68, %67 : f32
          affine.store %69, %arg4[%arg8 * 4, %arg9 * 25 + 13] : memref<40x50xf32>
          affine.store %cst, %arg4[%arg8 * 4, %arg9 * 25 + 14] : memref<40x50xf32>
          %70 = affine.load %arg0[%arg8 * 4, %arg7] : memref<40x60xf32>
          %71 = affine.load %arg1[%arg7, %arg9 * 25 + 14] : memref<60x50xf32>
          %72 = arith.mulf %70, %71 : f32
          %73 = affine.load %arg4[%arg8 * 4, %arg9 * 25 + 14] : memref<40x50xf32>
          %74 = arith.addf %73, %72 : f32
          affine.store %74, %arg4[%arg8 * 4, %arg9 * 25 + 14] : memref<40x50xf32>
          affine.store %cst, %arg4[%arg8 * 4, %arg9 * 25 + 15] : memref<40x50xf32>
          %75 = affine.load %arg0[%arg8 * 4, %arg7] : memref<40x60xf32>
          %76 = affine.load %arg1[%arg7, %arg9 * 25 + 15] : memref<60x50xf32>
          %77 = arith.mulf %75, %76 : f32
          %78 = affine.load %arg4[%arg8 * 4, %arg9 * 25 + 15] : memref<40x50xf32>
          %79 = arith.addf %78, %77 : f32
          affine.store %79, %arg4[%arg8 * 4, %arg9 * 25 + 15] : memref<40x50xf32>
          affine.store %cst, %arg4[%arg8 * 4, %arg9 * 25 + 16] : memref<40x50xf32>
          %80 = affine.load %arg0[%arg8 * 4, %arg7] : memref<40x60xf32>
          %81 = affine.load %arg1[%arg7, %arg9 * 25 + 16] : memref<60x50xf32>
          %82 = arith.mulf %80, %81 : f32
          %83 = affine.load %arg4[%arg8 * 4, %arg9 * 25 + 16] : memref<40x50xf32>
          %84 = arith.addf %83, %82 : f32
          affine.store %84, %arg4[%arg8 * 4, %arg9 * 25 + 16] : memref<40x50xf32>
          affine.store %cst, %arg4[%arg8 * 4, %arg9 * 25 + 17] : memref<40x50xf32>
          %85 = affine.load %arg0[%arg8 * 4, %arg7] : memref<40x60xf32>
          %86 = affine.load %arg1[%arg7, %arg9 * 25 + 17] : memref<60x50xf32>
          %87 = arith.mulf %85, %86 : f32
          %88 = affine.load %arg4[%arg8 * 4, %arg9 * 25 + 17] : memref<40x50xf32>
          %89 = arith.addf %88, %87 : f32
          affine.store %89, %arg4[%arg8 * 4, %arg9 * 25 + 17] : memref<40x50xf32>
          affine.store %cst, %arg4[%arg8 * 4, %arg9 * 25 + 18] : memref<40x50xf32>
          %90 = affine.load %arg0[%arg8 * 4, %arg7] : memref<40x60xf32>
          %91 = affine.load %arg1[%arg7, %arg9 * 25 + 18] : memref<60x50xf32>
          %92 = arith.mulf %90, %91 : f32
          %93 = affine.load %arg4[%arg8 * 4, %arg9 * 25 + 18] : memref<40x50xf32>
          %94 = arith.addf %93, %92 : f32
          affine.store %94, %arg4[%arg8 * 4, %arg9 * 25 + 18] : memref<40x50xf32>
          affine.store %cst, %arg4[%arg8 * 4, %arg9 * 25 + 19] : memref<40x50xf32>
          %95 = affine.load %arg0[%arg8 * 4, %arg7] : memref<40x60xf32>
          %96 = affine.load %arg1[%arg7, %arg9 * 25 + 19] : memref<60x50xf32>
          %97 = arith.mulf %95, %96 : f32
          %98 = affine.load %arg4[%arg8 * 4, %arg9 * 25 + 19] : memref<40x50xf32>
          %99 = arith.addf %98, %97 : f32
          affine.store %99, %arg4[%arg8 * 4, %arg9 * 25 + 19] : memref<40x50xf32>
          affine.store %cst, %arg4[%arg8 * 4, %arg9 * 25 + 20] : memref<40x50xf32>
          %100 = affine.load %arg0[%arg8 * 4, %arg7] : memref<40x60xf32>
          %101 = affine.load %arg1[%arg7, %arg9 * 25 + 20] : memref<60x50xf32>
          %102 = arith.mulf %100, %101 : f32
          %103 = affine.load %arg4[%arg8 * 4, %arg9 * 25 + 20] : memref<40x50xf32>
          %104 = arith.addf %103, %102 : f32
          affine.store %104, %arg4[%arg8 * 4, %arg9 * 25 + 20] : memref<40x50xf32>
          affine.store %cst, %arg4[%arg8 * 4, %arg9 * 25 + 21] : memref<40x50xf32>
          %105 = affine.load %arg0[%arg8 * 4, %arg7] : memref<40x60xf32>
          %106 = affine.load %arg1[%arg7, %arg9 * 25 + 21] : memref<60x50xf32>
          %107 = arith.mulf %105, %106 : f32
          %108 = affine.load %arg4[%arg8 * 4, %arg9 * 25 + 21] : memref<40x50xf32>
          %109 = arith.addf %108, %107 : f32
          affine.store %109, %arg4[%arg8 * 4, %arg9 * 25 + 21] : memref<40x50xf32>
          affine.store %cst, %arg4[%arg8 * 4, %arg9 * 25 + 22] : memref<40x50xf32>
          %110 = affine.load %arg0[%arg8 * 4, %arg7] : memref<40x60xf32>
          %111 = affine.load %arg1[%arg7, %arg9 * 25 + 22] : memref<60x50xf32>
          %112 = arith.mulf %110, %111 : f32
          %113 = affine.load %arg4[%arg8 * 4, %arg9 * 25 + 22] : memref<40x50xf32>
          %114 = arith.addf %113, %112 : f32
          affine.store %114, %arg4[%arg8 * 4, %arg9 * 25 + 22] : memref<40x50xf32>
          affine.store %cst, %arg4[%arg8 * 4, %arg9 * 25 + 23] : memref<40x50xf32>
          %115 = affine.load %arg0[%arg8 * 4, %arg7] : memref<40x60xf32>
          %116 = affine.load %arg1[%arg7, %arg9 * 25 + 23] : memref<60x50xf32>
          %117 = arith.mulf %115, %116 : f32
          %118 = affine.load %arg4[%arg8 * 4, %arg9 * 25 + 23] : memref<40x50xf32>
          %119 = arith.addf %118, %117 : f32
          affine.store %119, %arg4[%arg8 * 4, %arg9 * 25 + 23] : memref<40x50xf32>
          affine.store %cst, %arg4[%arg8 * 4, %arg9 * 25 + 24] : memref<40x50xf32>
          %120 = affine.load %arg0[%arg8 * 4, %arg7] : memref<40x60xf32>
          %121 = affine.load %arg1[%arg7, %arg9 * 25 + 24] : memref<60x50xf32>
          %122 = arith.mulf %120, %121 : f32
          %123 = affine.load %arg4[%arg8 * 4, %arg9 * 25 + 24] : memref<40x50xf32>
          %124 = arith.addf %123, %122 : f32
          affine.store %124, %arg4[%arg8 * 4, %arg9 * 25 + 24] : memref<40x50xf32>
          affine.store %cst, %arg4[%arg8 * 4 + 1, %arg9 * 25] : memref<40x50xf32>
          %125 = affine.load %arg0[%arg8 * 4 + 1, %arg7] : memref<40x60xf32>
          %126 = affine.load %arg1[%arg7, %arg9 * 25] : memref<60x50xf32>
          %127 = arith.mulf %125, %126 : f32
          %128 = affine.load %arg4[%arg8 * 4 + 1, %arg9 * 25] : memref<40x50xf32>
          %129 = arith.addf %128, %127 : f32
          affine.store %129, %arg4[%arg8 * 4 + 1, %arg9 * 25] : memref<40x50xf32>
          affine.store %cst, %arg4[%arg8 * 4 + 1, %arg9 * 25 + 1] : memref<40x50xf32>
          %130 = affine.load %arg0[%arg8 * 4 + 1, %arg7] : memref<40x60xf32>
          %131 = affine.load %arg1[%arg7, %arg9 * 25 + 1] : memref<60x50xf32>
          %132 = arith.mulf %130, %131 : f32
          %133 = affine.load %arg4[%arg8 * 4 + 1, %arg9 * 25 + 1] : memref<40x50xf32>
          %134 = arith.addf %133, %132 : f32
          affine.store %134, %arg4[%arg8 * 4 + 1, %arg9 * 25 + 1] : memref<40x50xf32>
          affine.store %cst, %arg4[%arg8 * 4 + 1, %arg9 * 25 + 2] : memref<40x50xf32>
          %135 = affine.load %arg0[%arg8 * 4 + 1, %arg7] : memref<40x60xf32>
          %136 = affine.load %arg1[%arg7, %arg9 * 25 + 2] : memref<60x50xf32>
          %137 = arith.mulf %135, %136 : f32
          %138 = affine.load %arg4[%arg8 * 4 + 1, %arg9 * 25 + 2] : memref<40x50xf32>
          %139 = arith.addf %138, %137 : f32
          affine.store %139, %arg4[%arg8 * 4 + 1, %arg9 * 25 + 2] : memref<40x50xf32>
          affine.store %cst, %arg4[%arg8 * 4 + 1, %arg9 * 25 + 3] : memref<40x50xf32>
          %140 = affine.load %arg0[%arg8 * 4 + 1, %arg7] : memref<40x60xf32>
          %141 = affine.load %arg1[%arg7, %arg9 * 25 + 3] : memref<60x50xf32>
          %142 = arith.mulf %140, %141 : f32
          %143 = affine.load %arg4[%arg8 * 4 + 1, %arg9 * 25 + 3] : memref<40x50xf32>
          %144 = arith.addf %143, %142 : f32
          affine.store %144, %arg4[%arg8 * 4 + 1, %arg9 * 25 + 3] : memref<40x50xf32>
          affine.store %cst, %arg4[%arg8 * 4 + 1, %arg9 * 25 + 4] : memref<40x50xf32>
          %145 = affine.load %arg0[%arg8 * 4 + 1, %arg7] : memref<40x60xf32>
          %146 = affine.load %arg1[%arg7, %arg9 * 25 + 4] : memref<60x50xf32>
          %147 = arith.mulf %145, %146 : f32
          %148 = affine.load %arg4[%arg8 * 4 + 1, %arg9 * 25 + 4] : memref<40x50xf32>
          %149 = arith.addf %148, %147 : f32
          affine.store %149, %arg4[%arg8 * 4 + 1, %arg9 * 25 + 4] : memref<40x50xf32>
          affine.store %cst, %arg4[%arg8 * 4 + 1, %arg9 * 25 + 5] : memref<40x50xf32>
          %150 = affine.load %arg0[%arg8 * 4 + 1, %arg7] : memref<40x60xf32>
          %151 = affine.load %arg1[%arg7, %arg9 * 25 + 5] : memref<60x50xf32>
          %152 = arith.mulf %150, %151 : f32
          %153 = affine.load %arg4[%arg8 * 4 + 1, %arg9 * 25 + 5] : memref<40x50xf32>
          %154 = arith.addf %153, %152 : f32
          affine.store %154, %arg4[%arg8 * 4 + 1, %arg9 * 25 + 5] : memref<40x50xf32>
          affine.store %cst, %arg4[%arg8 * 4 + 1, %arg9 * 25 + 6] : memref<40x50xf32>
          %155 = affine.load %arg0[%arg8 * 4 + 1, %arg7] : memref<40x60xf32>
          %156 = affine.load %arg1[%arg7, %arg9 * 25 + 6] : memref<60x50xf32>
          %157 = arith.mulf %155, %156 : f32
          %158 = affine.load %arg4[%arg8 * 4 + 1, %arg9 * 25 + 6] : memref<40x50xf32>
          %159 = arith.addf %158, %157 : f32
          affine.store %159, %arg4[%arg8 * 4 + 1, %arg9 * 25 + 6] : memref<40x50xf32>
          affine.store %cst, %arg4[%arg8 * 4 + 1, %arg9 * 25 + 7] : memref<40x50xf32>
          %160 = affine.load %arg0[%arg8 * 4 + 1, %arg7] : memref<40x60xf32>
          %161 = affine.load %arg1[%arg7, %arg9 * 25 + 7] : memref<60x50xf32>
          %162 = arith.mulf %160, %161 : f32
          %163 = affine.load %arg4[%arg8 * 4 + 1, %arg9 * 25 + 7] : memref<40x50xf32>
          %164 = arith.addf %163, %162 : f32
          affine.store %164, %arg4[%arg8 * 4 + 1, %arg9 * 25 + 7] : memref<40x50xf32>
          affine.store %cst, %arg4[%arg8 * 4 + 1, %arg9 * 25 + 8] : memref<40x50xf32>
          %165 = affine.load %arg0[%arg8 * 4 + 1, %arg7] : memref<40x60xf32>
          %166 = affine.load %arg1[%arg7, %arg9 * 25 + 8] : memref<60x50xf32>
          %167 = arith.mulf %165, %166 : f32
          %168 = affine.load %arg4[%arg8 * 4 + 1, %arg9 * 25 + 8] : memref<40x50xf32>
          %169 = arith.addf %168, %167 : f32
          affine.store %169, %arg4[%arg8 * 4 + 1, %arg9 * 25 + 8] : memref<40x50xf32>
          affine.store %cst, %arg4[%arg8 * 4 + 1, %arg9 * 25 + 9] : memref<40x50xf32>
          %170 = affine.load %arg0[%arg8 * 4 + 1, %arg7] : memref<40x60xf32>
          %171 = affine.load %arg1[%arg7, %arg9 * 25 + 9] : memref<60x50xf32>
          %172 = arith.mulf %170, %171 : f32
          %173 = affine.load %arg4[%arg8 * 4 + 1, %arg9 * 25 + 9] : memref<40x50xf32>
          %174 = arith.addf %173, %172 : f32
          affine.store %174, %arg4[%arg8 * 4 + 1, %arg9 * 25 + 9] : memref<40x50xf32>
          affine.store %cst, %arg4[%arg8 * 4 + 1, %arg9 * 25 + 10] : memref<40x50xf32>
          %175 = affine.load %arg0[%arg8 * 4 + 1, %arg7] : memref<40x60xf32>
          %176 = affine.load %arg1[%arg7, %arg9 * 25 + 10] : memref<60x50xf32>
          %177 = arith.mulf %175, %176 : f32
          %178 = affine.load %arg4[%arg8 * 4 + 1, %arg9 * 25 + 10] : memref<40x50xf32>
          %179 = arith.addf %178, %177 : f32
          affine.store %179, %arg4[%arg8 * 4 + 1, %arg9 * 25 + 10] : memref<40x50xf32>
          affine.store %cst, %arg4[%arg8 * 4 + 1, %arg9 * 25 + 11] : memref<40x50xf32>
          %180 = affine.load %arg0[%arg8 * 4 + 1, %arg7] : memref<40x60xf32>
          %181 = affine.load %arg1[%arg7, %arg9 * 25 + 11] : memref<60x50xf32>
          %182 = arith.mulf %180, %181 : f32
          %183 = affine.load %arg4[%arg8 * 4 + 1, %arg9 * 25 + 11] : memref<40x50xf32>
          %184 = arith.addf %183, %182 : f32
          affine.store %184, %arg4[%arg8 * 4 + 1, %arg9 * 25 + 11] : memref<40x50xf32>
          affine.store %cst, %arg4[%arg8 * 4 + 1, %arg9 * 25 + 12] : memref<40x50xf32>
          %185 = affine.load %arg0[%arg8 * 4 + 1, %arg7] : memref<40x60xf32>
          %186 = affine.load %arg1[%arg7, %arg9 * 25 + 12] : memref<60x50xf32>
          %187 = arith.mulf %185, %186 : f32
          %188 = affine.load %arg4[%arg8 * 4 + 1, %arg9 * 25 + 12] : memref<40x50xf32>
          %189 = arith.addf %188, %187 : f32
          affine.store %189, %arg4[%arg8 * 4 + 1, %arg9 * 25 + 12] : memref<40x50xf32>
          affine.store %cst, %arg4[%arg8 * 4 + 1, %arg9 * 25 + 13] : memref<40x50xf32>
          %190 = affine.load %arg0[%arg8 * 4 + 1, %arg7] : memref<40x60xf32>
          %191 = affine.load %arg1[%arg7, %arg9 * 25 + 13] : memref<60x50xf32>
          %192 = arith.mulf %190, %191 : f32
          %193 = affine.load %arg4[%arg8 * 4 + 1, %arg9 * 25 + 13] : memref<40x50xf32>
          %194 = arith.addf %193, %192 : f32
          affine.store %194, %arg4[%arg8 * 4 + 1, %arg9 * 25 + 13] : memref<40x50xf32>
          affine.store %cst, %arg4[%arg8 * 4 + 1, %arg9 * 25 + 14] : memref<40x50xf32>
          %195 = affine.load %arg0[%arg8 * 4 + 1, %arg7] : memref<40x60xf32>
          %196 = affine.load %arg1[%arg7, %arg9 * 25 + 14] : memref<60x50xf32>
          %197 = arith.mulf %195, %196 : f32
          %198 = affine.load %arg4[%arg8 * 4 + 1, %arg9 * 25 + 14] : memref<40x50xf32>
          %199 = arith.addf %198, %197 : f32
          affine.store %199, %arg4[%arg8 * 4 + 1, %arg9 * 25 + 14] : memref<40x50xf32>
          affine.store %cst, %arg4[%arg8 * 4 + 1, %arg9 * 25 + 15] : memref<40x50xf32>
          %200 = affine.load %arg0[%arg8 * 4 + 1, %arg7] : memref<40x60xf32>
          %201 = affine.load %arg1[%arg7, %arg9 * 25 + 15] : memref<60x50xf32>
          %202 = arith.mulf %200, %201 : f32
          %203 = affine.load %arg4[%arg8 * 4 + 1, %arg9 * 25 + 15] : memref<40x50xf32>
          %204 = arith.addf %203, %202 : f32
          affine.store %204, %arg4[%arg8 * 4 + 1, %arg9 * 25 + 15] : memref<40x50xf32>
          affine.store %cst, %arg4[%arg8 * 4 + 1, %arg9 * 25 + 16] : memref<40x50xf32>
          %205 = affine.load %arg0[%arg8 * 4 + 1, %arg7] : memref<40x60xf32>
          %206 = affine.load %arg1[%arg7, %arg9 * 25 + 16] : memref<60x50xf32>
          %207 = arith.mulf %205, %206 : f32
          %208 = affine.load %arg4[%arg8 * 4 + 1, %arg9 * 25 + 16] : memref<40x50xf32>
          %209 = arith.addf %208, %207 : f32
          affine.store %209, %arg4[%arg8 * 4 + 1, %arg9 * 25 + 16] : memref<40x50xf32>
          affine.store %cst, %arg4[%arg8 * 4 + 1, %arg9 * 25 + 17] : memref<40x50xf32>
          %210 = affine.load %arg0[%arg8 * 4 + 1, %arg7] : memref<40x60xf32>
          %211 = affine.load %arg1[%arg7, %arg9 * 25 + 17] : memref<60x50xf32>
          %212 = arith.mulf %210, %211 : f32
          %213 = affine.load %arg4[%arg8 * 4 + 1, %arg9 * 25 + 17] : memref<40x50xf32>
          %214 = arith.addf %213, %212 : f32
          affine.store %214, %arg4[%arg8 * 4 + 1, %arg9 * 25 + 17] : memref<40x50xf32>
          affine.store %cst, %arg4[%arg8 * 4 + 1, %arg9 * 25 + 18] : memref<40x50xf32>
          %215 = affine.load %arg0[%arg8 * 4 + 1, %arg7] : memref<40x60xf32>
          %216 = affine.load %arg1[%arg7, %arg9 * 25 + 18] : memref<60x50xf32>
          %217 = arith.mulf %215, %216 : f32
          %218 = affine.load %arg4[%arg8 * 4 + 1, %arg9 * 25 + 18] : memref<40x50xf32>
          %219 = arith.addf %218, %217 : f32
          affine.store %219, %arg4[%arg8 * 4 + 1, %arg9 * 25 + 18] : memref<40x50xf32>
          affine.store %cst, %arg4[%arg8 * 4 + 1, %arg9 * 25 + 19] : memref<40x50xf32>
          %220 = affine.load %arg0[%arg8 * 4 + 1, %arg7] : memref<40x60xf32>
          %221 = affine.load %arg1[%arg7, %arg9 * 25 + 19] : memref<60x50xf32>
          %222 = arith.mulf %220, %221 : f32
          %223 = affine.load %arg4[%arg8 * 4 + 1, %arg9 * 25 + 19] : memref<40x50xf32>
          %224 = arith.addf %223, %222 : f32
          affine.store %224, %arg4[%arg8 * 4 + 1, %arg9 * 25 + 19] : memref<40x50xf32>
          affine.store %cst, %arg4[%arg8 * 4 + 1, %arg9 * 25 + 20] : memref<40x50xf32>
          %225 = affine.load %arg0[%arg8 * 4 + 1, %arg7] : memref<40x60xf32>
          %226 = affine.load %arg1[%arg7, %arg9 * 25 + 20] : memref<60x50xf32>
          %227 = arith.mulf %225, %226 : f32
          %228 = affine.load %arg4[%arg8 * 4 + 1, %arg9 * 25 + 20] : memref<40x50xf32>
          %229 = arith.addf %228, %227 : f32
          affine.store %229, %arg4[%arg8 * 4 + 1, %arg9 * 25 + 20] : memref<40x50xf32>
          affine.store %cst, %arg4[%arg8 * 4 + 1, %arg9 * 25 + 21] : memref<40x50xf32>
          %230 = affine.load %arg0[%arg8 * 4 + 1, %arg7] : memref<40x60xf32>
          %231 = affine.load %arg1[%arg7, %arg9 * 25 + 21] : memref<60x50xf32>
          %232 = arith.mulf %230, %231 : f32
          %233 = affine.load %arg4[%arg8 * 4 + 1, %arg9 * 25 + 21] : memref<40x50xf32>
          %234 = arith.addf %233, %232 : f32
          affine.store %234, %arg4[%arg8 * 4 + 1, %arg9 * 25 + 21] : memref<40x50xf32>
          affine.store %cst, %arg4[%arg8 * 4 + 1, %arg9 * 25 + 22] : memref<40x50xf32>
          %235 = affine.load %arg0[%arg8 * 4 + 1, %arg7] : memref<40x60xf32>
          %236 = affine.load %arg1[%arg7, %arg9 * 25 + 22] : memref<60x50xf32>
          %237 = arith.mulf %235, %236 : f32
          %238 = affine.load %arg4[%arg8 * 4 + 1, %arg9 * 25 + 22] : memref<40x50xf32>
          %239 = arith.addf %238, %237 : f32
          affine.store %239, %arg4[%arg8 * 4 + 1, %arg9 * 25 + 22] : memref<40x50xf32>
          affine.store %cst, %arg4[%arg8 * 4 + 1, %arg9 * 25 + 23] : memref<40x50xf32>
          %240 = affine.load %arg0[%arg8 * 4 + 1, %arg7] : memref<40x60xf32>
          %241 = affine.load %arg1[%arg7, %arg9 * 25 + 23] : memref<60x50xf32>
          %242 = arith.mulf %240, %241 : f32
          %243 = affine.load %arg4[%arg8 * 4 + 1, %arg9 * 25 + 23] : memref<40x50xf32>
          %244 = arith.addf %243, %242 : f32
          affine.store %244, %arg4[%arg8 * 4 + 1, %arg9 * 25 + 23] : memref<40x50xf32>
          affine.store %cst, %arg4[%arg8 * 4 + 1, %arg9 * 25 + 24] : memref<40x50xf32>
          %245 = affine.load %arg0[%arg8 * 4 + 1, %arg7] : memref<40x60xf32>
          %246 = affine.load %arg1[%arg7, %arg9 * 25 + 24] : memref<60x50xf32>
          %247 = arith.mulf %245, %246 : f32
          %248 = affine.load %arg4[%arg8 * 4 + 1, %arg9 * 25 + 24] : memref<40x50xf32>
          %249 = arith.addf %248, %247 : f32
          affine.store %249, %arg4[%arg8 * 4 + 1, %arg9 * 25 + 24] : memref<40x50xf32>
          affine.store %cst, %arg4[%arg8 * 4 + 2, %arg9 * 25] : memref<40x50xf32>
          %250 = affine.load %arg0[%arg8 * 4 + 2, %arg7] : memref<40x60xf32>
          %251 = affine.load %arg1[%arg7, %arg9 * 25] : memref<60x50xf32>
          %252 = arith.mulf %250, %251 : f32
          %253 = affine.load %arg4[%arg8 * 4 + 2, %arg9 * 25] : memref<40x50xf32>
          %254 = arith.addf %253, %252 : f32
          affine.store %254, %arg4[%arg8 * 4 + 2, %arg9 * 25] : memref<40x50xf32>
          affine.store %cst, %arg4[%arg8 * 4 + 2, %arg9 * 25 + 1] : memref<40x50xf32>
          %255 = affine.load %arg0[%arg8 * 4 + 2, %arg7] : memref<40x60xf32>
          %256 = affine.load %arg1[%arg7, %arg9 * 25 + 1] : memref<60x50xf32>
          %257 = arith.mulf %255, %256 : f32
          %258 = affine.load %arg4[%arg8 * 4 + 2, %arg9 * 25 + 1] : memref<40x50xf32>
          %259 = arith.addf %258, %257 : f32
          affine.store %259, %arg4[%arg8 * 4 + 2, %arg9 * 25 + 1] : memref<40x50xf32>
          affine.store %cst, %arg4[%arg8 * 4 + 2, %arg9 * 25 + 2] : memref<40x50xf32>
          %260 = affine.load %arg0[%arg8 * 4 + 2, %arg7] : memref<40x60xf32>
          %261 = affine.load %arg1[%arg7, %arg9 * 25 + 2] : memref<60x50xf32>
          %262 = arith.mulf %260, %261 : f32
          %263 = affine.load %arg4[%arg8 * 4 + 2, %arg9 * 25 + 2] : memref<40x50xf32>
          %264 = arith.addf %263, %262 : f32
          affine.store %264, %arg4[%arg8 * 4 + 2, %arg9 * 25 + 2] : memref<40x50xf32>
          affine.store %cst, %arg4[%arg8 * 4 + 2, %arg9 * 25 + 3] : memref<40x50xf32>
          %265 = affine.load %arg0[%arg8 * 4 + 2, %arg7] : memref<40x60xf32>
          %266 = affine.load %arg1[%arg7, %arg9 * 25 + 3] : memref<60x50xf32>
          %267 = arith.mulf %265, %266 : f32
          %268 = affine.load %arg4[%arg8 * 4 + 2, %arg9 * 25 + 3] : memref<40x50xf32>
          %269 = arith.addf %268, %267 : f32
          affine.store %269, %arg4[%arg8 * 4 + 2, %arg9 * 25 + 3] : memref<40x50xf32>
          affine.store %cst, %arg4[%arg8 * 4 + 2, %arg9 * 25 + 4] : memref<40x50xf32>
          %270 = affine.load %arg0[%arg8 * 4 + 2, %arg7] : memref<40x60xf32>
          %271 = affine.load %arg1[%arg7, %arg9 * 25 + 4] : memref<60x50xf32>
          %272 = arith.mulf %270, %271 : f32
          %273 = affine.load %arg4[%arg8 * 4 + 2, %arg9 * 25 + 4] : memref<40x50xf32>
          %274 = arith.addf %273, %272 : f32
          affine.store %274, %arg4[%arg8 * 4 + 2, %arg9 * 25 + 4] : memref<40x50xf32>
          affine.store %cst, %arg4[%arg8 * 4 + 2, %arg9 * 25 + 5] : memref<40x50xf32>
          %275 = affine.load %arg0[%arg8 * 4 + 2, %arg7] : memref<40x60xf32>
          %276 = affine.load %arg1[%arg7, %arg9 * 25 + 5] : memref<60x50xf32>
          %277 = arith.mulf %275, %276 : f32
          %278 = affine.load %arg4[%arg8 * 4 + 2, %arg9 * 25 + 5] : memref<40x50xf32>
          %279 = arith.addf %278, %277 : f32
          affine.store %279, %arg4[%arg8 * 4 + 2, %arg9 * 25 + 5] : memref<40x50xf32>
          affine.store %cst, %arg4[%arg8 * 4 + 2, %arg9 * 25 + 6] : memref<40x50xf32>
          %280 = affine.load %arg0[%arg8 * 4 + 2, %arg7] : memref<40x60xf32>
          %281 = affine.load %arg1[%arg7, %arg9 * 25 + 6] : memref<60x50xf32>
          %282 = arith.mulf %280, %281 : f32
          %283 = affine.load %arg4[%arg8 * 4 + 2, %arg9 * 25 + 6] : memref<40x50xf32>
          %284 = arith.addf %283, %282 : f32
          affine.store %284, %arg4[%arg8 * 4 + 2, %arg9 * 25 + 6] : memref<40x50xf32>
          affine.store %cst, %arg4[%arg8 * 4 + 2, %arg9 * 25 + 7] : memref<40x50xf32>
          %285 = affine.load %arg0[%arg8 * 4 + 2, %arg7] : memref<40x60xf32>
          %286 = affine.load %arg1[%arg7, %arg9 * 25 + 7] : memref<60x50xf32>
          %287 = arith.mulf %285, %286 : f32
          %288 = affine.load %arg4[%arg8 * 4 + 2, %arg9 * 25 + 7] : memref<40x50xf32>
          %289 = arith.addf %288, %287 : f32
          affine.store %289, %arg4[%arg8 * 4 + 2, %arg9 * 25 + 7] : memref<40x50xf32>
          affine.store %cst, %arg4[%arg8 * 4 + 2, %arg9 * 25 + 8] : memref<40x50xf32>
          %290 = affine.load %arg0[%arg8 * 4 + 2, %arg7] : memref<40x60xf32>
          %291 = affine.load %arg1[%arg7, %arg9 * 25 + 8] : memref<60x50xf32>
          %292 = arith.mulf %290, %291 : f32
          %293 = affine.load %arg4[%arg8 * 4 + 2, %arg9 * 25 + 8] : memref<40x50xf32>
          %294 = arith.addf %293, %292 : f32
          affine.store %294, %arg4[%arg8 * 4 + 2, %arg9 * 25 + 8] : memref<40x50xf32>
          affine.store %cst, %arg4[%arg8 * 4 + 2, %arg9 * 25 + 9] : memref<40x50xf32>
          %295 = affine.load %arg0[%arg8 * 4 + 2, %arg7] : memref<40x60xf32>
          %296 = affine.load %arg1[%arg7, %arg9 * 25 + 9] : memref<60x50xf32>
          %297 = arith.mulf %295, %296 : f32
          %298 = affine.load %arg4[%arg8 * 4 + 2, %arg9 * 25 + 9] : memref<40x50xf32>
          %299 = arith.addf %298, %297 : f32
          affine.store %299, %arg4[%arg8 * 4 + 2, %arg9 * 25 + 9] : memref<40x50xf32>
          affine.store %cst, %arg4[%arg8 * 4 + 2, %arg9 * 25 + 10] : memref<40x50xf32>
          %300 = affine.load %arg0[%arg8 * 4 + 2, %arg7] : memref<40x60xf32>
          %301 = affine.load %arg1[%arg7, %arg9 * 25 + 10] : memref<60x50xf32>
          %302 = arith.mulf %300, %301 : f32
          %303 = affine.load %arg4[%arg8 * 4 + 2, %arg9 * 25 + 10] : memref<40x50xf32>
          %304 = arith.addf %303, %302 : f32
          affine.store %304, %arg4[%arg8 * 4 + 2, %arg9 * 25 + 10] : memref<40x50xf32>
          affine.store %cst, %arg4[%arg8 * 4 + 2, %arg9 * 25 + 11] : memref<40x50xf32>
          %305 = affine.load %arg0[%arg8 * 4 + 2, %arg7] : memref<40x60xf32>
          %306 = affine.load %arg1[%arg7, %arg9 * 25 + 11] : memref<60x50xf32>
          %307 = arith.mulf %305, %306 : f32
          %308 = affine.load %arg4[%arg8 * 4 + 2, %arg9 * 25 + 11] : memref<40x50xf32>
          %309 = arith.addf %308, %307 : f32
          affine.store %309, %arg4[%arg8 * 4 + 2, %arg9 * 25 + 11] : memref<40x50xf32>
          affine.store %cst, %arg4[%arg8 * 4 + 2, %arg9 * 25 + 12] : memref<40x50xf32>
          %310 = affine.load %arg0[%arg8 * 4 + 2, %arg7] : memref<40x60xf32>
          %311 = affine.load %arg1[%arg7, %arg9 * 25 + 12] : memref<60x50xf32>
          %312 = arith.mulf %310, %311 : f32
          %313 = affine.load %arg4[%arg8 * 4 + 2, %arg9 * 25 + 12] : memref<40x50xf32>
          %314 = arith.addf %313, %312 : f32
          affine.store %314, %arg4[%arg8 * 4 + 2, %arg9 * 25 + 12] : memref<40x50xf32>
          affine.store %cst, %arg4[%arg8 * 4 + 2, %arg9 * 25 + 13] : memref<40x50xf32>
          %315 = affine.load %arg0[%arg8 * 4 + 2, %arg7] : memref<40x60xf32>
          %316 = affine.load %arg1[%arg7, %arg9 * 25 + 13] : memref<60x50xf32>
          %317 = arith.mulf %315, %316 : f32
          %318 = affine.load %arg4[%arg8 * 4 + 2, %arg9 * 25 + 13] : memref<40x50xf32>
          %319 = arith.addf %318, %317 : f32
          affine.store %319, %arg4[%arg8 * 4 + 2, %arg9 * 25 + 13] : memref<40x50xf32>
          affine.store %cst, %arg4[%arg8 * 4 + 2, %arg9 * 25 + 14] : memref<40x50xf32>
          %320 = affine.load %arg0[%arg8 * 4 + 2, %arg7] : memref<40x60xf32>
          %321 = affine.load %arg1[%arg7, %arg9 * 25 + 14] : memref<60x50xf32>
          %322 = arith.mulf %320, %321 : f32
          %323 = affine.load %arg4[%arg8 * 4 + 2, %arg9 * 25 + 14] : memref<40x50xf32>
          %324 = arith.addf %323, %322 : f32
          affine.store %324, %arg4[%arg8 * 4 + 2, %arg9 * 25 + 14] : memref<40x50xf32>
          affine.store %cst, %arg4[%arg8 * 4 + 2, %arg9 * 25 + 15] : memref<40x50xf32>
          %325 = affine.load %arg0[%arg8 * 4 + 2, %arg7] : memref<40x60xf32>
          %326 = affine.load %arg1[%arg7, %arg9 * 25 + 15] : memref<60x50xf32>
          %327 = arith.mulf %325, %326 : f32
          %328 = affine.load %arg4[%arg8 * 4 + 2, %arg9 * 25 + 15] : memref<40x50xf32>
          %329 = arith.addf %328, %327 : f32
          affine.store %329, %arg4[%arg8 * 4 + 2, %arg9 * 25 + 15] : memref<40x50xf32>
          affine.store %cst, %arg4[%arg8 * 4 + 2, %arg9 * 25 + 16] : memref<40x50xf32>
          %330 = affine.load %arg0[%arg8 * 4 + 2, %arg7] : memref<40x60xf32>
          %331 = affine.load %arg1[%arg7, %arg9 * 25 + 16] : memref<60x50xf32>
          %332 = arith.mulf %330, %331 : f32
          %333 = affine.load %arg4[%arg8 * 4 + 2, %arg9 * 25 + 16] : memref<40x50xf32>
          %334 = arith.addf %333, %332 : f32
          affine.store %334, %arg4[%arg8 * 4 + 2, %arg9 * 25 + 16] : memref<40x50xf32>
          affine.store %cst, %arg4[%arg8 * 4 + 2, %arg9 * 25 + 17] : memref<40x50xf32>
          %335 = affine.load %arg0[%arg8 * 4 + 2, %arg7] : memref<40x60xf32>
          %336 = affine.load %arg1[%arg7, %arg9 * 25 + 17] : memref<60x50xf32>
          %337 = arith.mulf %335, %336 : f32
          %338 = affine.load %arg4[%arg8 * 4 + 2, %arg9 * 25 + 17] : memref<40x50xf32>
          %339 = arith.addf %338, %337 : f32
          affine.store %339, %arg4[%arg8 * 4 + 2, %arg9 * 25 + 17] : memref<40x50xf32>
          affine.store %cst, %arg4[%arg8 * 4 + 2, %arg9 * 25 + 18] : memref<40x50xf32>
          %340 = affine.load %arg0[%arg8 * 4 + 2, %arg7] : memref<40x60xf32>
          %341 = affine.load %arg1[%arg7, %arg9 * 25 + 18] : memref<60x50xf32>
          %342 = arith.mulf %340, %341 : f32
          %343 = affine.load %arg4[%arg8 * 4 + 2, %arg9 * 25 + 18] : memref<40x50xf32>
          %344 = arith.addf %343, %342 : f32
          affine.store %344, %arg4[%arg8 * 4 + 2, %arg9 * 25 + 18] : memref<40x50xf32>
          affine.store %cst, %arg4[%arg8 * 4 + 2, %arg9 * 25 + 19] : memref<40x50xf32>
          %345 = affine.load %arg0[%arg8 * 4 + 2, %arg7] : memref<40x60xf32>
          %346 = affine.load %arg1[%arg7, %arg9 * 25 + 19] : memref<60x50xf32>
          %347 = arith.mulf %345, %346 : f32
          %348 = affine.load %arg4[%arg8 * 4 + 2, %arg9 * 25 + 19] : memref<40x50xf32>
          %349 = arith.addf %348, %347 : f32
          affine.store %349, %arg4[%arg8 * 4 + 2, %arg9 * 25 + 19] : memref<40x50xf32>
          affine.store %cst, %arg4[%arg8 * 4 + 2, %arg9 * 25 + 20] : memref<40x50xf32>
          %350 = affine.load %arg0[%arg8 * 4 + 2, %arg7] : memref<40x60xf32>
          %351 = affine.load %arg1[%arg7, %arg9 * 25 + 20] : memref<60x50xf32>
          %352 = arith.mulf %350, %351 : f32
          %353 = affine.load %arg4[%arg8 * 4 + 2, %arg9 * 25 + 20] : memref<40x50xf32>
          %354 = arith.addf %353, %352 : f32
          affine.store %354, %arg4[%arg8 * 4 + 2, %arg9 * 25 + 20] : memref<40x50xf32>
          affine.store %cst, %arg4[%arg8 * 4 + 2, %arg9 * 25 + 21] : memref<40x50xf32>
          %355 = affine.load %arg0[%arg8 * 4 + 2, %arg7] : memref<40x60xf32>
          %356 = affine.load %arg1[%arg7, %arg9 * 25 + 21] : memref<60x50xf32>
          %357 = arith.mulf %355, %356 : f32
          %358 = affine.load %arg4[%arg8 * 4 + 2, %arg9 * 25 + 21] : memref<40x50xf32>
          %359 = arith.addf %358, %357 : f32
          affine.store %359, %arg4[%arg8 * 4 + 2, %arg9 * 25 + 21] : memref<40x50xf32>
          affine.store %cst, %arg4[%arg8 * 4 + 2, %arg9 * 25 + 22] : memref<40x50xf32>
          %360 = affine.load %arg0[%arg8 * 4 + 2, %arg7] : memref<40x60xf32>
          %361 = affine.load %arg1[%arg7, %arg9 * 25 + 22] : memref<60x50xf32>
          %362 = arith.mulf %360, %361 : f32
          %363 = affine.load %arg4[%arg8 * 4 + 2, %arg9 * 25 + 22] : memref<40x50xf32>
          %364 = arith.addf %363, %362 : f32
          affine.store %364, %arg4[%arg8 * 4 + 2, %arg9 * 25 + 22] : memref<40x50xf32>
          affine.store %cst, %arg4[%arg8 * 4 + 2, %arg9 * 25 + 23] : memref<40x50xf32>
          %365 = affine.load %arg0[%arg8 * 4 + 2, %arg7] : memref<40x60xf32>
          %366 = affine.load %arg1[%arg7, %arg9 * 25 + 23] : memref<60x50xf32>
          %367 = arith.mulf %365, %366 : f32
          %368 = affine.load %arg4[%arg8 * 4 + 2, %arg9 * 25 + 23] : memref<40x50xf32>
          %369 = arith.addf %368, %367 : f32
          affine.store %369, %arg4[%arg8 * 4 + 2, %arg9 * 25 + 23] : memref<40x50xf32>
          affine.store %cst, %arg4[%arg8 * 4 + 2, %arg9 * 25 + 24] : memref<40x50xf32>
          %370 = affine.load %arg0[%arg8 * 4 + 2, %arg7] : memref<40x60xf32>
          %371 = affine.load %arg1[%arg7, %arg9 * 25 + 24] : memref<60x50xf32>
          %372 = arith.mulf %370, %371 : f32
          %373 = affine.load %arg4[%arg8 * 4 + 2, %arg9 * 25 + 24] : memref<40x50xf32>
          %374 = arith.addf %373, %372 : f32
          affine.store %374, %arg4[%arg8 * 4 + 2, %arg9 * 25 + 24] : memref<40x50xf32>
          affine.store %cst, %arg4[%arg8 * 4 + 3, %arg9 * 25] : memref<40x50xf32>
          %375 = affine.load %arg0[%arg8 * 4 + 3, %arg7] : memref<40x60xf32>
          %376 = affine.load %arg1[%arg7, %arg9 * 25] : memref<60x50xf32>
          %377 = arith.mulf %375, %376 : f32
          %378 = affine.load %arg4[%arg8 * 4 + 3, %arg9 * 25] : memref<40x50xf32>
          %379 = arith.addf %378, %377 : f32
          affine.store %379, %arg4[%arg8 * 4 + 3, %arg9 * 25] : memref<40x50xf32>
          affine.store %cst, %arg4[%arg8 * 4 + 3, %arg9 * 25 + 1] : memref<40x50xf32>
          %380 = affine.load %arg0[%arg8 * 4 + 3, %arg7] : memref<40x60xf32>
          %381 = affine.load %arg1[%arg7, %arg9 * 25 + 1] : memref<60x50xf32>
          %382 = arith.mulf %380, %381 : f32
          %383 = affine.load %arg4[%arg8 * 4 + 3, %arg9 * 25 + 1] : memref<40x50xf32>
          %384 = arith.addf %383, %382 : f32
          affine.store %384, %arg4[%arg8 * 4 + 3, %arg9 * 25 + 1] : memref<40x50xf32>
          affine.store %cst, %arg4[%arg8 * 4 + 3, %arg9 * 25 + 2] : memref<40x50xf32>
          %385 = affine.load %arg0[%arg8 * 4 + 3, %arg7] : memref<40x60xf32>
          %386 = affine.load %arg1[%arg7, %arg9 * 25 + 2] : memref<60x50xf32>
          %387 = arith.mulf %385, %386 : f32
          %388 = affine.load %arg4[%arg8 * 4 + 3, %arg9 * 25 + 2] : memref<40x50xf32>
          %389 = arith.addf %388, %387 : f32
          affine.store %389, %arg4[%arg8 * 4 + 3, %arg9 * 25 + 2] : memref<40x50xf32>
          affine.store %cst, %arg4[%arg8 * 4 + 3, %arg9 * 25 + 3] : memref<40x50xf32>
          %390 = affine.load %arg0[%arg8 * 4 + 3, %arg7] : memref<40x60xf32>
          %391 = affine.load %arg1[%arg7, %arg9 * 25 + 3] : memref<60x50xf32>
          %392 = arith.mulf %390, %391 : f32
          %393 = affine.load %arg4[%arg8 * 4 + 3, %arg9 * 25 + 3] : memref<40x50xf32>
          %394 = arith.addf %393, %392 : f32
          affine.store %394, %arg4[%arg8 * 4 + 3, %arg9 * 25 + 3] : memref<40x50xf32>
          affine.store %cst, %arg4[%arg8 * 4 + 3, %arg9 * 25 + 4] : memref<40x50xf32>
          %395 = affine.load %arg0[%arg8 * 4 + 3, %arg7] : memref<40x60xf32>
          %396 = affine.load %arg1[%arg7, %arg9 * 25 + 4] : memref<60x50xf32>
          %397 = arith.mulf %395, %396 : f32
          %398 = affine.load %arg4[%arg8 * 4 + 3, %arg9 * 25 + 4] : memref<40x50xf32>
          %399 = arith.addf %398, %397 : f32
          affine.store %399, %arg4[%arg8 * 4 + 3, %arg9 * 25 + 4] : memref<40x50xf32>
          affine.store %cst, %arg4[%arg8 * 4 + 3, %arg9 * 25 + 5] : memref<40x50xf32>
          %400 = affine.load %arg0[%arg8 * 4 + 3, %arg7] : memref<40x60xf32>
          %401 = affine.load %arg1[%arg7, %arg9 * 25 + 5] : memref<60x50xf32>
          %402 = arith.mulf %400, %401 : f32
          %403 = affine.load %arg4[%arg8 * 4 + 3, %arg9 * 25 + 5] : memref<40x50xf32>
          %404 = arith.addf %403, %402 : f32
          affine.store %404, %arg4[%arg8 * 4 + 3, %arg9 * 25 + 5] : memref<40x50xf32>
          affine.store %cst, %arg4[%arg8 * 4 + 3, %arg9 * 25 + 6] : memref<40x50xf32>
          %405 = affine.load %arg0[%arg8 * 4 + 3, %arg7] : memref<40x60xf32>
          %406 = affine.load %arg1[%arg7, %arg9 * 25 + 6] : memref<60x50xf32>
          %407 = arith.mulf %405, %406 : f32
          %408 = affine.load %arg4[%arg8 * 4 + 3, %arg9 * 25 + 6] : memref<40x50xf32>
          %409 = arith.addf %408, %407 : f32
          affine.store %409, %arg4[%arg8 * 4 + 3, %arg9 * 25 + 6] : memref<40x50xf32>
          affine.store %cst, %arg4[%arg8 * 4 + 3, %arg9 * 25 + 7] : memref<40x50xf32>
          %410 = affine.load %arg0[%arg8 * 4 + 3, %arg7] : memref<40x60xf32>
          %411 = affine.load %arg1[%arg7, %arg9 * 25 + 7] : memref<60x50xf32>
          %412 = arith.mulf %410, %411 : f32
          %413 = affine.load %arg4[%arg8 * 4 + 3, %arg9 * 25 + 7] : memref<40x50xf32>
          %414 = arith.addf %413, %412 : f32
          affine.store %414, %arg4[%arg8 * 4 + 3, %arg9 * 25 + 7] : memref<40x50xf32>
          affine.store %cst, %arg4[%arg8 * 4 + 3, %arg9 * 25 + 8] : memref<40x50xf32>
          %415 = affine.load %arg0[%arg8 * 4 + 3, %arg7] : memref<40x60xf32>
          %416 = affine.load %arg1[%arg7, %arg9 * 25 + 8] : memref<60x50xf32>
          %417 = arith.mulf %415, %416 : f32
          %418 = affine.load %arg4[%arg8 * 4 + 3, %arg9 * 25 + 8] : memref<40x50xf32>
          %419 = arith.addf %418, %417 : f32
          affine.store %419, %arg4[%arg8 * 4 + 3, %arg9 * 25 + 8] : memref<40x50xf32>
          affine.store %cst, %arg4[%arg8 * 4 + 3, %arg9 * 25 + 9] : memref<40x50xf32>
          %420 = affine.load %arg0[%arg8 * 4 + 3, %arg7] : memref<40x60xf32>
          %421 = affine.load %arg1[%arg7, %arg9 * 25 + 9] : memref<60x50xf32>
          %422 = arith.mulf %420, %421 : f32
          %423 = affine.load %arg4[%arg8 * 4 + 3, %arg9 * 25 + 9] : memref<40x50xf32>
          %424 = arith.addf %423, %422 : f32
          affine.store %424, %arg4[%arg8 * 4 + 3, %arg9 * 25 + 9] : memref<40x50xf32>
          affine.store %cst, %arg4[%arg8 * 4 + 3, %arg9 * 25 + 10] : memref<40x50xf32>
          %425 = affine.load %arg0[%arg8 * 4 + 3, %arg7] : memref<40x60xf32>
          %426 = affine.load %arg1[%arg7, %arg9 * 25 + 10] : memref<60x50xf32>
          %427 = arith.mulf %425, %426 : f32
          %428 = affine.load %arg4[%arg8 * 4 + 3, %arg9 * 25 + 10] : memref<40x50xf32>
          %429 = arith.addf %428, %427 : f32
          affine.store %429, %arg4[%arg8 * 4 + 3, %arg9 * 25 + 10] : memref<40x50xf32>
          affine.store %cst, %arg4[%arg8 * 4 + 3, %arg9 * 25 + 11] : memref<40x50xf32>
          %430 = affine.load %arg0[%arg8 * 4 + 3, %arg7] : memref<40x60xf32>
          %431 = affine.load %arg1[%arg7, %arg9 * 25 + 11] : memref<60x50xf32>
          %432 = arith.mulf %430, %431 : f32
          %433 = affine.load %arg4[%arg8 * 4 + 3, %arg9 * 25 + 11] : memref<40x50xf32>
          %434 = arith.addf %433, %432 : f32
          affine.store %434, %arg4[%arg8 * 4 + 3, %arg9 * 25 + 11] : memref<40x50xf32>
          affine.store %cst, %arg4[%arg8 * 4 + 3, %arg9 * 25 + 12] : memref<40x50xf32>
          %435 = affine.load %arg0[%arg8 * 4 + 3, %arg7] : memref<40x60xf32>
          %436 = affine.load %arg1[%arg7, %arg9 * 25 + 12] : memref<60x50xf32>
          %437 = arith.mulf %435, %436 : f32
          %438 = affine.load %arg4[%arg8 * 4 + 3, %arg9 * 25 + 12] : memref<40x50xf32>
          %439 = arith.addf %438, %437 : f32
          affine.store %439, %arg4[%arg8 * 4 + 3, %arg9 * 25 + 12] : memref<40x50xf32>
          affine.store %cst, %arg4[%arg8 * 4 + 3, %arg9 * 25 + 13] : memref<40x50xf32>
          %440 = affine.load %arg0[%arg8 * 4 + 3, %arg7] : memref<40x60xf32>
          %441 = affine.load %arg1[%arg7, %arg9 * 25 + 13] : memref<60x50xf32>
          %442 = arith.mulf %440, %441 : f32
          %443 = affine.load %arg4[%arg8 * 4 + 3, %arg9 * 25 + 13] : memref<40x50xf32>
          %444 = arith.addf %443, %442 : f32
          affine.store %444, %arg4[%arg8 * 4 + 3, %arg9 * 25 + 13] : memref<40x50xf32>
          affine.store %cst, %arg4[%arg8 * 4 + 3, %arg9 * 25 + 14] : memref<40x50xf32>
          %445 = affine.load %arg0[%arg8 * 4 + 3, %arg7] : memref<40x60xf32>
          %446 = affine.load %arg1[%arg7, %arg9 * 25 + 14] : memref<60x50xf32>
          %447 = arith.mulf %445, %446 : f32
          %448 = affine.load %arg4[%arg8 * 4 + 3, %arg9 * 25 + 14] : memref<40x50xf32>
          %449 = arith.addf %448, %447 : f32
          affine.store %449, %arg4[%arg8 * 4 + 3, %arg9 * 25 + 14] : memref<40x50xf32>
          affine.store %cst, %arg4[%arg8 * 4 + 3, %arg9 * 25 + 15] : memref<40x50xf32>
          %450 = affine.load %arg0[%arg8 * 4 + 3, %arg7] : memref<40x60xf32>
          %451 = affine.load %arg1[%arg7, %arg9 * 25 + 15] : memref<60x50xf32>
          %452 = arith.mulf %450, %451 : f32
          %453 = affine.load %arg4[%arg8 * 4 + 3, %arg9 * 25 + 15] : memref<40x50xf32>
          %454 = arith.addf %453, %452 : f32
          affine.store %454, %arg4[%arg8 * 4 + 3, %arg9 * 25 + 15] : memref<40x50xf32>
          affine.store %cst, %arg4[%arg8 * 4 + 3, %arg9 * 25 + 16] : memref<40x50xf32>
          %455 = affine.load %arg0[%arg8 * 4 + 3, %arg7] : memref<40x60xf32>
          %456 = affine.load %arg1[%arg7, %arg9 * 25 + 16] : memref<60x50xf32>
          %457 = arith.mulf %455, %456 : f32
          %458 = affine.load %arg4[%arg8 * 4 + 3, %arg9 * 25 + 16] : memref<40x50xf32>
          %459 = arith.addf %458, %457 : f32
          affine.store %459, %arg4[%arg8 * 4 + 3, %arg9 * 25 + 16] : memref<40x50xf32>
          affine.store %cst, %arg4[%arg8 * 4 + 3, %arg9 * 25 + 17] : memref<40x50xf32>
          %460 = affine.load %arg0[%arg8 * 4 + 3, %arg7] : memref<40x60xf32>
          %461 = affine.load %arg1[%arg7, %arg9 * 25 + 17] : memref<60x50xf32>
          %462 = arith.mulf %460, %461 : f32
          %463 = affine.load %arg4[%arg8 * 4 + 3, %arg9 * 25 + 17] : memref<40x50xf32>
          %464 = arith.addf %463, %462 : f32
          affine.store %464, %arg4[%arg8 * 4 + 3, %arg9 * 25 + 17] : memref<40x50xf32>
          affine.store %cst, %arg4[%arg8 * 4 + 3, %arg9 * 25 + 18] : memref<40x50xf32>
          %465 = affine.load %arg0[%arg8 * 4 + 3, %arg7] : memref<40x60xf32>
          %466 = affine.load %arg1[%arg7, %arg9 * 25 + 18] : memref<60x50xf32>
          %467 = arith.mulf %465, %466 : f32
          %468 = affine.load %arg4[%arg8 * 4 + 3, %arg9 * 25 + 18] : memref<40x50xf32>
          %469 = arith.addf %468, %467 : f32
          affine.store %469, %arg4[%arg8 * 4 + 3, %arg9 * 25 + 18] : memref<40x50xf32>
          affine.store %cst, %arg4[%arg8 * 4 + 3, %arg9 * 25 + 19] : memref<40x50xf32>
          %470 = affine.load %arg0[%arg8 * 4 + 3, %arg7] : memref<40x60xf32>
          %471 = affine.load %arg1[%arg7, %arg9 * 25 + 19] : memref<60x50xf32>
          %472 = arith.mulf %470, %471 : f32
          %473 = affine.load %arg4[%arg8 * 4 + 3, %arg9 * 25 + 19] : memref<40x50xf32>
          %474 = arith.addf %473, %472 : f32
          affine.store %474, %arg4[%arg8 * 4 + 3, %arg9 * 25 + 19] : memref<40x50xf32>
          affine.store %cst, %arg4[%arg8 * 4 + 3, %arg9 * 25 + 20] : memref<40x50xf32>
          %475 = affine.load %arg0[%arg8 * 4 + 3, %arg7] : memref<40x60xf32>
          %476 = affine.load %arg1[%arg7, %arg9 * 25 + 20] : memref<60x50xf32>
          %477 = arith.mulf %475, %476 : f32
          %478 = affine.load %arg4[%arg8 * 4 + 3, %arg9 * 25 + 20] : memref<40x50xf32>
          %479 = arith.addf %478, %477 : f32
          affine.store %479, %arg4[%arg8 * 4 + 3, %arg9 * 25 + 20] : memref<40x50xf32>
          affine.store %cst, %arg4[%arg8 * 4 + 3, %arg9 * 25 + 21] : memref<40x50xf32>
          %480 = affine.load %arg0[%arg8 * 4 + 3, %arg7] : memref<40x60xf32>
          %481 = affine.load %arg1[%arg7, %arg9 * 25 + 21] : memref<60x50xf32>
          %482 = arith.mulf %480, %481 : f32
          %483 = affine.load %arg4[%arg8 * 4 + 3, %arg9 * 25 + 21] : memref<40x50xf32>
          %484 = arith.addf %483, %482 : f32
          affine.store %484, %arg4[%arg8 * 4 + 3, %arg9 * 25 + 21] : memref<40x50xf32>
          affine.store %cst, %arg4[%arg8 * 4 + 3, %arg9 * 25 + 22] : memref<40x50xf32>
          %485 = affine.load %arg0[%arg8 * 4 + 3, %arg7] : memref<40x60xf32>
          %486 = affine.load %arg1[%arg7, %arg9 * 25 + 22] : memref<60x50xf32>
          %487 = arith.mulf %485, %486 : f32
          %488 = affine.load %arg4[%arg8 * 4 + 3, %arg9 * 25 + 22] : memref<40x50xf32>
          %489 = arith.addf %488, %487 : f32
          affine.store %489, %arg4[%arg8 * 4 + 3, %arg9 * 25 + 22] : memref<40x50xf32>
          affine.store %cst, %arg4[%arg8 * 4 + 3, %arg9 * 25 + 23] : memref<40x50xf32>
          %490 = affine.load %arg0[%arg8 * 4 + 3, %arg7] : memref<40x60xf32>
          %491 = affine.load %arg1[%arg7, %arg9 * 25 + 23] : memref<60x50xf32>
          %492 = arith.mulf %490, %491 : f32
          %493 = affine.load %arg4[%arg8 * 4 + 3, %arg9 * 25 + 23] : memref<40x50xf32>
          %494 = arith.addf %493, %492 : f32
          affine.store %494, %arg4[%arg8 * 4 + 3, %arg9 * 25 + 23] : memref<40x50xf32>
          affine.store %cst, %arg4[%arg8 * 4 + 3, %arg9 * 25 + 24] : memref<40x50xf32>
          %495 = affine.load %arg0[%arg8 * 4 + 3, %arg7] : memref<40x60xf32>
          %496 = affine.load %arg1[%arg7, %arg9 * 25 + 24] : memref<60x50xf32>
          %497 = arith.mulf %495, %496 : f32
          %498 = affine.load %arg4[%arg8 * 4 + 3, %arg9 * 25 + 24] : memref<40x50xf32>
          %499 = arith.addf %498, %497 : f32
          affine.store %499, %arg4[%arg8 * 4 + 3, %arg9 * 25 + 24] : memref<40x50xf32>
        } {loop_directive = #hls.ld<pipeline=true, targetII=8, dataflow=false, flatten=false>}
      } {loop_directive = #hls.ld<pipeline=false, targetII=1, dataflow=false, flatten=true>}
    } {loop_directive = #hls.ld<pipeline=false, targetII=1, dataflow=false, flatten=true>}
    affine.for %arg7 = 0 to 40 {
      affine.for %arg8 = 0 to 25 {
        affine.for %arg9 = 0 to 5 {
          affine.store %cst, %arg5[%arg8 * 2, %arg9 * 14] : memref<50x70xf32>
          %0 = affine.load %arg2[%arg8 * 2, %arg7 * 2] : memref<50x80xf32>
          %1 = affine.load %arg3[%arg7 * 2, %arg9 * 14] : memref<80x70xf32>
          %2 = arith.mulf %0, %1 : f32
          %3 = affine.load %arg5[%arg8 * 2, %arg9 * 14] : memref<50x70xf32>
          %4 = arith.addf %3, %2 : f32
          affine.store %4, %arg5[%arg8 * 2, %arg9 * 14] : memref<50x70xf32>
          affine.store %cst, %arg5[%arg8 * 2, %arg9 * 14 + 1] : memref<50x70xf32>
          %5 = affine.load %arg2[%arg8 * 2, %arg7 * 2] : memref<50x80xf32>
          %6 = affine.load %arg3[%arg7 * 2, %arg9 * 14 + 1] : memref<80x70xf32>
          %7 = arith.mulf %5, %6 : f32
          %8 = affine.load %arg5[%arg8 * 2, %arg9 * 14 + 1] : memref<50x70xf32>
          %9 = arith.addf %8, %7 : f32
          affine.store %9, %arg5[%arg8 * 2, %arg9 * 14 + 1] : memref<50x70xf32>
          affine.store %cst, %arg5[%arg8 * 2, %arg9 * 14 + 2] : memref<50x70xf32>
          %10 = affine.load %arg2[%arg8 * 2, %arg7 * 2] : memref<50x80xf32>
          %11 = affine.load %arg3[%arg7 * 2, %arg9 * 14 + 2] : memref<80x70xf32>
          %12 = arith.mulf %10, %11 : f32
          %13 = affine.load %arg5[%arg8 * 2, %arg9 * 14 + 2] : memref<50x70xf32>
          %14 = arith.addf %13, %12 : f32
          affine.store %14, %arg5[%arg8 * 2, %arg9 * 14 + 2] : memref<50x70xf32>
          affine.store %cst, %arg5[%arg8 * 2, %arg9 * 14 + 3] : memref<50x70xf32>
          %15 = affine.load %arg2[%arg8 * 2, %arg7 * 2] : memref<50x80xf32>
          %16 = affine.load %arg3[%arg7 * 2, %arg9 * 14 + 3] : memref<80x70xf32>
          %17 = arith.mulf %15, %16 : f32
          %18 = affine.load %arg5[%arg8 * 2, %arg9 * 14 + 3] : memref<50x70xf32>
          %19 = arith.addf %18, %17 : f32
          affine.store %19, %arg5[%arg8 * 2, %arg9 * 14 + 3] : memref<50x70xf32>
          affine.store %cst, %arg5[%arg8 * 2, %arg9 * 14 + 4] : memref<50x70xf32>
          %20 = affine.load %arg2[%arg8 * 2, %arg7 * 2] : memref<50x80xf32>
          %21 = affine.load %arg3[%arg7 * 2, %arg9 * 14 + 4] : memref<80x70xf32>
          %22 = arith.mulf %20, %21 : f32
          %23 = affine.load %arg5[%arg8 * 2, %arg9 * 14 + 4] : memref<50x70xf32>
          %24 = arith.addf %23, %22 : f32
          affine.store %24, %arg5[%arg8 * 2, %arg9 * 14 + 4] : memref<50x70xf32>
          affine.store %cst, %arg5[%arg8 * 2, %arg9 * 14 + 5] : memref<50x70xf32>
          %25 = affine.load %arg2[%arg8 * 2, %arg7 * 2] : memref<50x80xf32>
          %26 = affine.load %arg3[%arg7 * 2, %arg9 * 14 + 5] : memref<80x70xf32>
          %27 = arith.mulf %25, %26 : f32
          %28 = affine.load %arg5[%arg8 * 2, %arg9 * 14 + 5] : memref<50x70xf32>
          %29 = arith.addf %28, %27 : f32
          affine.store %29, %arg5[%arg8 * 2, %arg9 * 14 + 5] : memref<50x70xf32>
          affine.store %cst, %arg5[%arg8 * 2, %arg9 * 14 + 6] : memref<50x70xf32>
          %30 = affine.load %arg2[%arg8 * 2, %arg7 * 2] : memref<50x80xf32>
          %31 = affine.load %arg3[%arg7 * 2, %arg9 * 14 + 6] : memref<80x70xf32>
          %32 = arith.mulf %30, %31 : f32
          %33 = affine.load %arg5[%arg8 * 2, %arg9 * 14 + 6] : memref<50x70xf32>
          %34 = arith.addf %33, %32 : f32
          affine.store %34, %arg5[%arg8 * 2, %arg9 * 14 + 6] : memref<50x70xf32>
          affine.store %cst, %arg5[%arg8 * 2, %arg9 * 14 + 7] : memref<50x70xf32>
          %35 = affine.load %arg2[%arg8 * 2, %arg7 * 2] : memref<50x80xf32>
          %36 = affine.load %arg3[%arg7 * 2, %arg9 * 14 + 7] : memref<80x70xf32>
          %37 = arith.mulf %35, %36 : f32
          %38 = affine.load %arg5[%arg8 * 2, %arg9 * 14 + 7] : memref<50x70xf32>
          %39 = arith.addf %38, %37 : f32
          affine.store %39, %arg5[%arg8 * 2, %arg9 * 14 + 7] : memref<50x70xf32>
          affine.store %cst, %arg5[%arg8 * 2, %arg9 * 14 + 8] : memref<50x70xf32>
          %40 = affine.load %arg2[%arg8 * 2, %arg7 * 2] : memref<50x80xf32>
          %41 = affine.load %arg3[%arg7 * 2, %arg9 * 14 + 8] : memref<80x70xf32>
          %42 = arith.mulf %40, %41 : f32
          %43 = affine.load %arg5[%arg8 * 2, %arg9 * 14 + 8] : memref<50x70xf32>
          %44 = arith.addf %43, %42 : f32
          affine.store %44, %arg5[%arg8 * 2, %arg9 * 14 + 8] : memref<50x70xf32>
          affine.store %cst, %arg5[%arg8 * 2, %arg9 * 14 + 9] : memref<50x70xf32>
          %45 = affine.load %arg2[%arg8 * 2, %arg7 * 2] : memref<50x80xf32>
          %46 = affine.load %arg3[%arg7 * 2, %arg9 * 14 + 9] : memref<80x70xf32>
          %47 = arith.mulf %45, %46 : f32
          %48 = affine.load %arg5[%arg8 * 2, %arg9 * 14 + 9] : memref<50x70xf32>
          %49 = arith.addf %48, %47 : f32
          affine.store %49, %arg5[%arg8 * 2, %arg9 * 14 + 9] : memref<50x70xf32>
          affine.store %cst, %arg5[%arg8 * 2, %arg9 * 14 + 10] : memref<50x70xf32>
          %50 = affine.load %arg2[%arg8 * 2, %arg7 * 2] : memref<50x80xf32>
          %51 = affine.load %arg3[%arg7 * 2, %arg9 * 14 + 10] : memref<80x70xf32>
          %52 = arith.mulf %50, %51 : f32
          %53 = affine.load %arg5[%arg8 * 2, %arg9 * 14 + 10] : memref<50x70xf32>
          %54 = arith.addf %53, %52 : f32
          affine.store %54, %arg5[%arg8 * 2, %arg9 * 14 + 10] : memref<50x70xf32>
          affine.store %cst, %arg5[%arg8 * 2, %arg9 * 14 + 11] : memref<50x70xf32>
          %55 = affine.load %arg2[%arg8 * 2, %arg7 * 2] : memref<50x80xf32>
          %56 = affine.load %arg3[%arg7 * 2, %arg9 * 14 + 11] : memref<80x70xf32>
          %57 = arith.mulf %55, %56 : f32
          %58 = affine.load %arg5[%arg8 * 2, %arg9 * 14 + 11] : memref<50x70xf32>
          %59 = arith.addf %58, %57 : f32
          affine.store %59, %arg5[%arg8 * 2, %arg9 * 14 + 11] : memref<50x70xf32>
          affine.store %cst, %arg5[%arg8 * 2, %arg9 * 14 + 12] : memref<50x70xf32>
          %60 = affine.load %arg2[%arg8 * 2, %arg7 * 2] : memref<50x80xf32>
          %61 = affine.load %arg3[%arg7 * 2, %arg9 * 14 + 12] : memref<80x70xf32>
          %62 = arith.mulf %60, %61 : f32
          %63 = affine.load %arg5[%arg8 * 2, %arg9 * 14 + 12] : memref<50x70xf32>
          %64 = arith.addf %63, %62 : f32
          affine.store %64, %arg5[%arg8 * 2, %arg9 * 14 + 12] : memref<50x70xf32>
          affine.store %cst, %arg5[%arg8 * 2, %arg9 * 14 + 13] : memref<50x70xf32>
          %65 = affine.load %arg2[%arg8 * 2, %arg7 * 2] : memref<50x80xf32>
          %66 = affine.load %arg3[%arg7 * 2, %arg9 * 14 + 13] : memref<80x70xf32>
          %67 = arith.mulf %65, %66 : f32
          %68 = affine.load %arg5[%arg8 * 2, %arg9 * 14 + 13] : memref<50x70xf32>
          %69 = arith.addf %68, %67 : f32
          affine.store %69, %arg5[%arg8 * 2, %arg9 * 14 + 13] : memref<50x70xf32>
          affine.store %cst, %arg5[%arg8 * 2 + 1, %arg9 * 14] : memref<50x70xf32>
          %70 = affine.load %arg2[%arg8 * 2 + 1, %arg7 * 2] : memref<50x80xf32>
          %71 = affine.load %arg3[%arg7 * 2, %arg9 * 14] : memref<80x70xf32>
          %72 = arith.mulf %70, %71 : f32
          %73 = affine.load %arg5[%arg8 * 2 + 1, %arg9 * 14] : memref<50x70xf32>
          %74 = arith.addf %73, %72 : f32
          affine.store %74, %arg5[%arg8 * 2 + 1, %arg9 * 14] : memref<50x70xf32>
          affine.store %cst, %arg5[%arg8 * 2 + 1, %arg9 * 14 + 1] : memref<50x70xf32>
          %75 = affine.load %arg2[%arg8 * 2 + 1, %arg7 * 2] : memref<50x80xf32>
          %76 = affine.load %arg3[%arg7 * 2, %arg9 * 14 + 1] : memref<80x70xf32>
          %77 = arith.mulf %75, %76 : f32
          %78 = affine.load %arg5[%arg8 * 2 + 1, %arg9 * 14 + 1] : memref<50x70xf32>
          %79 = arith.addf %78, %77 : f32
          affine.store %79, %arg5[%arg8 * 2 + 1, %arg9 * 14 + 1] : memref<50x70xf32>
          affine.store %cst, %arg5[%arg8 * 2 + 1, %arg9 * 14 + 2] : memref<50x70xf32>
          %80 = affine.load %arg2[%arg8 * 2 + 1, %arg7 * 2] : memref<50x80xf32>
          %81 = affine.load %arg3[%arg7 * 2, %arg9 * 14 + 2] : memref<80x70xf32>
          %82 = arith.mulf %80, %81 : f32
          %83 = affine.load %arg5[%arg8 * 2 + 1, %arg9 * 14 + 2] : memref<50x70xf32>
          %84 = arith.addf %83, %82 : f32
          affine.store %84, %arg5[%arg8 * 2 + 1, %arg9 * 14 + 2] : memref<50x70xf32>
          affine.store %cst, %arg5[%arg8 * 2 + 1, %arg9 * 14 + 3] : memref<50x70xf32>
          %85 = affine.load %arg2[%arg8 * 2 + 1, %arg7 * 2] : memref<50x80xf32>
          %86 = affine.load %arg3[%arg7 * 2, %arg9 * 14 + 3] : memref<80x70xf32>
          %87 = arith.mulf %85, %86 : f32
          %88 = affine.load %arg5[%arg8 * 2 + 1, %arg9 * 14 + 3] : memref<50x70xf32>
          %89 = arith.addf %88, %87 : f32
          affine.store %89, %arg5[%arg8 * 2 + 1, %arg9 * 14 + 3] : memref<50x70xf32>
          affine.store %cst, %arg5[%arg8 * 2 + 1, %arg9 * 14 + 4] : memref<50x70xf32>
          %90 = affine.load %arg2[%arg8 * 2 + 1, %arg7 * 2] : memref<50x80xf32>
          %91 = affine.load %arg3[%arg7 * 2, %arg9 * 14 + 4] : memref<80x70xf32>
          %92 = arith.mulf %90, %91 : f32
          %93 = affine.load %arg5[%arg8 * 2 + 1, %arg9 * 14 + 4] : memref<50x70xf32>
          %94 = arith.addf %93, %92 : f32
          affine.store %94, %arg5[%arg8 * 2 + 1, %arg9 * 14 + 4] : memref<50x70xf32>
          affine.store %cst, %arg5[%arg8 * 2 + 1, %arg9 * 14 + 5] : memref<50x70xf32>
          %95 = affine.load %arg2[%arg8 * 2 + 1, %arg7 * 2] : memref<50x80xf32>
          %96 = affine.load %arg3[%arg7 * 2, %arg9 * 14 + 5] : memref<80x70xf32>
          %97 = arith.mulf %95, %96 : f32
          %98 = affine.load %arg5[%arg8 * 2 + 1, %arg9 * 14 + 5] : memref<50x70xf32>
          %99 = arith.addf %98, %97 : f32
          affine.store %99, %arg5[%arg8 * 2 + 1, %arg9 * 14 + 5] : memref<50x70xf32>
          affine.store %cst, %arg5[%arg8 * 2 + 1, %arg9 * 14 + 6] : memref<50x70xf32>
          %100 = affine.load %arg2[%arg8 * 2 + 1, %arg7 * 2] : memref<50x80xf32>
          %101 = affine.load %arg3[%arg7 * 2, %arg9 * 14 + 6] : memref<80x70xf32>
          %102 = arith.mulf %100, %101 : f32
          %103 = affine.load %arg5[%arg8 * 2 + 1, %arg9 * 14 + 6] : memref<50x70xf32>
          %104 = arith.addf %103, %102 : f32
          affine.store %104, %arg5[%arg8 * 2 + 1, %arg9 * 14 + 6] : memref<50x70xf32>
          affine.store %cst, %arg5[%arg8 * 2 + 1, %arg9 * 14 + 7] : memref<50x70xf32>
          %105 = affine.load %arg2[%arg8 * 2 + 1, %arg7 * 2] : memref<50x80xf32>
          %106 = affine.load %arg3[%arg7 * 2, %arg9 * 14 + 7] : memref<80x70xf32>
          %107 = arith.mulf %105, %106 : f32
          %108 = affine.load %arg5[%arg8 * 2 + 1, %arg9 * 14 + 7] : memref<50x70xf32>
          %109 = arith.addf %108, %107 : f32
          affine.store %109, %arg5[%arg8 * 2 + 1, %arg9 * 14 + 7] : memref<50x70xf32>
          affine.store %cst, %arg5[%arg8 * 2 + 1, %arg9 * 14 + 8] : memref<50x70xf32>
          %110 = affine.load %arg2[%arg8 * 2 + 1, %arg7 * 2] : memref<50x80xf32>
          %111 = affine.load %arg3[%arg7 * 2, %arg9 * 14 + 8] : memref<80x70xf32>
          %112 = arith.mulf %110, %111 : f32
          %113 = affine.load %arg5[%arg8 * 2 + 1, %arg9 * 14 + 8] : memref<50x70xf32>
          %114 = arith.addf %113, %112 : f32
          affine.store %114, %arg5[%arg8 * 2 + 1, %arg9 * 14 + 8] : memref<50x70xf32>
          affine.store %cst, %arg5[%arg8 * 2 + 1, %arg9 * 14 + 9] : memref<50x70xf32>
          %115 = affine.load %arg2[%arg8 * 2 + 1, %arg7 * 2] : memref<50x80xf32>
          %116 = affine.load %arg3[%arg7 * 2, %arg9 * 14 + 9] : memref<80x70xf32>
          %117 = arith.mulf %115, %116 : f32
          %118 = affine.load %arg5[%arg8 * 2 + 1, %arg9 * 14 + 9] : memref<50x70xf32>
          %119 = arith.addf %118, %117 : f32
          affine.store %119, %arg5[%arg8 * 2 + 1, %arg9 * 14 + 9] : memref<50x70xf32>
          affine.store %cst, %arg5[%arg8 * 2 + 1, %arg9 * 14 + 10] : memref<50x70xf32>
          %120 = affine.load %arg2[%arg8 * 2 + 1, %arg7 * 2] : memref<50x80xf32>
          %121 = affine.load %arg3[%arg7 * 2, %arg9 * 14 + 10] : memref<80x70xf32>
          %122 = arith.mulf %120, %121 : f32
          %123 = affine.load %arg5[%arg8 * 2 + 1, %arg9 * 14 + 10] : memref<50x70xf32>
          %124 = arith.addf %123, %122 : f32
          affine.store %124, %arg5[%arg8 * 2 + 1, %arg9 * 14 + 10] : memref<50x70xf32>
          affine.store %cst, %arg5[%arg8 * 2 + 1, %arg9 * 14 + 11] : memref<50x70xf32>
          %125 = affine.load %arg2[%arg8 * 2 + 1, %arg7 * 2] : memref<50x80xf32>
          %126 = affine.load %arg3[%arg7 * 2, %arg9 * 14 + 11] : memref<80x70xf32>
          %127 = arith.mulf %125, %126 : f32
          %128 = affine.load %arg5[%arg8 * 2 + 1, %arg9 * 14 + 11] : memref<50x70xf32>
          %129 = arith.addf %128, %127 : f32
          affine.store %129, %arg5[%arg8 * 2 + 1, %arg9 * 14 + 11] : memref<50x70xf32>
          affine.store %cst, %arg5[%arg8 * 2 + 1, %arg9 * 14 + 12] : memref<50x70xf32>
          %130 = affine.load %arg2[%arg8 * 2 + 1, %arg7 * 2] : memref<50x80xf32>
          %131 = affine.load %arg3[%arg7 * 2, %arg9 * 14 + 12] : memref<80x70xf32>
          %132 = arith.mulf %130, %131 : f32
          %133 = affine.load %arg5[%arg8 * 2 + 1, %arg9 * 14 + 12] : memref<50x70xf32>
          %134 = arith.addf %133, %132 : f32
          affine.store %134, %arg5[%arg8 * 2 + 1, %arg9 * 14 + 12] : memref<50x70xf32>
          affine.store %cst, %arg5[%arg8 * 2 + 1, %arg9 * 14 + 13] : memref<50x70xf32>
          %135 = affine.load %arg2[%arg8 * 2 + 1, %arg7 * 2] : memref<50x80xf32>
          %136 = affine.load %arg3[%arg7 * 2, %arg9 * 14 + 13] : memref<80x70xf32>
          %137 = arith.mulf %135, %136 : f32
          %138 = affine.load %arg5[%arg8 * 2 + 1, %arg9 * 14 + 13] : memref<50x70xf32>
          %139 = arith.addf %138, %137 : f32
          affine.store %139, %arg5[%arg8 * 2 + 1, %arg9 * 14 + 13] : memref<50x70xf32>
          affine.store %cst, %arg5[%arg8 * 2, %arg9 * 14] : memref<50x70xf32>
          %140 = affine.load %arg2[%arg8 * 2, %arg7 * 2 + 1] : memref<50x80xf32>
          %141 = affine.load %arg3[%arg7 * 2 + 1, %arg9 * 14] : memref<80x70xf32>
          %142 = arith.mulf %140, %141 : f32
          %143 = affine.load %arg5[%arg8 * 2, %arg9 * 14] : memref<50x70xf32>
          %144 = arith.addf %143, %142 : f32
          affine.store %144, %arg5[%arg8 * 2, %arg9 * 14] : memref<50x70xf32>
          affine.store %cst, %arg5[%arg8 * 2, %arg9 * 14 + 1] : memref<50x70xf32>
          %145 = affine.load %arg2[%arg8 * 2, %arg7 * 2 + 1] : memref<50x80xf32>
          %146 = affine.load %arg3[%arg7 * 2 + 1, %arg9 * 14 + 1] : memref<80x70xf32>
          %147 = arith.mulf %145, %146 : f32
          %148 = affine.load %arg5[%arg8 * 2, %arg9 * 14 + 1] : memref<50x70xf32>
          %149 = arith.addf %148, %147 : f32
          affine.store %149, %arg5[%arg8 * 2, %arg9 * 14 + 1] : memref<50x70xf32>
          affine.store %cst, %arg5[%arg8 * 2, %arg9 * 14 + 2] : memref<50x70xf32>
          %150 = affine.load %arg2[%arg8 * 2, %arg7 * 2 + 1] : memref<50x80xf32>
          %151 = affine.load %arg3[%arg7 * 2 + 1, %arg9 * 14 + 2] : memref<80x70xf32>
          %152 = arith.mulf %150, %151 : f32
          %153 = affine.load %arg5[%arg8 * 2, %arg9 * 14 + 2] : memref<50x70xf32>
          %154 = arith.addf %153, %152 : f32
          affine.store %154, %arg5[%arg8 * 2, %arg9 * 14 + 2] : memref<50x70xf32>
          affine.store %cst, %arg5[%arg8 * 2, %arg9 * 14 + 3] : memref<50x70xf32>
          %155 = affine.load %arg2[%arg8 * 2, %arg7 * 2 + 1] : memref<50x80xf32>
          %156 = affine.load %arg3[%arg7 * 2 + 1, %arg9 * 14 + 3] : memref<80x70xf32>
          %157 = arith.mulf %155, %156 : f32
          %158 = affine.load %arg5[%arg8 * 2, %arg9 * 14 + 3] : memref<50x70xf32>
          %159 = arith.addf %158, %157 : f32
          affine.store %159, %arg5[%arg8 * 2, %arg9 * 14 + 3] : memref<50x70xf32>
          affine.store %cst, %arg5[%arg8 * 2, %arg9 * 14 + 4] : memref<50x70xf32>
          %160 = affine.load %arg2[%arg8 * 2, %arg7 * 2 + 1] : memref<50x80xf32>
          %161 = affine.load %arg3[%arg7 * 2 + 1, %arg9 * 14 + 4] : memref<80x70xf32>
          %162 = arith.mulf %160, %161 : f32
          %163 = affine.load %arg5[%arg8 * 2, %arg9 * 14 + 4] : memref<50x70xf32>
          %164 = arith.addf %163, %162 : f32
          affine.store %164, %arg5[%arg8 * 2, %arg9 * 14 + 4] : memref<50x70xf32>
          affine.store %cst, %arg5[%arg8 * 2, %arg9 * 14 + 5] : memref<50x70xf32>
          %165 = affine.load %arg2[%arg8 * 2, %arg7 * 2 + 1] : memref<50x80xf32>
          %166 = affine.load %arg3[%arg7 * 2 + 1, %arg9 * 14 + 5] : memref<80x70xf32>
          %167 = arith.mulf %165, %166 : f32
          %168 = affine.load %arg5[%arg8 * 2, %arg9 * 14 + 5] : memref<50x70xf32>
          %169 = arith.addf %168, %167 : f32
          affine.store %169, %arg5[%arg8 * 2, %arg9 * 14 + 5] : memref<50x70xf32>
          affine.store %cst, %arg5[%arg8 * 2, %arg9 * 14 + 6] : memref<50x70xf32>
          %170 = affine.load %arg2[%arg8 * 2, %arg7 * 2 + 1] : memref<50x80xf32>
          %171 = affine.load %arg3[%arg7 * 2 + 1, %arg9 * 14 + 6] : memref<80x70xf32>
          %172 = arith.mulf %170, %171 : f32
          %173 = affine.load %arg5[%arg8 * 2, %arg9 * 14 + 6] : memref<50x70xf32>
          %174 = arith.addf %173, %172 : f32
          affine.store %174, %arg5[%arg8 * 2, %arg9 * 14 + 6] : memref<50x70xf32>
          affine.store %cst, %arg5[%arg8 * 2, %arg9 * 14 + 7] : memref<50x70xf32>
          %175 = affine.load %arg2[%arg8 * 2, %arg7 * 2 + 1] : memref<50x80xf32>
          %176 = affine.load %arg3[%arg7 * 2 + 1, %arg9 * 14 + 7] : memref<80x70xf32>
          %177 = arith.mulf %175, %176 : f32
          %178 = affine.load %arg5[%arg8 * 2, %arg9 * 14 + 7] : memref<50x70xf32>
          %179 = arith.addf %178, %177 : f32
          affine.store %179, %arg5[%arg8 * 2, %arg9 * 14 + 7] : memref<50x70xf32>
          affine.store %cst, %arg5[%arg8 * 2, %arg9 * 14 + 8] : memref<50x70xf32>
          %180 = affine.load %arg2[%arg8 * 2, %arg7 * 2 + 1] : memref<50x80xf32>
          %181 = affine.load %arg3[%arg7 * 2 + 1, %arg9 * 14 + 8] : memref<80x70xf32>
          %182 = arith.mulf %180, %181 : f32
          %183 = affine.load %arg5[%arg8 * 2, %arg9 * 14 + 8] : memref<50x70xf32>
          %184 = arith.addf %183, %182 : f32
          affine.store %184, %arg5[%arg8 * 2, %arg9 * 14 + 8] : memref<50x70xf32>
          affine.store %cst, %arg5[%arg8 * 2, %arg9 * 14 + 9] : memref<50x70xf32>
          %185 = affine.load %arg2[%arg8 * 2, %arg7 * 2 + 1] : memref<50x80xf32>
          %186 = affine.load %arg3[%arg7 * 2 + 1, %arg9 * 14 + 9] : memref<80x70xf32>
          %187 = arith.mulf %185, %186 : f32
          %188 = affine.load %arg5[%arg8 * 2, %arg9 * 14 + 9] : memref<50x70xf32>
          %189 = arith.addf %188, %187 : f32
          affine.store %189, %arg5[%arg8 * 2, %arg9 * 14 + 9] : memref<50x70xf32>
          affine.store %cst, %arg5[%arg8 * 2, %arg9 * 14 + 10] : memref<50x70xf32>
          %190 = affine.load %arg2[%arg8 * 2, %arg7 * 2 + 1] : memref<50x80xf32>
          %191 = affine.load %arg3[%arg7 * 2 + 1, %arg9 * 14 + 10] : memref<80x70xf32>
          %192 = arith.mulf %190, %191 : f32
          %193 = affine.load %arg5[%arg8 * 2, %arg9 * 14 + 10] : memref<50x70xf32>
          %194 = arith.addf %193, %192 : f32
          affine.store %194, %arg5[%arg8 * 2, %arg9 * 14 + 10] : memref<50x70xf32>
          affine.store %cst, %arg5[%arg8 * 2, %arg9 * 14 + 11] : memref<50x70xf32>
          %195 = affine.load %arg2[%arg8 * 2, %arg7 * 2 + 1] : memref<50x80xf32>
          %196 = affine.load %arg3[%arg7 * 2 + 1, %arg9 * 14 + 11] : memref<80x70xf32>
          %197 = arith.mulf %195, %196 : f32
          %198 = affine.load %arg5[%arg8 * 2, %arg9 * 14 + 11] : memref<50x70xf32>
          %199 = arith.addf %198, %197 : f32
          affine.store %199, %arg5[%arg8 * 2, %arg9 * 14 + 11] : memref<50x70xf32>
          affine.store %cst, %arg5[%arg8 * 2, %arg9 * 14 + 12] : memref<50x70xf32>
          %200 = affine.load %arg2[%arg8 * 2, %arg7 * 2 + 1] : memref<50x80xf32>
          %201 = affine.load %arg3[%arg7 * 2 + 1, %arg9 * 14 + 12] : memref<80x70xf32>
          %202 = arith.mulf %200, %201 : f32
          %203 = affine.load %arg5[%arg8 * 2, %arg9 * 14 + 12] : memref<50x70xf32>
          %204 = arith.addf %203, %202 : f32
          affine.store %204, %arg5[%arg8 * 2, %arg9 * 14 + 12] : memref<50x70xf32>
          affine.store %cst, %arg5[%arg8 * 2, %arg9 * 14 + 13] : memref<50x70xf32>
          %205 = affine.load %arg2[%arg8 * 2, %arg7 * 2 + 1] : memref<50x80xf32>
          %206 = affine.load %arg3[%arg7 * 2 + 1, %arg9 * 14 + 13] : memref<80x70xf32>
          %207 = arith.mulf %205, %206 : f32
          %208 = affine.load %arg5[%arg8 * 2, %arg9 * 14 + 13] : memref<50x70xf32>
          %209 = arith.addf %208, %207 : f32
          affine.store %209, %arg5[%arg8 * 2, %arg9 * 14 + 13] : memref<50x70xf32>
          affine.store %cst, %arg5[%arg8 * 2 + 1, %arg9 * 14] : memref<50x70xf32>
          %210 = affine.load %arg2[%arg8 * 2 + 1, %arg7 * 2 + 1] : memref<50x80xf32>
          %211 = affine.load %arg3[%arg7 * 2 + 1, %arg9 * 14] : memref<80x70xf32>
          %212 = arith.mulf %210, %211 : f32
          %213 = affine.load %arg5[%arg8 * 2 + 1, %arg9 * 14] : memref<50x70xf32>
          %214 = arith.addf %213, %212 : f32
          affine.store %214, %arg5[%arg8 * 2 + 1, %arg9 * 14] : memref<50x70xf32>
          affine.store %cst, %arg5[%arg8 * 2 + 1, %arg9 * 14 + 1] : memref<50x70xf32>
          %215 = affine.load %arg2[%arg8 * 2 + 1, %arg7 * 2 + 1] : memref<50x80xf32>
          %216 = affine.load %arg3[%arg7 * 2 + 1, %arg9 * 14 + 1] : memref<80x70xf32>
          %217 = arith.mulf %215, %216 : f32
          %218 = affine.load %arg5[%arg8 * 2 + 1, %arg9 * 14 + 1] : memref<50x70xf32>
          %219 = arith.addf %218, %217 : f32
          affine.store %219, %arg5[%arg8 * 2 + 1, %arg9 * 14 + 1] : memref<50x70xf32>
          affine.store %cst, %arg5[%arg8 * 2 + 1, %arg9 * 14 + 2] : memref<50x70xf32>
          %220 = affine.load %arg2[%arg8 * 2 + 1, %arg7 * 2 + 1] : memref<50x80xf32>
          %221 = affine.load %arg3[%arg7 * 2 + 1, %arg9 * 14 + 2] : memref<80x70xf32>
          %222 = arith.mulf %220, %221 : f32
          %223 = affine.load %arg5[%arg8 * 2 + 1, %arg9 * 14 + 2] : memref<50x70xf32>
          %224 = arith.addf %223, %222 : f32
          affine.store %224, %arg5[%arg8 * 2 + 1, %arg9 * 14 + 2] : memref<50x70xf32>
          affine.store %cst, %arg5[%arg8 * 2 + 1, %arg9 * 14 + 3] : memref<50x70xf32>
          %225 = affine.load %arg2[%arg8 * 2 + 1, %arg7 * 2 + 1] : memref<50x80xf32>
          %226 = affine.load %arg3[%arg7 * 2 + 1, %arg9 * 14 + 3] : memref<80x70xf32>
          %227 = arith.mulf %225, %226 : f32
          %228 = affine.load %arg5[%arg8 * 2 + 1, %arg9 * 14 + 3] : memref<50x70xf32>
          %229 = arith.addf %228, %227 : f32
          affine.store %229, %arg5[%arg8 * 2 + 1, %arg9 * 14 + 3] : memref<50x70xf32>
          affine.store %cst, %arg5[%arg8 * 2 + 1, %arg9 * 14 + 4] : memref<50x70xf32>
          %230 = affine.load %arg2[%arg8 * 2 + 1, %arg7 * 2 + 1] : memref<50x80xf32>
          %231 = affine.load %arg3[%arg7 * 2 + 1, %arg9 * 14 + 4] : memref<80x70xf32>
          %232 = arith.mulf %230, %231 : f32
          %233 = affine.load %arg5[%arg8 * 2 + 1, %arg9 * 14 + 4] : memref<50x70xf32>
          %234 = arith.addf %233, %232 : f32
          affine.store %234, %arg5[%arg8 * 2 + 1, %arg9 * 14 + 4] : memref<50x70xf32>
          affine.store %cst, %arg5[%arg8 * 2 + 1, %arg9 * 14 + 5] : memref<50x70xf32>
          %235 = affine.load %arg2[%arg8 * 2 + 1, %arg7 * 2 + 1] : memref<50x80xf32>
          %236 = affine.load %arg3[%arg7 * 2 + 1, %arg9 * 14 + 5] : memref<80x70xf32>
          %237 = arith.mulf %235, %236 : f32
          %238 = affine.load %arg5[%arg8 * 2 + 1, %arg9 * 14 + 5] : memref<50x70xf32>
          %239 = arith.addf %238, %237 : f32
          affine.store %239, %arg5[%arg8 * 2 + 1, %arg9 * 14 + 5] : memref<50x70xf32>
          affine.store %cst, %arg5[%arg8 * 2 + 1, %arg9 * 14 + 6] : memref<50x70xf32>
          %240 = affine.load %arg2[%arg8 * 2 + 1, %arg7 * 2 + 1] : memref<50x80xf32>
          %241 = affine.load %arg3[%arg7 * 2 + 1, %arg9 * 14 + 6] : memref<80x70xf32>
          %242 = arith.mulf %240, %241 : f32
          %243 = affine.load %arg5[%arg8 * 2 + 1, %arg9 * 14 + 6] : memref<50x70xf32>
          %244 = arith.addf %243, %242 : f32
          affine.store %244, %arg5[%arg8 * 2 + 1, %arg9 * 14 + 6] : memref<50x70xf32>
          affine.store %cst, %arg5[%arg8 * 2 + 1, %arg9 * 14 + 7] : memref<50x70xf32>
          %245 = affine.load %arg2[%arg8 * 2 + 1, %arg7 * 2 + 1] : memref<50x80xf32>
          %246 = affine.load %arg3[%arg7 * 2 + 1, %arg9 * 14 + 7] : memref<80x70xf32>
          %247 = arith.mulf %245, %246 : f32
          %248 = affine.load %arg5[%arg8 * 2 + 1, %arg9 * 14 + 7] : memref<50x70xf32>
          %249 = arith.addf %248, %247 : f32
          affine.store %249, %arg5[%arg8 * 2 + 1, %arg9 * 14 + 7] : memref<50x70xf32>
          affine.store %cst, %arg5[%arg8 * 2 + 1, %arg9 * 14 + 8] : memref<50x70xf32>
          %250 = affine.load %arg2[%arg8 * 2 + 1, %arg7 * 2 + 1] : memref<50x80xf32>
          %251 = affine.load %arg3[%arg7 * 2 + 1, %arg9 * 14 + 8] : memref<80x70xf32>
          %252 = arith.mulf %250, %251 : f32
          %253 = affine.load %arg5[%arg8 * 2 + 1, %arg9 * 14 + 8] : memref<50x70xf32>
          %254 = arith.addf %253, %252 : f32
          affine.store %254, %arg5[%arg8 * 2 + 1, %arg9 * 14 + 8] : memref<50x70xf32>
          affine.store %cst, %arg5[%arg8 * 2 + 1, %arg9 * 14 + 9] : memref<50x70xf32>
          %255 = affine.load %arg2[%arg8 * 2 + 1, %arg7 * 2 + 1] : memref<50x80xf32>
          %256 = affine.load %arg3[%arg7 * 2 + 1, %arg9 * 14 + 9] : memref<80x70xf32>
          %257 = arith.mulf %255, %256 : f32
          %258 = affine.load %arg5[%arg8 * 2 + 1, %arg9 * 14 + 9] : memref<50x70xf32>
          %259 = arith.addf %258, %257 : f32
          affine.store %259, %arg5[%arg8 * 2 + 1, %arg9 * 14 + 9] : memref<50x70xf32>
          affine.store %cst, %arg5[%arg8 * 2 + 1, %arg9 * 14 + 10] : memref<50x70xf32>
          %260 = affine.load %arg2[%arg8 * 2 + 1, %arg7 * 2 + 1] : memref<50x80xf32>
          %261 = affine.load %arg3[%arg7 * 2 + 1, %arg9 * 14 + 10] : memref<80x70xf32>
          %262 = arith.mulf %260, %261 : f32
          %263 = affine.load %arg5[%arg8 * 2 + 1, %arg9 * 14 + 10] : memref<50x70xf32>
          %264 = arith.addf %263, %262 : f32
          affine.store %264, %arg5[%arg8 * 2 + 1, %arg9 * 14 + 10] : memref<50x70xf32>
          affine.store %cst, %arg5[%arg8 * 2 + 1, %arg9 * 14 + 11] : memref<50x70xf32>
          %265 = affine.load %arg2[%arg8 * 2 + 1, %arg7 * 2 + 1] : memref<50x80xf32>
          %266 = affine.load %arg3[%arg7 * 2 + 1, %arg9 * 14 + 11] : memref<80x70xf32>
          %267 = arith.mulf %265, %266 : f32
          %268 = affine.load %arg5[%arg8 * 2 + 1, %arg9 * 14 + 11] : memref<50x70xf32>
          %269 = arith.addf %268, %267 : f32
          affine.store %269, %arg5[%arg8 * 2 + 1, %arg9 * 14 + 11] : memref<50x70xf32>
          affine.store %cst, %arg5[%arg8 * 2 + 1, %arg9 * 14 + 12] : memref<50x70xf32>
          %270 = affine.load %arg2[%arg8 * 2 + 1, %arg7 * 2 + 1] : memref<50x80xf32>
          %271 = affine.load %arg3[%arg7 * 2 + 1, %arg9 * 14 + 12] : memref<80x70xf32>
          %272 = arith.mulf %270, %271 : f32
          %273 = affine.load %arg5[%arg8 * 2 + 1, %arg9 * 14 + 12] : memref<50x70xf32>
          %274 = arith.addf %273, %272 : f32
          affine.store %274, %arg5[%arg8 * 2 + 1, %arg9 * 14 + 12] : memref<50x70xf32>
          affine.store %cst, %arg5[%arg8 * 2 + 1, %arg9 * 14 + 13] : memref<50x70xf32>
          %275 = affine.load %arg2[%arg8 * 2 + 1, %arg7 * 2 + 1] : memref<50x80xf32>
          %276 = affine.load %arg3[%arg7 * 2 + 1, %arg9 * 14 + 13] : memref<80x70xf32>
          %277 = arith.mulf %275, %276 : f32
          %278 = affine.load %arg5[%arg8 * 2 + 1, %arg9 * 14 + 13] : memref<50x70xf32>
          %279 = arith.addf %278, %277 : f32
          affine.store %279, %arg5[%arg8 * 2 + 1, %arg9 * 14 + 13] : memref<50x70xf32>
        } {loop_directive = #hls.ld<pipeline=true, targetII=3, dataflow=false, flatten=false>}
      } {loop_directive = #hls.ld<pipeline=false, targetII=1, dataflow=false, flatten=true>}
    } {loop_directive = #hls.ld<pipeline=false, targetII=1, dataflow=false, flatten=true>}
    affine.for %arg7 = 0 to 50 {
      affine.for %arg8 = 0 to 2 {
        affine.for %arg9 = 0 to 14 {
          affine.store %cst, %arg6[%arg8 * 20, %arg9 * 5] : memref<40x70xf32>
          %0 = affine.load %arg4[%arg8 * 20, %arg7] : memref<40x50xf32>
          %1 = affine.load %arg5[%arg7, %arg9 * 5] : memref<50x70xf32>
          %2 = arith.mulf %0, %1 : f32
          %3 = affine.load %arg6[%arg8 * 20, %arg9 * 5] : memref<40x70xf32>
          %4 = arith.addf %3, %2 : f32
          affine.store %4, %arg6[%arg8 * 20, %arg9 * 5] : memref<40x70xf32>
          affine.store %cst, %arg6[%arg8 * 20, %arg9 * 5 + 1] : memref<40x70xf32>
          %5 = affine.load %arg4[%arg8 * 20, %arg7] : memref<40x50xf32>
          %6 = affine.load %arg5[%arg7, %arg9 * 5 + 1] : memref<50x70xf32>
          %7 = arith.mulf %5, %6 : f32
          %8 = affine.load %arg6[%arg8 * 20, %arg9 * 5 + 1] : memref<40x70xf32>
          %9 = arith.addf %8, %7 : f32
          affine.store %9, %arg6[%arg8 * 20, %arg9 * 5 + 1] : memref<40x70xf32>
          affine.store %cst, %arg6[%arg8 * 20, %arg9 * 5 + 2] : memref<40x70xf32>
          %10 = affine.load %arg4[%arg8 * 20, %arg7] : memref<40x50xf32>
          %11 = affine.load %arg5[%arg7, %arg9 * 5 + 2] : memref<50x70xf32>
          %12 = arith.mulf %10, %11 : f32
          %13 = affine.load %arg6[%arg8 * 20, %arg9 * 5 + 2] : memref<40x70xf32>
          %14 = arith.addf %13, %12 : f32
          affine.store %14, %arg6[%arg8 * 20, %arg9 * 5 + 2] : memref<40x70xf32>
          affine.store %cst, %arg6[%arg8 * 20, %arg9 * 5 + 3] : memref<40x70xf32>
          %15 = affine.load %arg4[%arg8 * 20, %arg7] : memref<40x50xf32>
          %16 = affine.load %arg5[%arg7, %arg9 * 5 + 3] : memref<50x70xf32>
          %17 = arith.mulf %15, %16 : f32
          %18 = affine.load %arg6[%arg8 * 20, %arg9 * 5 + 3] : memref<40x70xf32>
          %19 = arith.addf %18, %17 : f32
          affine.store %19, %arg6[%arg8 * 20, %arg9 * 5 + 3] : memref<40x70xf32>
          affine.store %cst, %arg6[%arg8 * 20, %arg9 * 5 + 4] : memref<40x70xf32>
          %20 = affine.load %arg4[%arg8 * 20, %arg7] : memref<40x50xf32>
          %21 = affine.load %arg5[%arg7, %arg9 * 5 + 4] : memref<50x70xf32>
          %22 = arith.mulf %20, %21 : f32
          %23 = affine.load %arg6[%arg8 * 20, %arg9 * 5 + 4] : memref<40x70xf32>
          %24 = arith.addf %23, %22 : f32
          affine.store %24, %arg6[%arg8 * 20, %arg9 * 5 + 4] : memref<40x70xf32>
          affine.store %cst, %arg6[%arg8 * 20 + 1, %arg9 * 5] : memref<40x70xf32>
          %25 = affine.load %arg4[%arg8 * 20 + 1, %arg7] : memref<40x50xf32>
          %26 = affine.load %arg5[%arg7, %arg9 * 5] : memref<50x70xf32>
          %27 = arith.mulf %25, %26 : f32
          %28 = affine.load %arg6[%arg8 * 20 + 1, %arg9 * 5] : memref<40x70xf32>
          %29 = arith.addf %28, %27 : f32
          affine.store %29, %arg6[%arg8 * 20 + 1, %arg9 * 5] : memref<40x70xf32>
          affine.store %cst, %arg6[%arg8 * 20 + 1, %arg9 * 5 + 1] : memref<40x70xf32>
          %30 = affine.load %arg4[%arg8 * 20 + 1, %arg7] : memref<40x50xf32>
          %31 = affine.load %arg5[%arg7, %arg9 * 5 + 1] : memref<50x70xf32>
          %32 = arith.mulf %30, %31 : f32
          %33 = affine.load %arg6[%arg8 * 20 + 1, %arg9 * 5 + 1] : memref<40x70xf32>
          %34 = arith.addf %33, %32 : f32
          affine.store %34, %arg6[%arg8 * 20 + 1, %arg9 * 5 + 1] : memref<40x70xf32>
          affine.store %cst, %arg6[%arg8 * 20 + 1, %arg9 * 5 + 2] : memref<40x70xf32>
          %35 = affine.load %arg4[%arg8 * 20 + 1, %arg7] : memref<40x50xf32>
          %36 = affine.load %arg5[%arg7, %arg9 * 5 + 2] : memref<50x70xf32>
          %37 = arith.mulf %35, %36 : f32
          %38 = affine.load %arg6[%arg8 * 20 + 1, %arg9 * 5 + 2] : memref<40x70xf32>
          %39 = arith.addf %38, %37 : f32
          affine.store %39, %arg6[%arg8 * 20 + 1, %arg9 * 5 + 2] : memref<40x70xf32>
          affine.store %cst, %arg6[%arg8 * 20 + 1, %arg9 * 5 + 3] : memref<40x70xf32>
          %40 = affine.load %arg4[%arg8 * 20 + 1, %arg7] : memref<40x50xf32>
          %41 = affine.load %arg5[%arg7, %arg9 * 5 + 3] : memref<50x70xf32>
          %42 = arith.mulf %40, %41 : f32
          %43 = affine.load %arg6[%arg8 * 20 + 1, %arg9 * 5 + 3] : memref<40x70xf32>
          %44 = arith.addf %43, %42 : f32
          affine.store %44, %arg6[%arg8 * 20 + 1, %arg9 * 5 + 3] : memref<40x70xf32>
          affine.store %cst, %arg6[%arg8 * 20 + 1, %arg9 * 5 + 4] : memref<40x70xf32>
          %45 = affine.load %arg4[%arg8 * 20 + 1, %arg7] : memref<40x50xf32>
          %46 = affine.load %arg5[%arg7, %arg9 * 5 + 4] : memref<50x70xf32>
          %47 = arith.mulf %45, %46 : f32
          %48 = affine.load %arg6[%arg8 * 20 + 1, %arg9 * 5 + 4] : memref<40x70xf32>
          %49 = arith.addf %48, %47 : f32
          affine.store %49, %arg6[%arg8 * 20 + 1, %arg9 * 5 + 4] : memref<40x70xf32>
          affine.store %cst, %arg6[%arg8 * 20 + 2, %arg9 * 5] : memref<40x70xf32>
          %50 = affine.load %arg4[%arg8 * 20 + 2, %arg7] : memref<40x50xf32>
          %51 = affine.load %arg5[%arg7, %arg9 * 5] : memref<50x70xf32>
          %52 = arith.mulf %50, %51 : f32
          %53 = affine.load %arg6[%arg8 * 20 + 2, %arg9 * 5] : memref<40x70xf32>
          %54 = arith.addf %53, %52 : f32
          affine.store %54, %arg6[%arg8 * 20 + 2, %arg9 * 5] : memref<40x70xf32>
          affine.store %cst, %arg6[%arg8 * 20 + 2, %arg9 * 5 + 1] : memref<40x70xf32>
          %55 = affine.load %arg4[%arg8 * 20 + 2, %arg7] : memref<40x50xf32>
          %56 = affine.load %arg5[%arg7, %arg9 * 5 + 1] : memref<50x70xf32>
          %57 = arith.mulf %55, %56 : f32
          %58 = affine.load %arg6[%arg8 * 20 + 2, %arg9 * 5 + 1] : memref<40x70xf32>
          %59 = arith.addf %58, %57 : f32
          affine.store %59, %arg6[%arg8 * 20 + 2, %arg9 * 5 + 1] : memref<40x70xf32>
          affine.store %cst, %arg6[%arg8 * 20 + 2, %arg9 * 5 + 2] : memref<40x70xf32>
          %60 = affine.load %arg4[%arg8 * 20 + 2, %arg7] : memref<40x50xf32>
          %61 = affine.load %arg5[%arg7, %arg9 * 5 + 2] : memref<50x70xf32>
          %62 = arith.mulf %60, %61 : f32
          %63 = affine.load %arg6[%arg8 * 20 + 2, %arg9 * 5 + 2] : memref<40x70xf32>
          %64 = arith.addf %63, %62 : f32
          affine.store %64, %arg6[%arg8 * 20 + 2, %arg9 * 5 + 2] : memref<40x70xf32>
          affine.store %cst, %arg6[%arg8 * 20 + 2, %arg9 * 5 + 3] : memref<40x70xf32>
          %65 = affine.load %arg4[%arg8 * 20 + 2, %arg7] : memref<40x50xf32>
          %66 = affine.load %arg5[%arg7, %arg9 * 5 + 3] : memref<50x70xf32>
          %67 = arith.mulf %65, %66 : f32
          %68 = affine.load %arg6[%arg8 * 20 + 2, %arg9 * 5 + 3] : memref<40x70xf32>
          %69 = arith.addf %68, %67 : f32
          affine.store %69, %arg6[%arg8 * 20 + 2, %arg9 * 5 + 3] : memref<40x70xf32>
          affine.store %cst, %arg6[%arg8 * 20 + 2, %arg9 * 5 + 4] : memref<40x70xf32>
          %70 = affine.load %arg4[%arg8 * 20 + 2, %arg7] : memref<40x50xf32>
          %71 = affine.load %arg5[%arg7, %arg9 * 5 + 4] : memref<50x70xf32>
          %72 = arith.mulf %70, %71 : f32
          %73 = affine.load %arg6[%arg8 * 20 + 2, %arg9 * 5 + 4] : memref<40x70xf32>
          %74 = arith.addf %73, %72 : f32
          affine.store %74, %arg6[%arg8 * 20 + 2, %arg9 * 5 + 4] : memref<40x70xf32>
          affine.store %cst, %arg6[%arg8 * 20 + 3, %arg9 * 5] : memref<40x70xf32>
          %75 = affine.load %arg4[%arg8 * 20 + 3, %arg7] : memref<40x50xf32>
          %76 = affine.load %arg5[%arg7, %arg9 * 5] : memref<50x70xf32>
          %77 = arith.mulf %75, %76 : f32
          %78 = affine.load %arg6[%arg8 * 20 + 3, %arg9 * 5] : memref<40x70xf32>
          %79 = arith.addf %78, %77 : f32
          affine.store %79, %arg6[%arg8 * 20 + 3, %arg9 * 5] : memref<40x70xf32>
          affine.store %cst, %arg6[%arg8 * 20 + 3, %arg9 * 5 + 1] : memref<40x70xf32>
          %80 = affine.load %arg4[%arg8 * 20 + 3, %arg7] : memref<40x50xf32>
          %81 = affine.load %arg5[%arg7, %arg9 * 5 + 1] : memref<50x70xf32>
          %82 = arith.mulf %80, %81 : f32
          %83 = affine.load %arg6[%arg8 * 20 + 3, %arg9 * 5 + 1] : memref<40x70xf32>
          %84 = arith.addf %83, %82 : f32
          affine.store %84, %arg6[%arg8 * 20 + 3, %arg9 * 5 + 1] : memref<40x70xf32>
          affine.store %cst, %arg6[%arg8 * 20 + 3, %arg9 * 5 + 2] : memref<40x70xf32>
          %85 = affine.load %arg4[%arg8 * 20 + 3, %arg7] : memref<40x50xf32>
          %86 = affine.load %arg5[%arg7, %arg9 * 5 + 2] : memref<50x70xf32>
          %87 = arith.mulf %85, %86 : f32
          %88 = affine.load %arg6[%arg8 * 20 + 3, %arg9 * 5 + 2] : memref<40x70xf32>
          %89 = arith.addf %88, %87 : f32
          affine.store %89, %arg6[%arg8 * 20 + 3, %arg9 * 5 + 2] : memref<40x70xf32>
          affine.store %cst, %arg6[%arg8 * 20 + 3, %arg9 * 5 + 3] : memref<40x70xf32>
          %90 = affine.load %arg4[%arg8 * 20 + 3, %arg7] : memref<40x50xf32>
          %91 = affine.load %arg5[%arg7, %arg9 * 5 + 3] : memref<50x70xf32>
          %92 = arith.mulf %90, %91 : f32
          %93 = affine.load %arg6[%arg8 * 20 + 3, %arg9 * 5 + 3] : memref<40x70xf32>
          %94 = arith.addf %93, %92 : f32
          affine.store %94, %arg6[%arg8 * 20 + 3, %arg9 * 5 + 3] : memref<40x70xf32>
          affine.store %cst, %arg6[%arg8 * 20 + 3, %arg9 * 5 + 4] : memref<40x70xf32>
          %95 = affine.load %arg4[%arg8 * 20 + 3, %arg7] : memref<40x50xf32>
          %96 = affine.load %arg5[%arg7, %arg9 * 5 + 4] : memref<50x70xf32>
          %97 = arith.mulf %95, %96 : f32
          %98 = affine.load %arg6[%arg8 * 20 + 3, %arg9 * 5 + 4] : memref<40x70xf32>
          %99 = arith.addf %98, %97 : f32
          affine.store %99, %arg6[%arg8 * 20 + 3, %arg9 * 5 + 4] : memref<40x70xf32>
          affine.store %cst, %arg6[%arg8 * 20 + 4, %arg9 * 5] : memref<40x70xf32>
          %100 = affine.load %arg4[%arg8 * 20 + 4, %arg7] : memref<40x50xf32>
          %101 = affine.load %arg5[%arg7, %arg9 * 5] : memref<50x70xf32>
          %102 = arith.mulf %100, %101 : f32
          %103 = affine.load %arg6[%arg8 * 20 + 4, %arg9 * 5] : memref<40x70xf32>
          %104 = arith.addf %103, %102 : f32
          affine.store %104, %arg6[%arg8 * 20 + 4, %arg9 * 5] : memref<40x70xf32>
          affine.store %cst, %arg6[%arg8 * 20 + 4, %arg9 * 5 + 1] : memref<40x70xf32>
          %105 = affine.load %arg4[%arg8 * 20 + 4, %arg7] : memref<40x50xf32>
          %106 = affine.load %arg5[%arg7, %arg9 * 5 + 1] : memref<50x70xf32>
          %107 = arith.mulf %105, %106 : f32
          %108 = affine.load %arg6[%arg8 * 20 + 4, %arg9 * 5 + 1] : memref<40x70xf32>
          %109 = arith.addf %108, %107 : f32
          affine.store %109, %arg6[%arg8 * 20 + 4, %arg9 * 5 + 1] : memref<40x70xf32>
          affine.store %cst, %arg6[%arg8 * 20 + 4, %arg9 * 5 + 2] : memref<40x70xf32>
          %110 = affine.load %arg4[%arg8 * 20 + 4, %arg7] : memref<40x50xf32>
          %111 = affine.load %arg5[%arg7, %arg9 * 5 + 2] : memref<50x70xf32>
          %112 = arith.mulf %110, %111 : f32
          %113 = affine.load %arg6[%arg8 * 20 + 4, %arg9 * 5 + 2] : memref<40x70xf32>
          %114 = arith.addf %113, %112 : f32
          affine.store %114, %arg6[%arg8 * 20 + 4, %arg9 * 5 + 2] : memref<40x70xf32>
          affine.store %cst, %arg6[%arg8 * 20 + 4, %arg9 * 5 + 3] : memref<40x70xf32>
          %115 = affine.load %arg4[%arg8 * 20 + 4, %arg7] : memref<40x50xf32>
          %116 = affine.load %arg5[%arg7, %arg9 * 5 + 3] : memref<50x70xf32>
          %117 = arith.mulf %115, %116 : f32
          %118 = affine.load %arg6[%arg8 * 20 + 4, %arg9 * 5 + 3] : memref<40x70xf32>
          %119 = arith.addf %118, %117 : f32
          affine.store %119, %arg6[%arg8 * 20 + 4, %arg9 * 5 + 3] : memref<40x70xf32>
          affine.store %cst, %arg6[%arg8 * 20 + 4, %arg9 * 5 + 4] : memref<40x70xf32>
          %120 = affine.load %arg4[%arg8 * 20 + 4, %arg7] : memref<40x50xf32>
          %121 = affine.load %arg5[%arg7, %arg9 * 5 + 4] : memref<50x70xf32>
          %122 = arith.mulf %120, %121 : f32
          %123 = affine.load %arg6[%arg8 * 20 + 4, %arg9 * 5 + 4] : memref<40x70xf32>
          %124 = arith.addf %123, %122 : f32
          affine.store %124, %arg6[%arg8 * 20 + 4, %arg9 * 5 + 4] : memref<40x70xf32>
          affine.store %cst, %arg6[%arg8 * 20 + 5, %arg9 * 5] : memref<40x70xf32>
          %125 = affine.load %arg4[%arg8 * 20 + 5, %arg7] : memref<40x50xf32>
          %126 = affine.load %arg5[%arg7, %arg9 * 5] : memref<50x70xf32>
          %127 = arith.mulf %125, %126 : f32
          %128 = affine.load %arg6[%arg8 * 20 + 5, %arg9 * 5] : memref<40x70xf32>
          %129 = arith.addf %128, %127 : f32
          affine.store %129, %arg6[%arg8 * 20 + 5, %arg9 * 5] : memref<40x70xf32>
          affine.store %cst, %arg6[%arg8 * 20 + 5, %arg9 * 5 + 1] : memref<40x70xf32>
          %130 = affine.load %arg4[%arg8 * 20 + 5, %arg7] : memref<40x50xf32>
          %131 = affine.load %arg5[%arg7, %arg9 * 5 + 1] : memref<50x70xf32>
          %132 = arith.mulf %130, %131 : f32
          %133 = affine.load %arg6[%arg8 * 20 + 5, %arg9 * 5 + 1] : memref<40x70xf32>
          %134 = arith.addf %133, %132 : f32
          affine.store %134, %arg6[%arg8 * 20 + 5, %arg9 * 5 + 1] : memref<40x70xf32>
          affine.store %cst, %arg6[%arg8 * 20 + 5, %arg9 * 5 + 2] : memref<40x70xf32>
          %135 = affine.load %arg4[%arg8 * 20 + 5, %arg7] : memref<40x50xf32>
          %136 = affine.load %arg5[%arg7, %arg9 * 5 + 2] : memref<50x70xf32>
          %137 = arith.mulf %135, %136 : f32
          %138 = affine.load %arg6[%arg8 * 20 + 5, %arg9 * 5 + 2] : memref<40x70xf32>
          %139 = arith.addf %138, %137 : f32
          affine.store %139, %arg6[%arg8 * 20 + 5, %arg9 * 5 + 2] : memref<40x70xf32>
          affine.store %cst, %arg6[%arg8 * 20 + 5, %arg9 * 5 + 3] : memref<40x70xf32>
          %140 = affine.load %arg4[%arg8 * 20 + 5, %arg7] : memref<40x50xf32>
          %141 = affine.load %arg5[%arg7, %arg9 * 5 + 3] : memref<50x70xf32>
          %142 = arith.mulf %140, %141 : f32
          %143 = affine.load %arg6[%arg8 * 20 + 5, %arg9 * 5 + 3] : memref<40x70xf32>
          %144 = arith.addf %143, %142 : f32
          affine.store %144, %arg6[%arg8 * 20 + 5, %arg9 * 5 + 3] : memref<40x70xf32>
          affine.store %cst, %arg6[%arg8 * 20 + 5, %arg9 * 5 + 4] : memref<40x70xf32>
          %145 = affine.load %arg4[%arg8 * 20 + 5, %arg7] : memref<40x50xf32>
          %146 = affine.load %arg5[%arg7, %arg9 * 5 + 4] : memref<50x70xf32>
          %147 = arith.mulf %145, %146 : f32
          %148 = affine.load %arg6[%arg8 * 20 + 5, %arg9 * 5 + 4] : memref<40x70xf32>
          %149 = arith.addf %148, %147 : f32
          affine.store %149, %arg6[%arg8 * 20 + 5, %arg9 * 5 + 4] : memref<40x70xf32>
          affine.store %cst, %arg6[%arg8 * 20 + 6, %arg9 * 5] : memref<40x70xf32>
          %150 = affine.load %arg4[%arg8 * 20 + 6, %arg7] : memref<40x50xf32>
          %151 = affine.load %arg5[%arg7, %arg9 * 5] : memref<50x70xf32>
          %152 = arith.mulf %150, %151 : f32
          %153 = affine.load %arg6[%arg8 * 20 + 6, %arg9 * 5] : memref<40x70xf32>
          %154 = arith.addf %153, %152 : f32
          affine.store %154, %arg6[%arg8 * 20 + 6, %arg9 * 5] : memref<40x70xf32>
          affine.store %cst, %arg6[%arg8 * 20 + 6, %arg9 * 5 + 1] : memref<40x70xf32>
          %155 = affine.load %arg4[%arg8 * 20 + 6, %arg7] : memref<40x50xf32>
          %156 = affine.load %arg5[%arg7, %arg9 * 5 + 1] : memref<50x70xf32>
          %157 = arith.mulf %155, %156 : f32
          %158 = affine.load %arg6[%arg8 * 20 + 6, %arg9 * 5 + 1] : memref<40x70xf32>
          %159 = arith.addf %158, %157 : f32
          affine.store %159, %arg6[%arg8 * 20 + 6, %arg9 * 5 + 1] : memref<40x70xf32>
          affine.store %cst, %arg6[%arg8 * 20 + 6, %arg9 * 5 + 2] : memref<40x70xf32>
          %160 = affine.load %arg4[%arg8 * 20 + 6, %arg7] : memref<40x50xf32>
          %161 = affine.load %arg5[%arg7, %arg9 * 5 + 2] : memref<50x70xf32>
          %162 = arith.mulf %160, %161 : f32
          %163 = affine.load %arg6[%arg8 * 20 + 6, %arg9 * 5 + 2] : memref<40x70xf32>
          %164 = arith.addf %163, %162 : f32
          affine.store %164, %arg6[%arg8 * 20 + 6, %arg9 * 5 + 2] : memref<40x70xf32>
          affine.store %cst, %arg6[%arg8 * 20 + 6, %arg9 * 5 + 3] : memref<40x70xf32>
          %165 = affine.load %arg4[%arg8 * 20 + 6, %arg7] : memref<40x50xf32>
          %166 = affine.load %arg5[%arg7, %arg9 * 5 + 3] : memref<50x70xf32>
          %167 = arith.mulf %165, %166 : f32
          %168 = affine.load %arg6[%arg8 * 20 + 6, %arg9 * 5 + 3] : memref<40x70xf32>
          %169 = arith.addf %168, %167 : f32
          affine.store %169, %arg6[%arg8 * 20 + 6, %arg9 * 5 + 3] : memref<40x70xf32>
          affine.store %cst, %arg6[%arg8 * 20 + 6, %arg9 * 5 + 4] : memref<40x70xf32>
          %170 = affine.load %arg4[%arg8 * 20 + 6, %arg7] : memref<40x50xf32>
          %171 = affine.load %arg5[%arg7, %arg9 * 5 + 4] : memref<50x70xf32>
          %172 = arith.mulf %170, %171 : f32
          %173 = affine.load %arg6[%arg8 * 20 + 6, %arg9 * 5 + 4] : memref<40x70xf32>
          %174 = arith.addf %173, %172 : f32
          affine.store %174, %arg6[%arg8 * 20 + 6, %arg9 * 5 + 4] : memref<40x70xf32>
          affine.store %cst, %arg6[%arg8 * 20 + 7, %arg9 * 5] : memref<40x70xf32>
          %175 = affine.load %arg4[%arg8 * 20 + 7, %arg7] : memref<40x50xf32>
          %176 = affine.load %arg5[%arg7, %arg9 * 5] : memref<50x70xf32>
          %177 = arith.mulf %175, %176 : f32
          %178 = affine.load %arg6[%arg8 * 20 + 7, %arg9 * 5] : memref<40x70xf32>
          %179 = arith.addf %178, %177 : f32
          affine.store %179, %arg6[%arg8 * 20 + 7, %arg9 * 5] : memref<40x70xf32>
          affine.store %cst, %arg6[%arg8 * 20 + 7, %arg9 * 5 + 1] : memref<40x70xf32>
          %180 = affine.load %arg4[%arg8 * 20 + 7, %arg7] : memref<40x50xf32>
          %181 = affine.load %arg5[%arg7, %arg9 * 5 + 1] : memref<50x70xf32>
          %182 = arith.mulf %180, %181 : f32
          %183 = affine.load %arg6[%arg8 * 20 + 7, %arg9 * 5 + 1] : memref<40x70xf32>
          %184 = arith.addf %183, %182 : f32
          affine.store %184, %arg6[%arg8 * 20 + 7, %arg9 * 5 + 1] : memref<40x70xf32>
          affine.store %cst, %arg6[%arg8 * 20 + 7, %arg9 * 5 + 2] : memref<40x70xf32>
          %185 = affine.load %arg4[%arg8 * 20 + 7, %arg7] : memref<40x50xf32>
          %186 = affine.load %arg5[%arg7, %arg9 * 5 + 2] : memref<50x70xf32>
          %187 = arith.mulf %185, %186 : f32
          %188 = affine.load %arg6[%arg8 * 20 + 7, %arg9 * 5 + 2] : memref<40x70xf32>
          %189 = arith.addf %188, %187 : f32
          affine.store %189, %arg6[%arg8 * 20 + 7, %arg9 * 5 + 2] : memref<40x70xf32>
          affine.store %cst, %arg6[%arg8 * 20 + 7, %arg9 * 5 + 3] : memref<40x70xf32>
          %190 = affine.load %arg4[%arg8 * 20 + 7, %arg7] : memref<40x50xf32>
          %191 = affine.load %arg5[%arg7, %arg9 * 5 + 3] : memref<50x70xf32>
          %192 = arith.mulf %190, %191 : f32
          %193 = affine.load %arg6[%arg8 * 20 + 7, %arg9 * 5 + 3] : memref<40x70xf32>
          %194 = arith.addf %193, %192 : f32
          affine.store %194, %arg6[%arg8 * 20 + 7, %arg9 * 5 + 3] : memref<40x70xf32>
          affine.store %cst, %arg6[%arg8 * 20 + 7, %arg9 * 5 + 4] : memref<40x70xf32>
          %195 = affine.load %arg4[%arg8 * 20 + 7, %arg7] : memref<40x50xf32>
          %196 = affine.load %arg5[%arg7, %arg9 * 5 + 4] : memref<50x70xf32>
          %197 = arith.mulf %195, %196 : f32
          %198 = affine.load %arg6[%arg8 * 20 + 7, %arg9 * 5 + 4] : memref<40x70xf32>
          %199 = arith.addf %198, %197 : f32
          affine.store %199, %arg6[%arg8 * 20 + 7, %arg9 * 5 + 4] : memref<40x70xf32>
          affine.store %cst, %arg6[%arg8 * 20 + 8, %arg9 * 5] : memref<40x70xf32>
          %200 = affine.load %arg4[%arg8 * 20 + 8, %arg7] : memref<40x50xf32>
          %201 = affine.load %arg5[%arg7, %arg9 * 5] : memref<50x70xf32>
          %202 = arith.mulf %200, %201 : f32
          %203 = affine.load %arg6[%arg8 * 20 + 8, %arg9 * 5] : memref<40x70xf32>
          %204 = arith.addf %203, %202 : f32
          affine.store %204, %arg6[%arg8 * 20 + 8, %arg9 * 5] : memref<40x70xf32>
          affine.store %cst, %arg6[%arg8 * 20 + 8, %arg9 * 5 + 1] : memref<40x70xf32>
          %205 = affine.load %arg4[%arg8 * 20 + 8, %arg7] : memref<40x50xf32>
          %206 = affine.load %arg5[%arg7, %arg9 * 5 + 1] : memref<50x70xf32>
          %207 = arith.mulf %205, %206 : f32
          %208 = affine.load %arg6[%arg8 * 20 + 8, %arg9 * 5 + 1] : memref<40x70xf32>
          %209 = arith.addf %208, %207 : f32
          affine.store %209, %arg6[%arg8 * 20 + 8, %arg9 * 5 + 1] : memref<40x70xf32>
          affine.store %cst, %arg6[%arg8 * 20 + 8, %arg9 * 5 + 2] : memref<40x70xf32>
          %210 = affine.load %arg4[%arg8 * 20 + 8, %arg7] : memref<40x50xf32>
          %211 = affine.load %arg5[%arg7, %arg9 * 5 + 2] : memref<50x70xf32>
          %212 = arith.mulf %210, %211 : f32
          %213 = affine.load %arg6[%arg8 * 20 + 8, %arg9 * 5 + 2] : memref<40x70xf32>
          %214 = arith.addf %213, %212 : f32
          affine.store %214, %arg6[%arg8 * 20 + 8, %arg9 * 5 + 2] : memref<40x70xf32>
          affine.store %cst, %arg6[%arg8 * 20 + 8, %arg9 * 5 + 3] : memref<40x70xf32>
          %215 = affine.load %arg4[%arg8 * 20 + 8, %arg7] : memref<40x50xf32>
          %216 = affine.load %arg5[%arg7, %arg9 * 5 + 3] : memref<50x70xf32>
          %217 = arith.mulf %215, %216 : f32
          %218 = affine.load %arg6[%arg8 * 20 + 8, %arg9 * 5 + 3] : memref<40x70xf32>
          %219 = arith.addf %218, %217 : f32
          affine.store %219, %arg6[%arg8 * 20 + 8, %arg9 * 5 + 3] : memref<40x70xf32>
          affine.store %cst, %arg6[%arg8 * 20 + 8, %arg9 * 5 + 4] : memref<40x70xf32>
          %220 = affine.load %arg4[%arg8 * 20 + 8, %arg7] : memref<40x50xf32>
          %221 = affine.load %arg5[%arg7, %arg9 * 5 + 4] : memref<50x70xf32>
          %222 = arith.mulf %220, %221 : f32
          %223 = affine.load %arg6[%arg8 * 20 + 8, %arg9 * 5 + 4] : memref<40x70xf32>
          %224 = arith.addf %223, %222 : f32
          affine.store %224, %arg6[%arg8 * 20 + 8, %arg9 * 5 + 4] : memref<40x70xf32>
          affine.store %cst, %arg6[%arg8 * 20 + 9, %arg9 * 5] : memref<40x70xf32>
          %225 = affine.load %arg4[%arg8 * 20 + 9, %arg7] : memref<40x50xf32>
          %226 = affine.load %arg5[%arg7, %arg9 * 5] : memref<50x70xf32>
          %227 = arith.mulf %225, %226 : f32
          %228 = affine.load %arg6[%arg8 * 20 + 9, %arg9 * 5] : memref<40x70xf32>
          %229 = arith.addf %228, %227 : f32
          affine.store %229, %arg6[%arg8 * 20 + 9, %arg9 * 5] : memref<40x70xf32>
          affine.store %cst, %arg6[%arg8 * 20 + 9, %arg9 * 5 + 1] : memref<40x70xf32>
          %230 = affine.load %arg4[%arg8 * 20 + 9, %arg7] : memref<40x50xf32>
          %231 = affine.load %arg5[%arg7, %arg9 * 5 + 1] : memref<50x70xf32>
          %232 = arith.mulf %230, %231 : f32
          %233 = affine.load %arg6[%arg8 * 20 + 9, %arg9 * 5 + 1] : memref<40x70xf32>
          %234 = arith.addf %233, %232 : f32
          affine.store %234, %arg6[%arg8 * 20 + 9, %arg9 * 5 + 1] : memref<40x70xf32>
          affine.store %cst, %arg6[%arg8 * 20 + 9, %arg9 * 5 + 2] : memref<40x70xf32>
          %235 = affine.load %arg4[%arg8 * 20 + 9, %arg7] : memref<40x50xf32>
          %236 = affine.load %arg5[%arg7, %arg9 * 5 + 2] : memref<50x70xf32>
          %237 = arith.mulf %235, %236 : f32
          %238 = affine.load %arg6[%arg8 * 20 + 9, %arg9 * 5 + 2] : memref<40x70xf32>
          %239 = arith.addf %238, %237 : f32
          affine.store %239, %arg6[%arg8 * 20 + 9, %arg9 * 5 + 2] : memref<40x70xf32>
          affine.store %cst, %arg6[%arg8 * 20 + 9, %arg9 * 5 + 3] : memref<40x70xf32>
          %240 = affine.load %arg4[%arg8 * 20 + 9, %arg7] : memref<40x50xf32>
          %241 = affine.load %arg5[%arg7, %arg9 * 5 + 3] : memref<50x70xf32>
          %242 = arith.mulf %240, %241 : f32
          %243 = affine.load %arg6[%arg8 * 20 + 9, %arg9 * 5 + 3] : memref<40x70xf32>
          %244 = arith.addf %243, %242 : f32
          affine.store %244, %arg6[%arg8 * 20 + 9, %arg9 * 5 + 3] : memref<40x70xf32>
          affine.store %cst, %arg6[%arg8 * 20 + 9, %arg9 * 5 + 4] : memref<40x70xf32>
          %245 = affine.load %arg4[%arg8 * 20 + 9, %arg7] : memref<40x50xf32>
          %246 = affine.load %arg5[%arg7, %arg9 * 5 + 4] : memref<50x70xf32>
          %247 = arith.mulf %245, %246 : f32
          %248 = affine.load %arg6[%arg8 * 20 + 9, %arg9 * 5 + 4] : memref<40x70xf32>
          %249 = arith.addf %248, %247 : f32
          affine.store %249, %arg6[%arg8 * 20 + 9, %arg9 * 5 + 4] : memref<40x70xf32>
          affine.store %cst, %arg6[%arg8 * 20 + 10, %arg9 * 5] : memref<40x70xf32>
          %250 = affine.load %arg4[%arg8 * 20 + 10, %arg7] : memref<40x50xf32>
          %251 = affine.load %arg5[%arg7, %arg9 * 5] : memref<50x70xf32>
          %252 = arith.mulf %250, %251 : f32
          %253 = affine.load %arg6[%arg8 * 20 + 10, %arg9 * 5] : memref<40x70xf32>
          %254 = arith.addf %253, %252 : f32
          affine.store %254, %arg6[%arg8 * 20 + 10, %arg9 * 5] : memref<40x70xf32>
          affine.store %cst, %arg6[%arg8 * 20 + 10, %arg9 * 5 + 1] : memref<40x70xf32>
          %255 = affine.load %arg4[%arg8 * 20 + 10, %arg7] : memref<40x50xf32>
          %256 = affine.load %arg5[%arg7, %arg9 * 5 + 1] : memref<50x70xf32>
          %257 = arith.mulf %255, %256 : f32
          %258 = affine.load %arg6[%arg8 * 20 + 10, %arg9 * 5 + 1] : memref<40x70xf32>
          %259 = arith.addf %258, %257 : f32
          affine.store %259, %arg6[%arg8 * 20 + 10, %arg9 * 5 + 1] : memref<40x70xf32>
          affine.store %cst, %arg6[%arg8 * 20 + 10, %arg9 * 5 + 2] : memref<40x70xf32>
          %260 = affine.load %arg4[%arg8 * 20 + 10, %arg7] : memref<40x50xf32>
          %261 = affine.load %arg5[%arg7, %arg9 * 5 + 2] : memref<50x70xf32>
          %262 = arith.mulf %260, %261 : f32
          %263 = affine.load %arg6[%arg8 * 20 + 10, %arg9 * 5 + 2] : memref<40x70xf32>
          %264 = arith.addf %263, %262 : f32
          affine.store %264, %arg6[%arg8 * 20 + 10, %arg9 * 5 + 2] : memref<40x70xf32>
          affine.store %cst, %arg6[%arg8 * 20 + 10, %arg9 * 5 + 3] : memref<40x70xf32>
          %265 = affine.load %arg4[%arg8 * 20 + 10, %arg7] : memref<40x50xf32>
          %266 = affine.load %arg5[%arg7, %arg9 * 5 + 3] : memref<50x70xf32>
          %267 = arith.mulf %265, %266 : f32
          %268 = affine.load %arg6[%arg8 * 20 + 10, %arg9 * 5 + 3] : memref<40x70xf32>
          %269 = arith.addf %268, %267 : f32
          affine.store %269, %arg6[%arg8 * 20 + 10, %arg9 * 5 + 3] : memref<40x70xf32>
          affine.store %cst, %arg6[%arg8 * 20 + 10, %arg9 * 5 + 4] : memref<40x70xf32>
          %270 = affine.load %arg4[%arg8 * 20 + 10, %arg7] : memref<40x50xf32>
          %271 = affine.load %arg5[%arg7, %arg9 * 5 + 4] : memref<50x70xf32>
          %272 = arith.mulf %270, %271 : f32
          %273 = affine.load %arg6[%arg8 * 20 + 10, %arg9 * 5 + 4] : memref<40x70xf32>
          %274 = arith.addf %273, %272 : f32
          affine.store %274, %arg6[%arg8 * 20 + 10, %arg9 * 5 + 4] : memref<40x70xf32>
          affine.store %cst, %arg6[%arg8 * 20 + 11, %arg9 * 5] : memref<40x70xf32>
          %275 = affine.load %arg4[%arg8 * 20 + 11, %arg7] : memref<40x50xf32>
          %276 = affine.load %arg5[%arg7, %arg9 * 5] : memref<50x70xf32>
          %277 = arith.mulf %275, %276 : f32
          %278 = affine.load %arg6[%arg8 * 20 + 11, %arg9 * 5] : memref<40x70xf32>
          %279 = arith.addf %278, %277 : f32
          affine.store %279, %arg6[%arg8 * 20 + 11, %arg9 * 5] : memref<40x70xf32>
          affine.store %cst, %arg6[%arg8 * 20 + 11, %arg9 * 5 + 1] : memref<40x70xf32>
          %280 = affine.load %arg4[%arg8 * 20 + 11, %arg7] : memref<40x50xf32>
          %281 = affine.load %arg5[%arg7, %arg9 * 5 + 1] : memref<50x70xf32>
          %282 = arith.mulf %280, %281 : f32
          %283 = affine.load %arg6[%arg8 * 20 + 11, %arg9 * 5 + 1] : memref<40x70xf32>
          %284 = arith.addf %283, %282 : f32
          affine.store %284, %arg6[%arg8 * 20 + 11, %arg9 * 5 + 1] : memref<40x70xf32>
          affine.store %cst, %arg6[%arg8 * 20 + 11, %arg9 * 5 + 2] : memref<40x70xf32>
          %285 = affine.load %arg4[%arg8 * 20 + 11, %arg7] : memref<40x50xf32>
          %286 = affine.load %arg5[%arg7, %arg9 * 5 + 2] : memref<50x70xf32>
          %287 = arith.mulf %285, %286 : f32
          %288 = affine.load %arg6[%arg8 * 20 + 11, %arg9 * 5 + 2] : memref<40x70xf32>
          %289 = arith.addf %288, %287 : f32
          affine.store %289, %arg6[%arg8 * 20 + 11, %arg9 * 5 + 2] : memref<40x70xf32>
          affine.store %cst, %arg6[%arg8 * 20 + 11, %arg9 * 5 + 3] : memref<40x70xf32>
          %290 = affine.load %arg4[%arg8 * 20 + 11, %arg7] : memref<40x50xf32>
          %291 = affine.load %arg5[%arg7, %arg9 * 5 + 3] : memref<50x70xf32>
          %292 = arith.mulf %290, %291 : f32
          %293 = affine.load %arg6[%arg8 * 20 + 11, %arg9 * 5 + 3] : memref<40x70xf32>
          %294 = arith.addf %293, %292 : f32
          affine.store %294, %arg6[%arg8 * 20 + 11, %arg9 * 5 + 3] : memref<40x70xf32>
          affine.store %cst, %arg6[%arg8 * 20 + 11, %arg9 * 5 + 4] : memref<40x70xf32>
          %295 = affine.load %arg4[%arg8 * 20 + 11, %arg7] : memref<40x50xf32>
          %296 = affine.load %arg5[%arg7, %arg9 * 5 + 4] : memref<50x70xf32>
          %297 = arith.mulf %295, %296 : f32
          %298 = affine.load %arg6[%arg8 * 20 + 11, %arg9 * 5 + 4] : memref<40x70xf32>
          %299 = arith.addf %298, %297 : f32
          affine.store %299, %arg6[%arg8 * 20 + 11, %arg9 * 5 + 4] : memref<40x70xf32>
          affine.store %cst, %arg6[%arg8 * 20 + 12, %arg9 * 5] : memref<40x70xf32>
          %300 = affine.load %arg4[%arg8 * 20 + 12, %arg7] : memref<40x50xf32>
          %301 = affine.load %arg5[%arg7, %arg9 * 5] : memref<50x70xf32>
          %302 = arith.mulf %300, %301 : f32
          %303 = affine.load %arg6[%arg8 * 20 + 12, %arg9 * 5] : memref<40x70xf32>
          %304 = arith.addf %303, %302 : f32
          affine.store %304, %arg6[%arg8 * 20 + 12, %arg9 * 5] : memref<40x70xf32>
          affine.store %cst, %arg6[%arg8 * 20 + 12, %arg9 * 5 + 1] : memref<40x70xf32>
          %305 = affine.load %arg4[%arg8 * 20 + 12, %arg7] : memref<40x50xf32>
          %306 = affine.load %arg5[%arg7, %arg9 * 5 + 1] : memref<50x70xf32>
          %307 = arith.mulf %305, %306 : f32
          %308 = affine.load %arg6[%arg8 * 20 + 12, %arg9 * 5 + 1] : memref<40x70xf32>
          %309 = arith.addf %308, %307 : f32
          affine.store %309, %arg6[%arg8 * 20 + 12, %arg9 * 5 + 1] : memref<40x70xf32>
          affine.store %cst, %arg6[%arg8 * 20 + 12, %arg9 * 5 + 2] : memref<40x70xf32>
          %310 = affine.load %arg4[%arg8 * 20 + 12, %arg7] : memref<40x50xf32>
          %311 = affine.load %arg5[%arg7, %arg9 * 5 + 2] : memref<50x70xf32>
          %312 = arith.mulf %310, %311 : f32
          %313 = affine.load %arg6[%arg8 * 20 + 12, %arg9 * 5 + 2] : memref<40x70xf32>
          %314 = arith.addf %313, %312 : f32
          affine.store %314, %arg6[%arg8 * 20 + 12, %arg9 * 5 + 2] : memref<40x70xf32>
          affine.store %cst, %arg6[%arg8 * 20 + 12, %arg9 * 5 + 3] : memref<40x70xf32>
          %315 = affine.load %arg4[%arg8 * 20 + 12, %arg7] : memref<40x50xf32>
          %316 = affine.load %arg5[%arg7, %arg9 * 5 + 3] : memref<50x70xf32>
          %317 = arith.mulf %315, %316 : f32
          %318 = affine.load %arg6[%arg8 * 20 + 12, %arg9 * 5 + 3] : memref<40x70xf32>
          %319 = arith.addf %318, %317 : f32
          affine.store %319, %arg6[%arg8 * 20 + 12, %arg9 * 5 + 3] : memref<40x70xf32>
          affine.store %cst, %arg6[%arg8 * 20 + 12, %arg9 * 5 + 4] : memref<40x70xf32>
          %320 = affine.load %arg4[%arg8 * 20 + 12, %arg7] : memref<40x50xf32>
          %321 = affine.load %arg5[%arg7, %arg9 * 5 + 4] : memref<50x70xf32>
          %322 = arith.mulf %320, %321 : f32
          %323 = affine.load %arg6[%arg8 * 20 + 12, %arg9 * 5 + 4] : memref<40x70xf32>
          %324 = arith.addf %323, %322 : f32
          affine.store %324, %arg6[%arg8 * 20 + 12, %arg9 * 5 + 4] : memref<40x70xf32>
          affine.store %cst, %arg6[%arg8 * 20 + 13, %arg9 * 5] : memref<40x70xf32>
          %325 = affine.load %arg4[%arg8 * 20 + 13, %arg7] : memref<40x50xf32>
          %326 = affine.load %arg5[%arg7, %arg9 * 5] : memref<50x70xf32>
          %327 = arith.mulf %325, %326 : f32
          %328 = affine.load %arg6[%arg8 * 20 + 13, %arg9 * 5] : memref<40x70xf32>
          %329 = arith.addf %328, %327 : f32
          affine.store %329, %arg6[%arg8 * 20 + 13, %arg9 * 5] : memref<40x70xf32>
          affine.store %cst, %arg6[%arg8 * 20 + 13, %arg9 * 5 + 1] : memref<40x70xf32>
          %330 = affine.load %arg4[%arg8 * 20 + 13, %arg7] : memref<40x50xf32>
          %331 = affine.load %arg5[%arg7, %arg9 * 5 + 1] : memref<50x70xf32>
          %332 = arith.mulf %330, %331 : f32
          %333 = affine.load %arg6[%arg8 * 20 + 13, %arg9 * 5 + 1] : memref<40x70xf32>
          %334 = arith.addf %333, %332 : f32
          affine.store %334, %arg6[%arg8 * 20 + 13, %arg9 * 5 + 1] : memref<40x70xf32>
          affine.store %cst, %arg6[%arg8 * 20 + 13, %arg9 * 5 + 2] : memref<40x70xf32>
          %335 = affine.load %arg4[%arg8 * 20 + 13, %arg7] : memref<40x50xf32>
          %336 = affine.load %arg5[%arg7, %arg9 * 5 + 2] : memref<50x70xf32>
          %337 = arith.mulf %335, %336 : f32
          %338 = affine.load %arg6[%arg8 * 20 + 13, %arg9 * 5 + 2] : memref<40x70xf32>
          %339 = arith.addf %338, %337 : f32
          affine.store %339, %arg6[%arg8 * 20 + 13, %arg9 * 5 + 2] : memref<40x70xf32>
          affine.store %cst, %arg6[%arg8 * 20 + 13, %arg9 * 5 + 3] : memref<40x70xf32>
          %340 = affine.load %arg4[%arg8 * 20 + 13, %arg7] : memref<40x50xf32>
          %341 = affine.load %arg5[%arg7, %arg9 * 5 + 3] : memref<50x70xf32>
          %342 = arith.mulf %340, %341 : f32
          %343 = affine.load %arg6[%arg8 * 20 + 13, %arg9 * 5 + 3] : memref<40x70xf32>
          %344 = arith.addf %343, %342 : f32
          affine.store %344, %arg6[%arg8 * 20 + 13, %arg9 * 5 + 3] : memref<40x70xf32>
          affine.store %cst, %arg6[%arg8 * 20 + 13, %arg9 * 5 + 4] : memref<40x70xf32>
          %345 = affine.load %arg4[%arg8 * 20 + 13, %arg7] : memref<40x50xf32>
          %346 = affine.load %arg5[%arg7, %arg9 * 5 + 4] : memref<50x70xf32>
          %347 = arith.mulf %345, %346 : f32
          %348 = affine.load %arg6[%arg8 * 20 + 13, %arg9 * 5 + 4] : memref<40x70xf32>
          %349 = arith.addf %348, %347 : f32
          affine.store %349, %arg6[%arg8 * 20 + 13, %arg9 * 5 + 4] : memref<40x70xf32>
          affine.store %cst, %arg6[%arg8 * 20 + 14, %arg9 * 5] : memref<40x70xf32>
          %350 = affine.load %arg4[%arg8 * 20 + 14, %arg7] : memref<40x50xf32>
          %351 = affine.load %arg5[%arg7, %arg9 * 5] : memref<50x70xf32>
          %352 = arith.mulf %350, %351 : f32
          %353 = affine.load %arg6[%arg8 * 20 + 14, %arg9 * 5] : memref<40x70xf32>
          %354 = arith.addf %353, %352 : f32
          affine.store %354, %arg6[%arg8 * 20 + 14, %arg9 * 5] : memref<40x70xf32>
          affine.store %cst, %arg6[%arg8 * 20 + 14, %arg9 * 5 + 1] : memref<40x70xf32>
          %355 = affine.load %arg4[%arg8 * 20 + 14, %arg7] : memref<40x50xf32>
          %356 = affine.load %arg5[%arg7, %arg9 * 5 + 1] : memref<50x70xf32>
          %357 = arith.mulf %355, %356 : f32
          %358 = affine.load %arg6[%arg8 * 20 + 14, %arg9 * 5 + 1] : memref<40x70xf32>
          %359 = arith.addf %358, %357 : f32
          affine.store %359, %arg6[%arg8 * 20 + 14, %arg9 * 5 + 1] : memref<40x70xf32>
          affine.store %cst, %arg6[%arg8 * 20 + 14, %arg9 * 5 + 2] : memref<40x70xf32>
          %360 = affine.load %arg4[%arg8 * 20 + 14, %arg7] : memref<40x50xf32>
          %361 = affine.load %arg5[%arg7, %arg9 * 5 + 2] : memref<50x70xf32>
          %362 = arith.mulf %360, %361 : f32
          %363 = affine.load %arg6[%arg8 * 20 + 14, %arg9 * 5 + 2] : memref<40x70xf32>
          %364 = arith.addf %363, %362 : f32
          affine.store %364, %arg6[%arg8 * 20 + 14, %arg9 * 5 + 2] : memref<40x70xf32>
          affine.store %cst, %arg6[%arg8 * 20 + 14, %arg9 * 5 + 3] : memref<40x70xf32>
          %365 = affine.load %arg4[%arg8 * 20 + 14, %arg7] : memref<40x50xf32>
          %366 = affine.load %arg5[%arg7, %arg9 * 5 + 3] : memref<50x70xf32>
          %367 = arith.mulf %365, %366 : f32
          %368 = affine.load %arg6[%arg8 * 20 + 14, %arg9 * 5 + 3] : memref<40x70xf32>
          %369 = arith.addf %368, %367 : f32
          affine.store %369, %arg6[%arg8 * 20 + 14, %arg9 * 5 + 3] : memref<40x70xf32>
          affine.store %cst, %arg6[%arg8 * 20 + 14, %arg9 * 5 + 4] : memref<40x70xf32>
          %370 = affine.load %arg4[%arg8 * 20 + 14, %arg7] : memref<40x50xf32>
          %371 = affine.load %arg5[%arg7, %arg9 * 5 + 4] : memref<50x70xf32>
          %372 = arith.mulf %370, %371 : f32
          %373 = affine.load %arg6[%arg8 * 20 + 14, %arg9 * 5 + 4] : memref<40x70xf32>
          %374 = arith.addf %373, %372 : f32
          affine.store %374, %arg6[%arg8 * 20 + 14, %arg9 * 5 + 4] : memref<40x70xf32>
          affine.store %cst, %arg6[%arg8 * 20 + 15, %arg9 * 5] : memref<40x70xf32>
          %375 = affine.load %arg4[%arg8 * 20 + 15, %arg7] : memref<40x50xf32>
          %376 = affine.load %arg5[%arg7, %arg9 * 5] : memref<50x70xf32>
          %377 = arith.mulf %375, %376 : f32
          %378 = affine.load %arg6[%arg8 * 20 + 15, %arg9 * 5] : memref<40x70xf32>
          %379 = arith.addf %378, %377 : f32
          affine.store %379, %arg6[%arg8 * 20 + 15, %arg9 * 5] : memref<40x70xf32>
          affine.store %cst, %arg6[%arg8 * 20 + 15, %arg9 * 5 + 1] : memref<40x70xf32>
          %380 = affine.load %arg4[%arg8 * 20 + 15, %arg7] : memref<40x50xf32>
          %381 = affine.load %arg5[%arg7, %arg9 * 5 + 1] : memref<50x70xf32>
          %382 = arith.mulf %380, %381 : f32
          %383 = affine.load %arg6[%arg8 * 20 + 15, %arg9 * 5 + 1] : memref<40x70xf32>
          %384 = arith.addf %383, %382 : f32
          affine.store %384, %arg6[%arg8 * 20 + 15, %arg9 * 5 + 1] : memref<40x70xf32>
          affine.store %cst, %arg6[%arg8 * 20 + 15, %arg9 * 5 + 2] : memref<40x70xf32>
          %385 = affine.load %arg4[%arg8 * 20 + 15, %arg7] : memref<40x50xf32>
          %386 = affine.load %arg5[%arg7, %arg9 * 5 + 2] : memref<50x70xf32>
          %387 = arith.mulf %385, %386 : f32
          %388 = affine.load %arg6[%arg8 * 20 + 15, %arg9 * 5 + 2] : memref<40x70xf32>
          %389 = arith.addf %388, %387 : f32
          affine.store %389, %arg6[%arg8 * 20 + 15, %arg9 * 5 + 2] : memref<40x70xf32>
          affine.store %cst, %arg6[%arg8 * 20 + 15, %arg9 * 5 + 3] : memref<40x70xf32>
          %390 = affine.load %arg4[%arg8 * 20 + 15, %arg7] : memref<40x50xf32>
          %391 = affine.load %arg5[%arg7, %arg9 * 5 + 3] : memref<50x70xf32>
          %392 = arith.mulf %390, %391 : f32
          %393 = affine.load %arg6[%arg8 * 20 + 15, %arg9 * 5 + 3] : memref<40x70xf32>
          %394 = arith.addf %393, %392 : f32
          affine.store %394, %arg6[%arg8 * 20 + 15, %arg9 * 5 + 3] : memref<40x70xf32>
          affine.store %cst, %arg6[%arg8 * 20 + 15, %arg9 * 5 + 4] : memref<40x70xf32>
          %395 = affine.load %arg4[%arg8 * 20 + 15, %arg7] : memref<40x50xf32>
          %396 = affine.load %arg5[%arg7, %arg9 * 5 + 4] : memref<50x70xf32>
          %397 = arith.mulf %395, %396 : f32
          %398 = affine.load %arg6[%arg8 * 20 + 15, %arg9 * 5 + 4] : memref<40x70xf32>
          %399 = arith.addf %398, %397 : f32
          affine.store %399, %arg6[%arg8 * 20 + 15, %arg9 * 5 + 4] : memref<40x70xf32>
          affine.store %cst, %arg6[%arg8 * 20 + 16, %arg9 * 5] : memref<40x70xf32>
          %400 = affine.load %arg4[%arg8 * 20 + 16, %arg7] : memref<40x50xf32>
          %401 = affine.load %arg5[%arg7, %arg9 * 5] : memref<50x70xf32>
          %402 = arith.mulf %400, %401 : f32
          %403 = affine.load %arg6[%arg8 * 20 + 16, %arg9 * 5] : memref<40x70xf32>
          %404 = arith.addf %403, %402 : f32
          affine.store %404, %arg6[%arg8 * 20 + 16, %arg9 * 5] : memref<40x70xf32>
          affine.store %cst, %arg6[%arg8 * 20 + 16, %arg9 * 5 + 1] : memref<40x70xf32>
          %405 = affine.load %arg4[%arg8 * 20 + 16, %arg7] : memref<40x50xf32>
          %406 = affine.load %arg5[%arg7, %arg9 * 5 + 1] : memref<50x70xf32>
          %407 = arith.mulf %405, %406 : f32
          %408 = affine.load %arg6[%arg8 * 20 + 16, %arg9 * 5 + 1] : memref<40x70xf32>
          %409 = arith.addf %408, %407 : f32
          affine.store %409, %arg6[%arg8 * 20 + 16, %arg9 * 5 + 1] : memref<40x70xf32>
          affine.store %cst, %arg6[%arg8 * 20 + 16, %arg9 * 5 + 2] : memref<40x70xf32>
          %410 = affine.load %arg4[%arg8 * 20 + 16, %arg7] : memref<40x50xf32>
          %411 = affine.load %arg5[%arg7, %arg9 * 5 + 2] : memref<50x70xf32>
          %412 = arith.mulf %410, %411 : f32
          %413 = affine.load %arg6[%arg8 * 20 + 16, %arg9 * 5 + 2] : memref<40x70xf32>
          %414 = arith.addf %413, %412 : f32
          affine.store %414, %arg6[%arg8 * 20 + 16, %arg9 * 5 + 2] : memref<40x70xf32>
          affine.store %cst, %arg6[%arg8 * 20 + 16, %arg9 * 5 + 3] : memref<40x70xf32>
          %415 = affine.load %arg4[%arg8 * 20 + 16, %arg7] : memref<40x50xf32>
          %416 = affine.load %arg5[%arg7, %arg9 * 5 + 3] : memref<50x70xf32>
          %417 = arith.mulf %415, %416 : f32
          %418 = affine.load %arg6[%arg8 * 20 + 16, %arg9 * 5 + 3] : memref<40x70xf32>
          %419 = arith.addf %418, %417 : f32
          affine.store %419, %arg6[%arg8 * 20 + 16, %arg9 * 5 + 3] : memref<40x70xf32>
          affine.store %cst, %arg6[%arg8 * 20 + 16, %arg9 * 5 + 4] : memref<40x70xf32>
          %420 = affine.load %arg4[%arg8 * 20 + 16, %arg7] : memref<40x50xf32>
          %421 = affine.load %arg5[%arg7, %arg9 * 5 + 4] : memref<50x70xf32>
          %422 = arith.mulf %420, %421 : f32
          %423 = affine.load %arg6[%arg8 * 20 + 16, %arg9 * 5 + 4] : memref<40x70xf32>
          %424 = arith.addf %423, %422 : f32
          affine.store %424, %arg6[%arg8 * 20 + 16, %arg9 * 5 + 4] : memref<40x70xf32>
          affine.store %cst, %arg6[%arg8 * 20 + 17, %arg9 * 5] : memref<40x70xf32>
          %425 = affine.load %arg4[%arg8 * 20 + 17, %arg7] : memref<40x50xf32>
          %426 = affine.load %arg5[%arg7, %arg9 * 5] : memref<50x70xf32>
          %427 = arith.mulf %425, %426 : f32
          %428 = affine.load %arg6[%arg8 * 20 + 17, %arg9 * 5] : memref<40x70xf32>
          %429 = arith.addf %428, %427 : f32
          affine.store %429, %arg6[%arg8 * 20 + 17, %arg9 * 5] : memref<40x70xf32>
          affine.store %cst, %arg6[%arg8 * 20 + 17, %arg9 * 5 + 1] : memref<40x70xf32>
          %430 = affine.load %arg4[%arg8 * 20 + 17, %arg7] : memref<40x50xf32>
          %431 = affine.load %arg5[%arg7, %arg9 * 5 + 1] : memref<50x70xf32>
          %432 = arith.mulf %430, %431 : f32
          %433 = affine.load %arg6[%arg8 * 20 + 17, %arg9 * 5 + 1] : memref<40x70xf32>
          %434 = arith.addf %433, %432 : f32
          affine.store %434, %arg6[%arg8 * 20 + 17, %arg9 * 5 + 1] : memref<40x70xf32>
          affine.store %cst, %arg6[%arg8 * 20 + 17, %arg9 * 5 + 2] : memref<40x70xf32>
          %435 = affine.load %arg4[%arg8 * 20 + 17, %arg7] : memref<40x50xf32>
          %436 = affine.load %arg5[%arg7, %arg9 * 5 + 2] : memref<50x70xf32>
          %437 = arith.mulf %435, %436 : f32
          %438 = affine.load %arg6[%arg8 * 20 + 17, %arg9 * 5 + 2] : memref<40x70xf32>
          %439 = arith.addf %438, %437 : f32
          affine.store %439, %arg6[%arg8 * 20 + 17, %arg9 * 5 + 2] : memref<40x70xf32>
          affine.store %cst, %arg6[%arg8 * 20 + 17, %arg9 * 5 + 3] : memref<40x70xf32>
          %440 = affine.load %arg4[%arg8 * 20 + 17, %arg7] : memref<40x50xf32>
          %441 = affine.load %arg5[%arg7, %arg9 * 5 + 3] : memref<50x70xf32>
          %442 = arith.mulf %440, %441 : f32
          %443 = affine.load %arg6[%arg8 * 20 + 17, %arg9 * 5 + 3] : memref<40x70xf32>
          %444 = arith.addf %443, %442 : f32
          affine.store %444, %arg6[%arg8 * 20 + 17, %arg9 * 5 + 3] : memref<40x70xf32>
          affine.store %cst, %arg6[%arg8 * 20 + 17, %arg9 * 5 + 4] : memref<40x70xf32>
          %445 = affine.load %arg4[%arg8 * 20 + 17, %arg7] : memref<40x50xf32>
          %446 = affine.load %arg5[%arg7, %arg9 * 5 + 4] : memref<50x70xf32>
          %447 = arith.mulf %445, %446 : f32
          %448 = affine.load %arg6[%arg8 * 20 + 17, %arg9 * 5 + 4] : memref<40x70xf32>
          %449 = arith.addf %448, %447 : f32
          affine.store %449, %arg6[%arg8 * 20 + 17, %arg9 * 5 + 4] : memref<40x70xf32>
          affine.store %cst, %arg6[%arg8 * 20 + 18, %arg9 * 5] : memref<40x70xf32>
          %450 = affine.load %arg4[%arg8 * 20 + 18, %arg7] : memref<40x50xf32>
          %451 = affine.load %arg5[%arg7, %arg9 * 5] : memref<50x70xf32>
          %452 = arith.mulf %450, %451 : f32
          %453 = affine.load %arg6[%arg8 * 20 + 18, %arg9 * 5] : memref<40x70xf32>
          %454 = arith.addf %453, %452 : f32
          affine.store %454, %arg6[%arg8 * 20 + 18, %arg9 * 5] : memref<40x70xf32>
          affine.store %cst, %arg6[%arg8 * 20 + 18, %arg9 * 5 + 1] : memref<40x70xf32>
          %455 = affine.load %arg4[%arg8 * 20 + 18, %arg7] : memref<40x50xf32>
          %456 = affine.load %arg5[%arg7, %arg9 * 5 + 1] : memref<50x70xf32>
          %457 = arith.mulf %455, %456 : f32
          %458 = affine.load %arg6[%arg8 * 20 + 18, %arg9 * 5 + 1] : memref<40x70xf32>
          %459 = arith.addf %458, %457 : f32
          affine.store %459, %arg6[%arg8 * 20 + 18, %arg9 * 5 + 1] : memref<40x70xf32>
          affine.store %cst, %arg6[%arg8 * 20 + 18, %arg9 * 5 + 2] : memref<40x70xf32>
          %460 = affine.load %arg4[%arg8 * 20 + 18, %arg7] : memref<40x50xf32>
          %461 = affine.load %arg5[%arg7, %arg9 * 5 + 2] : memref<50x70xf32>
          %462 = arith.mulf %460, %461 : f32
          %463 = affine.load %arg6[%arg8 * 20 + 18, %arg9 * 5 + 2] : memref<40x70xf32>
          %464 = arith.addf %463, %462 : f32
          affine.store %464, %arg6[%arg8 * 20 + 18, %arg9 * 5 + 2] : memref<40x70xf32>
          affine.store %cst, %arg6[%arg8 * 20 + 18, %arg9 * 5 + 3] : memref<40x70xf32>
          %465 = affine.load %arg4[%arg8 * 20 + 18, %arg7] : memref<40x50xf32>
          %466 = affine.load %arg5[%arg7, %arg9 * 5 + 3] : memref<50x70xf32>
          %467 = arith.mulf %465, %466 : f32
          %468 = affine.load %arg6[%arg8 * 20 + 18, %arg9 * 5 + 3] : memref<40x70xf32>
          %469 = arith.addf %468, %467 : f32
          affine.store %469, %arg6[%arg8 * 20 + 18, %arg9 * 5 + 3] : memref<40x70xf32>
          affine.store %cst, %arg6[%arg8 * 20 + 18, %arg9 * 5 + 4] : memref<40x70xf32>
          %470 = affine.load %arg4[%arg8 * 20 + 18, %arg7] : memref<40x50xf32>
          %471 = affine.load %arg5[%arg7, %arg9 * 5 + 4] : memref<50x70xf32>
          %472 = arith.mulf %470, %471 : f32
          %473 = affine.load %arg6[%arg8 * 20 + 18, %arg9 * 5 + 4] : memref<40x70xf32>
          %474 = arith.addf %473, %472 : f32
          affine.store %474, %arg6[%arg8 * 20 + 18, %arg9 * 5 + 4] : memref<40x70xf32>
          affine.store %cst, %arg6[%arg8 * 20 + 19, %arg9 * 5] : memref<40x70xf32>
          %475 = affine.load %arg4[%arg8 * 20 + 19, %arg7] : memref<40x50xf32>
          %476 = affine.load %arg5[%arg7, %arg9 * 5] : memref<50x70xf32>
          %477 = arith.mulf %475, %476 : f32
          %478 = affine.load %arg6[%arg8 * 20 + 19, %arg9 * 5] : memref<40x70xf32>
          %479 = arith.addf %478, %477 : f32
          affine.store %479, %arg6[%arg8 * 20 + 19, %arg9 * 5] : memref<40x70xf32>
          affine.store %cst, %arg6[%arg8 * 20 + 19, %arg9 * 5 + 1] : memref<40x70xf32>
          %480 = affine.load %arg4[%arg8 * 20 + 19, %arg7] : memref<40x50xf32>
          %481 = affine.load %arg5[%arg7, %arg9 * 5 + 1] : memref<50x70xf32>
          %482 = arith.mulf %480, %481 : f32
          %483 = affine.load %arg6[%arg8 * 20 + 19, %arg9 * 5 + 1] : memref<40x70xf32>
          %484 = arith.addf %483, %482 : f32
          affine.store %484, %arg6[%arg8 * 20 + 19, %arg9 * 5 + 1] : memref<40x70xf32>
          affine.store %cst, %arg6[%arg8 * 20 + 19, %arg9 * 5 + 2] : memref<40x70xf32>
          %485 = affine.load %arg4[%arg8 * 20 + 19, %arg7] : memref<40x50xf32>
          %486 = affine.load %arg5[%arg7, %arg9 * 5 + 2] : memref<50x70xf32>
          %487 = arith.mulf %485, %486 : f32
          %488 = affine.load %arg6[%arg8 * 20 + 19, %arg9 * 5 + 2] : memref<40x70xf32>
          %489 = arith.addf %488, %487 : f32
          affine.store %489, %arg6[%arg8 * 20 + 19, %arg9 * 5 + 2] : memref<40x70xf32>
          affine.store %cst, %arg6[%arg8 * 20 + 19, %arg9 * 5 + 3] : memref<40x70xf32>
          %490 = affine.load %arg4[%arg8 * 20 + 19, %arg7] : memref<40x50xf32>
          %491 = affine.load %arg5[%arg7, %arg9 * 5 + 3] : memref<50x70xf32>
          %492 = arith.mulf %490, %491 : f32
          %493 = affine.load %arg6[%arg8 * 20 + 19, %arg9 * 5 + 3] : memref<40x70xf32>
          %494 = arith.addf %493, %492 : f32
          affine.store %494, %arg6[%arg8 * 20 + 19, %arg9 * 5 + 3] : memref<40x70xf32>
          affine.store %cst, %arg6[%arg8 * 20 + 19, %arg9 * 5 + 4] : memref<40x70xf32>
          %495 = affine.load %arg4[%arg8 * 20 + 19, %arg7] : memref<40x50xf32>
          %496 = affine.load %arg5[%arg7, %arg9 * 5 + 4] : memref<50x70xf32>
          %497 = arith.mulf %495, %496 : f32
          %498 = affine.load %arg6[%arg8 * 20 + 19, %arg9 * 5 + 4] : memref<40x70xf32>
          %499 = arith.addf %498, %497 : f32
          affine.store %499, %arg6[%arg8 * 20 + 19, %arg9 * 5 + 4] : memref<40x70xf32>
        } {loop_directive = #hls.ld<pipeline=true, targetII=8, dataflow=false, flatten=false>}
      } {loop_directive = #hls.ld<pipeline=false, targetII=1, dataflow=false, flatten=true>}
    } {loop_directive = #hls.ld<pipeline=false, targetII=1, dataflow=false, flatten=true>}
    return
  }
}

