func @kernel_2mm(%arg0: f32, %arg1: f32, %arg2: memref<40x50xf32, affine_map<(d0, d1) -> (d0 mod 5, d1 mod 5, d0 floordiv 5, d1 floordiv 5)>>, %arg3: memref<40x70xf32>, %arg4: memref<70x50xf32>, %arg5: memref<50x80xf32, affine_map<(d0, d1) -> (d0 mod 5, d1 mod 5, d0 floordiv 5, d1 floordiv 5)>>, %arg6: memref<40x80xf32, affine_map<(d0, d1) -> (d0 mod 5, d1 mod 5, d0 floordiv 5, d1 floordiv 5)>>) attributes {llvm.linkage = #llvm.linkage<external>, resource = #hls.r<lut=0, dsp=234, bram=0>, timing = #hls.t<0 -> 3873, 3873, 3873>, top_func} {
  affine.for %arg7 = 0 to 10 {
    affine.for %arg8 = 0 to 8 {
      affine.for %arg9 = 0 to 16 {
        %0 = affine.load %arg6[%arg8 * 5, %arg9 * 5] {partition_indices = [0, 0], timing = #hls.t<0 -> 2, 2, 1>} : memref<40x80xf32, affine_map<(d0, d1) -> (d0 mod 5, d1 mod 5, d0 floordiv 5, d1 floordiv 5)>>
        %1 = arith.mulf %0, %arg1 {timing = #hls.t<2 -> 6, 4, 1>} : f32
        %2 = affine.load %arg2[%arg8 * 5, %arg7 * 5] {partition_indices = [0, 0], timing = #hls.t<0 -> 2, 2, 1>} : memref<40x50xf32, affine_map<(d0, d1) -> (d0 mod 5, d1 mod 5, d0 floordiv 5, d1 floordiv 5)>>
        %3 = affine.load %arg5[%arg7 * 5, %arg9 * 5] {partition_indices = [0, 0], timing = #hls.t<0 -> 2, 2, 1>} : memref<50x80xf32, affine_map<(d0, d1) -> (d0 mod 5, d1 mod 5, d0 floordiv 5, d1 floordiv 5)>>
        %4 = arith.mulf %2, %3 {timing = #hls.t<2 -> 6, 4, 1>} : f32
        %5 = affine.if affine_set<(d0) : (d0 * 5 == 0)>(%arg7) -> f32 {
          affine.yield {timing = #hls.t<6 -> 6, 0, 0>} %1 : f32
        } else {
          affine.yield {timing = #hls.t<6 -> 6, 0, 0>} %0 : f32
        } {timing = #hls.t<6 -> 6, 0, 0>}
        %6 = arith.addf %5, %4 {timing = #hls.t<6 -> 11, 5, 1>} : f32
        %7 = affine.load %arg6[%arg8 * 5, %arg9 * 5 + 1] {partition_indices = [0, 1], timing = #hls.t<0 -> 2, 2, 1>} : memref<40x80xf32, affine_map<(d0, d1) -> (d0 mod 5, d1 mod 5, d0 floordiv 5, d1 floordiv 5)>>
        %8 = arith.mulf %7, %arg1 {timing = #hls.t<2 -> 6, 4, 1>} : f32
        %9 = affine.load %arg5[%arg7 * 5, %arg9 * 5 + 1] {partition_indices = [0, 1], timing = #hls.t<0 -> 2, 2, 1>} : memref<50x80xf32, affine_map<(d0, d1) -> (d0 mod 5, d1 mod 5, d0 floordiv 5, d1 floordiv 5)>>
        %10 = arith.mulf %2, %9 {timing = #hls.t<2 -> 6, 4, 1>} : f32
        %11 = affine.if affine_set<(d0) : (d0 * 5 == 0)>(%arg7) -> f32 {
          affine.yield {timing = #hls.t<6 -> 6, 0, 0>} %8 : f32
        } else {
          affine.yield {timing = #hls.t<6 -> 6, 0, 0>} %7 : f32
        } {timing = #hls.t<6 -> 6, 0, 0>}
        %12 = arith.addf %11, %10 {timing = #hls.t<6 -> 11, 5, 1>} : f32
        %13 = affine.load %arg6[%arg8 * 5, %arg9 * 5 + 2] {partition_indices = [0, 2], timing = #hls.t<0 -> 2, 2, 1>} : memref<40x80xf32, affine_map<(d0, d1) -> (d0 mod 5, d1 mod 5, d0 floordiv 5, d1 floordiv 5)>>
        %14 = arith.mulf %13, %arg1 {timing = #hls.t<2 -> 6, 4, 1>} : f32
        %15 = affine.load %arg5[%arg7 * 5, %arg9 * 5 + 2] {partition_indices = [0, 2], timing = #hls.t<0 -> 2, 2, 1>} : memref<50x80xf32, affine_map<(d0, d1) -> (d0 mod 5, d1 mod 5, d0 floordiv 5, d1 floordiv 5)>>
        %16 = arith.mulf %2, %15 {timing = #hls.t<2 -> 6, 4, 1>} : f32
        %17 = affine.if affine_set<(d0) : (d0 * 5 == 0)>(%arg7) -> f32 {
          affine.yield {timing = #hls.t<6 -> 6, 0, 0>} %14 : f32
        } else {
          affine.yield {timing = #hls.t<6 -> 6, 0, 0>} %13 : f32
        } {timing = #hls.t<6 -> 6, 0, 0>}
        %18 = arith.addf %17, %16 {timing = #hls.t<6 -> 11, 5, 1>} : f32
        %19 = affine.load %arg6[%arg8 * 5, %arg9 * 5 + 3] {partition_indices = [0, 3], timing = #hls.t<0 -> 2, 2, 1>} : memref<40x80xf32, affine_map<(d0, d1) -> (d0 mod 5, d1 mod 5, d0 floordiv 5, d1 floordiv 5)>>
        %20 = arith.mulf %19, %arg1 {timing = #hls.t<2 -> 6, 4, 1>} : f32
        %21 = affine.load %arg5[%arg7 * 5, %arg9 * 5 + 3] {partition_indices = [0, 3], timing = #hls.t<0 -> 2, 2, 1>} : memref<50x80xf32, affine_map<(d0, d1) -> (d0 mod 5, d1 mod 5, d0 floordiv 5, d1 floordiv 5)>>
        %22 = arith.mulf %2, %21 {timing = #hls.t<2 -> 6, 4, 1>} : f32
        %23 = affine.if affine_set<(d0) : (d0 * 5 == 0)>(%arg7) -> f32 {
          affine.yield {timing = #hls.t<6 -> 6, 0, 0>} %20 : f32
        } else {
          affine.yield {timing = #hls.t<6 -> 6, 0, 0>} %19 : f32
        } {timing = #hls.t<6 -> 6, 0, 0>}
        %24 = arith.addf %23, %22 {timing = #hls.t<6 -> 11, 5, 1>} : f32
        %25 = affine.load %arg6[%arg8 * 5, %arg9 * 5 + 4] {partition_indices = [0, 4], timing = #hls.t<0 -> 2, 2, 1>} : memref<40x80xf32, affine_map<(d0, d1) -> (d0 mod 5, d1 mod 5, d0 floordiv 5, d1 floordiv 5)>>
        %26 = arith.mulf %25, %arg1 {timing = #hls.t<2 -> 6, 4, 1>} : f32
        %27 = affine.load %arg5[%arg7 * 5, %arg9 * 5 + 4] {partition_indices = [0, 4], timing = #hls.t<0 -> 2, 2, 1>} : memref<50x80xf32, affine_map<(d0, d1) -> (d0 mod 5, d1 mod 5, d0 floordiv 5, d1 floordiv 5)>>
        %28 = arith.mulf %2, %27 {timing = #hls.t<2 -> 6, 4, 1>} : f32
        %29 = affine.if affine_set<(d0) : (d0 * 5 == 0)>(%arg7) -> f32 {
          affine.yield {timing = #hls.t<6 -> 6, 0, 0>} %26 : f32
        } else {
          affine.yield {timing = #hls.t<6 -> 6, 0, 0>} %25 : f32
        } {timing = #hls.t<6 -> 6, 0, 0>}
        %30 = arith.addf %29, %28 {timing = #hls.t<6 -> 11, 5, 1>} : f32
        %31 = affine.load %arg6[%arg8 * 5 + 1, %arg9 * 5] {partition_indices = [1, 0], timing = #hls.t<0 -> 2, 2, 1>} : memref<40x80xf32, affine_map<(d0, d1) -> (d0 mod 5, d1 mod 5, d0 floordiv 5, d1 floordiv 5)>>
        %32 = arith.mulf %31, %arg1 {timing = #hls.t<2 -> 6, 4, 1>} : f32
        %33 = affine.load %arg2[%arg8 * 5 + 1, %arg7 * 5] {partition_indices = [1, 0], timing = #hls.t<0 -> 2, 2, 1>} : memref<40x50xf32, affine_map<(d0, d1) -> (d0 mod 5, d1 mod 5, d0 floordiv 5, d1 floordiv 5)>>
        %34 = arith.mulf %33, %3 {timing = #hls.t<2 -> 6, 4, 1>} : f32
        %35 = affine.if affine_set<(d0) : (d0 * 5 == 0)>(%arg7) -> f32 {
          affine.yield {timing = #hls.t<6 -> 6, 0, 0>} %32 : f32
        } else {
          affine.yield {timing = #hls.t<6 -> 6, 0, 0>} %31 : f32
        } {timing = #hls.t<6 -> 6, 0, 0>}
        %36 = arith.addf %35, %34 {timing = #hls.t<6 -> 11, 5, 1>} : f32
        %37 = affine.load %arg6[%arg8 * 5 + 1, %arg9 * 5 + 1] {partition_indices = [1, 1], timing = #hls.t<0 -> 2, 2, 1>} : memref<40x80xf32, affine_map<(d0, d1) -> (d0 mod 5, d1 mod 5, d0 floordiv 5, d1 floordiv 5)>>
        %38 = arith.mulf %37, %arg1 {timing = #hls.t<2 -> 6, 4, 1>} : f32
        %39 = arith.mulf %33, %9 {timing = #hls.t<2 -> 6, 4, 1>} : f32
        %40 = affine.if affine_set<(d0) : (d0 * 5 == 0)>(%arg7) -> f32 {
          affine.yield {timing = #hls.t<6 -> 6, 0, 0>} %38 : f32
        } else {
          affine.yield {timing = #hls.t<6 -> 6, 0, 0>} %37 : f32
        } {timing = #hls.t<6 -> 6, 0, 0>}
        %41 = arith.addf %40, %39 {timing = #hls.t<6 -> 11, 5, 1>} : f32
        %42 = affine.load %arg6[%arg8 * 5 + 1, %arg9 * 5 + 2] {partition_indices = [1, 2], timing = #hls.t<0 -> 2, 2, 1>} : memref<40x80xf32, affine_map<(d0, d1) -> (d0 mod 5, d1 mod 5, d0 floordiv 5, d1 floordiv 5)>>
        %43 = arith.mulf %42, %arg1 {timing = #hls.t<2 -> 6, 4, 1>} : f32
        %44 = arith.mulf %33, %15 {timing = #hls.t<2 -> 6, 4, 1>} : f32
        %45 = affine.if affine_set<(d0) : (d0 * 5 == 0)>(%arg7) -> f32 {
          affine.yield {timing = #hls.t<6 -> 6, 0, 0>} %43 : f32
        } else {
          affine.yield {timing = #hls.t<6 -> 6, 0, 0>} %42 : f32
        } {timing = #hls.t<6 -> 6, 0, 0>}
        %46 = arith.addf %45, %44 {timing = #hls.t<6 -> 11, 5, 1>} : f32
        %47 = affine.load %arg6[%arg8 * 5 + 1, %arg9 * 5 + 3] {partition_indices = [1, 3], timing = #hls.t<0 -> 2, 2, 1>} : memref<40x80xf32, affine_map<(d0, d1) -> (d0 mod 5, d1 mod 5, d0 floordiv 5, d1 floordiv 5)>>
        %48 = arith.mulf %47, %arg1 {timing = #hls.t<2 -> 6, 4, 1>} : f32
        %49 = arith.mulf %33, %21 {timing = #hls.t<2 -> 6, 4, 1>} : f32
        %50 = affine.if affine_set<(d0) : (d0 * 5 == 0)>(%arg7) -> f32 {
          affine.yield {timing = #hls.t<6 -> 6, 0, 0>} %48 : f32
        } else {
          affine.yield {timing = #hls.t<6 -> 6, 0, 0>} %47 : f32
        } {timing = #hls.t<6 -> 6, 0, 0>}
        %51 = arith.addf %50, %49 {timing = #hls.t<6 -> 11, 5, 1>} : f32
        %52 = affine.load %arg6[%arg8 * 5 + 1, %arg9 * 5 + 4] {partition_indices = [1, 4], timing = #hls.t<0 -> 2, 2, 1>} : memref<40x80xf32, affine_map<(d0, d1) -> (d0 mod 5, d1 mod 5, d0 floordiv 5, d1 floordiv 5)>>
        %53 = arith.mulf %52, %arg1 {timing = #hls.t<2 -> 6, 4, 1>} : f32
        %54 = arith.mulf %33, %27 {timing = #hls.t<2 -> 6, 4, 1>} : f32
        %55 = affine.if affine_set<(d0) : (d0 * 5 == 0)>(%arg7) -> f32 {
          affine.yield {timing = #hls.t<6 -> 6, 0, 0>} %53 : f32
        } else {
          affine.yield {timing = #hls.t<6 -> 6, 0, 0>} %52 : f32
        } {timing = #hls.t<6 -> 6, 0, 0>}
        %56 = arith.addf %55, %54 {timing = #hls.t<6 -> 11, 5, 1>} : f32
        %57 = affine.load %arg6[%arg8 * 5 + 2, %arg9 * 5] {partition_indices = [2, 0], timing = #hls.t<0 -> 2, 2, 1>} : memref<40x80xf32, affine_map<(d0, d1) -> (d0 mod 5, d1 mod 5, d0 floordiv 5, d1 floordiv 5)>>
        %58 = arith.mulf %57, %arg1 {timing = #hls.t<2 -> 6, 4, 1>} : f32
        %59 = affine.load %arg2[%arg8 * 5 + 2, %arg7 * 5] {partition_indices = [2, 0], timing = #hls.t<0 -> 2, 2, 1>} : memref<40x50xf32, affine_map<(d0, d1) -> (d0 mod 5, d1 mod 5, d0 floordiv 5, d1 floordiv 5)>>
        %60 = arith.mulf %59, %3 {timing = #hls.t<2 -> 6, 4, 1>} : f32
        %61 = affine.if affine_set<(d0) : (d0 * 5 == 0)>(%arg7) -> f32 {
          affine.yield {timing = #hls.t<6 -> 6, 0, 0>} %58 : f32
        } else {
          affine.yield {timing = #hls.t<6 -> 6, 0, 0>} %57 : f32
        } {timing = #hls.t<6 -> 6, 0, 0>}
        %62 = arith.addf %61, %60 {timing = #hls.t<6 -> 11, 5, 1>} : f32
        %63 = affine.load %arg6[%arg8 * 5 + 2, %arg9 * 5 + 1] {partition_indices = [2, 1], timing = #hls.t<0 -> 2, 2, 1>} : memref<40x80xf32, affine_map<(d0, d1) -> (d0 mod 5, d1 mod 5, d0 floordiv 5, d1 floordiv 5)>>
        %64 = arith.mulf %63, %arg1 {timing = #hls.t<2 -> 6, 4, 1>} : f32
        %65 = arith.mulf %59, %9 {timing = #hls.t<2 -> 6, 4, 1>} : f32
        %66 = affine.if affine_set<(d0) : (d0 * 5 == 0)>(%arg7) -> f32 {
          affine.yield {timing = #hls.t<6 -> 6, 0, 0>} %64 : f32
        } else {
          affine.yield {timing = #hls.t<6 -> 6, 0, 0>} %63 : f32
        } {timing = #hls.t<6 -> 6, 0, 0>}
        %67 = arith.addf %66, %65 {timing = #hls.t<6 -> 11, 5, 1>} : f32
        %68 = affine.load %arg6[%arg8 * 5 + 2, %arg9 * 5 + 2] {partition_indices = [2, 2], timing = #hls.t<0 -> 2, 2, 1>} : memref<40x80xf32, affine_map<(d0, d1) -> (d0 mod 5, d1 mod 5, d0 floordiv 5, d1 floordiv 5)>>
        %69 = arith.mulf %68, %arg1 {timing = #hls.t<2 -> 6, 4, 1>} : f32
        %70 = arith.mulf %59, %15 {timing = #hls.t<2 -> 6, 4, 1>} : f32
        %71 = affine.if affine_set<(d0) : (d0 * 5 == 0)>(%arg7) -> f32 {
          affine.yield {timing = #hls.t<6 -> 6, 0, 0>} %69 : f32
        } else {
          affine.yield {timing = #hls.t<6 -> 6, 0, 0>} %68 : f32
        } {timing = #hls.t<6 -> 6, 0, 0>}
        %72 = arith.addf %71, %70 {timing = #hls.t<6 -> 11, 5, 1>} : f32
        %73 = affine.load %arg6[%arg8 * 5 + 2, %arg9 * 5 + 3] {partition_indices = [2, 3], timing = #hls.t<0 -> 2, 2, 1>} : memref<40x80xf32, affine_map<(d0, d1) -> (d0 mod 5, d1 mod 5, d0 floordiv 5, d1 floordiv 5)>>
        %74 = arith.mulf %73, %arg1 {timing = #hls.t<2 -> 6, 4, 1>} : f32
        %75 = arith.mulf %59, %21 {timing = #hls.t<2 -> 6, 4, 1>} : f32
        %76 = affine.if affine_set<(d0) : (d0 * 5 == 0)>(%arg7) -> f32 {
          affine.yield {timing = #hls.t<6 -> 6, 0, 0>} %74 : f32
        } else {
          affine.yield {timing = #hls.t<6 -> 6, 0, 0>} %73 : f32
        } {timing = #hls.t<6 -> 6, 0, 0>}
        %77 = arith.addf %76, %75 {timing = #hls.t<6 -> 11, 5, 1>} : f32
        %78 = affine.load %arg6[%arg8 * 5 + 2, %arg9 * 5 + 4] {partition_indices = [2, 4], timing = #hls.t<0 -> 2, 2, 1>} : memref<40x80xf32, affine_map<(d0, d1) -> (d0 mod 5, d1 mod 5, d0 floordiv 5, d1 floordiv 5)>>
        %79 = arith.mulf %78, %arg1 {timing = #hls.t<2 -> 6, 4, 1>} : f32
        %80 = arith.mulf %59, %27 {timing = #hls.t<2 -> 6, 4, 1>} : f32
        %81 = affine.if affine_set<(d0) : (d0 * 5 == 0)>(%arg7) -> f32 {
          affine.yield {timing = #hls.t<6 -> 6, 0, 0>} %79 : f32
        } else {
          affine.yield {timing = #hls.t<6 -> 6, 0, 0>} %78 : f32
        } {timing = #hls.t<6 -> 6, 0, 0>}
        %82 = arith.addf %81, %80 {timing = #hls.t<6 -> 11, 5, 1>} : f32
        %83 = affine.load %arg6[%arg8 * 5 + 3, %arg9 * 5] {partition_indices = [3, 0], timing = #hls.t<0 -> 2, 2, 1>} : memref<40x80xf32, affine_map<(d0, d1) -> (d0 mod 5, d1 mod 5, d0 floordiv 5, d1 floordiv 5)>>
        %84 = arith.mulf %83, %arg1 {timing = #hls.t<2 -> 6, 4, 1>} : f32
        %85 = affine.load %arg2[%arg8 * 5 + 3, %arg7 * 5] {partition_indices = [3, 0], timing = #hls.t<0 -> 2, 2, 1>} : memref<40x50xf32, affine_map<(d0, d1) -> (d0 mod 5, d1 mod 5, d0 floordiv 5, d1 floordiv 5)>>
        %86 = arith.mulf %85, %3 {timing = #hls.t<2 -> 6, 4, 1>} : f32
        %87 = affine.if affine_set<(d0) : (d0 * 5 == 0)>(%arg7) -> f32 {
          affine.yield {timing = #hls.t<6 -> 6, 0, 0>} %84 : f32
        } else {
          affine.yield {timing = #hls.t<6 -> 6, 0, 0>} %83 : f32
        } {timing = #hls.t<6 -> 6, 0, 0>}
        %88 = arith.addf %87, %86 {timing = #hls.t<6 -> 11, 5, 1>} : f32
        %89 = affine.load %arg6[%arg8 * 5 + 3, %arg9 * 5 + 1] {partition_indices = [3, 1], timing = #hls.t<0 -> 2, 2, 1>} : memref<40x80xf32, affine_map<(d0, d1) -> (d0 mod 5, d1 mod 5, d0 floordiv 5, d1 floordiv 5)>>
        %90 = arith.mulf %89, %arg1 {timing = #hls.t<2 -> 6, 4, 1>} : f32
        %91 = arith.mulf %85, %9 {timing = #hls.t<2 -> 6, 4, 1>} : f32
        %92 = affine.if affine_set<(d0) : (d0 * 5 == 0)>(%arg7) -> f32 {
          affine.yield {timing = #hls.t<6 -> 6, 0, 0>} %90 : f32
        } else {
          affine.yield {timing = #hls.t<6 -> 6, 0, 0>} %89 : f32
        } {timing = #hls.t<6 -> 6, 0, 0>}
        %93 = arith.addf %92, %91 {timing = #hls.t<6 -> 11, 5, 1>} : f32
        %94 = affine.load %arg6[%arg8 * 5 + 3, %arg9 * 5 + 2] {partition_indices = [3, 2], timing = #hls.t<0 -> 2, 2, 1>} : memref<40x80xf32, affine_map<(d0, d1) -> (d0 mod 5, d1 mod 5, d0 floordiv 5, d1 floordiv 5)>>
        %95 = arith.mulf %94, %arg1 {timing = #hls.t<2 -> 6, 4, 1>} : f32
        %96 = arith.mulf %85, %15 {timing = #hls.t<2 -> 6, 4, 1>} : f32
        %97 = affine.if affine_set<(d0) : (d0 * 5 == 0)>(%arg7) -> f32 {
          affine.yield {timing = #hls.t<6 -> 6, 0, 0>} %95 : f32
        } else {
          affine.yield {timing = #hls.t<6 -> 6, 0, 0>} %94 : f32
        } {timing = #hls.t<6 -> 6, 0, 0>}
        %98 = arith.addf %97, %96 {timing = #hls.t<6 -> 11, 5, 1>} : f32
        %99 = affine.load %arg6[%arg8 * 5 + 3, %arg9 * 5 + 3] {partition_indices = [3, 3], timing = #hls.t<0 -> 2, 2, 1>} : memref<40x80xf32, affine_map<(d0, d1) -> (d0 mod 5, d1 mod 5, d0 floordiv 5, d1 floordiv 5)>>
        %100 = arith.mulf %99, %arg1 {timing = #hls.t<2 -> 6, 4, 1>} : f32
        %101 = arith.mulf %85, %21 {timing = #hls.t<2 -> 6, 4, 1>} : f32
        %102 = affine.if affine_set<(d0) : (d0 * 5 == 0)>(%arg7) -> f32 {
          affine.yield {timing = #hls.t<6 -> 6, 0, 0>} %100 : f32
        } else {
          affine.yield {timing = #hls.t<6 -> 6, 0, 0>} %99 : f32
        } {timing = #hls.t<6 -> 6, 0, 0>}
        %103 = arith.addf %102, %101 {timing = #hls.t<6 -> 11, 5, 1>} : f32
        %104 = affine.load %arg6[%arg8 * 5 + 3, %arg9 * 5 + 4] {partition_indices = [3, 4], timing = #hls.t<0 -> 2, 2, 1>} : memref<40x80xf32, affine_map<(d0, d1) -> (d0 mod 5, d1 mod 5, d0 floordiv 5, d1 floordiv 5)>>
        %105 = arith.mulf %104, %arg1 {timing = #hls.t<2 -> 6, 4, 1>} : f32
        %106 = arith.mulf %85, %27 {timing = #hls.t<2 -> 6, 4, 1>} : f32
        %107 = affine.if affine_set<(d0) : (d0 * 5 == 0)>(%arg7) -> f32 {
          affine.yield {timing = #hls.t<6 -> 6, 0, 0>} %105 : f32
        } else {
          affine.yield {timing = #hls.t<6 -> 6, 0, 0>} %104 : f32
        } {timing = #hls.t<6 -> 6, 0, 0>}
        %108 = arith.addf %107, %106 {timing = #hls.t<6 -> 11, 5, 1>} : f32
        %109 = affine.load %arg6[%arg8 * 5 + 4, %arg9 * 5] {partition_indices = [4, 0], timing = #hls.t<0 -> 2, 2, 1>} : memref<40x80xf32, affine_map<(d0, d1) -> (d0 mod 5, d1 mod 5, d0 floordiv 5, d1 floordiv 5)>>
        %110 = arith.mulf %109, %arg1 {timing = #hls.t<2 -> 6, 4, 1>} : f32
        %111 = affine.load %arg2[%arg8 * 5 + 4, %arg7 * 5] {partition_indices = [4, 0], timing = #hls.t<0 -> 2, 2, 1>} : memref<40x50xf32, affine_map<(d0, d1) -> (d0 mod 5, d1 mod 5, d0 floordiv 5, d1 floordiv 5)>>
        %112 = arith.mulf %111, %3 {timing = #hls.t<2 -> 6, 4, 1>} : f32
        %113 = affine.if affine_set<(d0) : (d0 * 5 == 0)>(%arg7) -> f32 {
          affine.yield {timing = #hls.t<6 -> 6, 0, 0>} %110 : f32
        } else {
          affine.yield {timing = #hls.t<6 -> 6, 0, 0>} %109 : f32
        } {timing = #hls.t<6 -> 6, 0, 0>}
        %114 = arith.addf %113, %112 {timing = #hls.t<6 -> 11, 5, 1>} : f32
        %115 = affine.load %arg6[%arg8 * 5 + 4, %arg9 * 5 + 1] {partition_indices = [4, 1], timing = #hls.t<0 -> 2, 2, 1>} : memref<40x80xf32, affine_map<(d0, d1) -> (d0 mod 5, d1 mod 5, d0 floordiv 5, d1 floordiv 5)>>
        %116 = arith.mulf %115, %arg1 {timing = #hls.t<2 -> 6, 4, 1>} : f32
        %117 = arith.mulf %111, %9 {timing = #hls.t<2 -> 6, 4, 1>} : f32
        %118 = affine.if affine_set<(d0) : (d0 * 5 == 0)>(%arg7) -> f32 {
          affine.yield {timing = #hls.t<6 -> 6, 0, 0>} %116 : f32
        } else {
          affine.yield {timing = #hls.t<6 -> 6, 0, 0>} %115 : f32
        } {timing = #hls.t<6 -> 6, 0, 0>}
        %119 = arith.addf %118, %117 {timing = #hls.t<6 -> 11, 5, 1>} : f32
        %120 = affine.load %arg6[%arg8 * 5 + 4, %arg9 * 5 + 2] {partition_indices = [4, 2], timing = #hls.t<0 -> 2, 2, 1>} : memref<40x80xf32, affine_map<(d0, d1) -> (d0 mod 5, d1 mod 5, d0 floordiv 5, d1 floordiv 5)>>
        %121 = arith.mulf %120, %arg1 {timing = #hls.t<2 -> 6, 4, 1>} : f32
        %122 = arith.mulf %111, %15 {timing = #hls.t<2 -> 6, 4, 1>} : f32
        %123 = affine.if affine_set<(d0) : (d0 * 5 == 0)>(%arg7) -> f32 {
          affine.yield {timing = #hls.t<6 -> 6, 0, 0>} %121 : f32
        } else {
          affine.yield {timing = #hls.t<6 -> 6, 0, 0>} %120 : f32
        } {timing = #hls.t<6 -> 6, 0, 0>}
        %124 = arith.addf %123, %122 {timing = #hls.t<6 -> 11, 5, 1>} : f32
        %125 = affine.load %arg6[%arg8 * 5 + 4, %arg9 * 5 + 3] {partition_indices = [4, 3], timing = #hls.t<0 -> 2, 2, 1>} : memref<40x80xf32, affine_map<(d0, d1) -> (d0 mod 5, d1 mod 5, d0 floordiv 5, d1 floordiv 5)>>
        %126 = arith.mulf %125, %arg1 {timing = #hls.t<2 -> 6, 4, 1>} : f32
        %127 = arith.mulf %111, %21 {timing = #hls.t<2 -> 6, 4, 1>} : f32
        %128 = affine.if affine_set<(d0) : (d0 * 5 == 0)>(%arg7) -> f32 {
          affine.yield {timing = #hls.t<6 -> 6, 0, 0>} %126 : f32
        } else {
          affine.yield {timing = #hls.t<6 -> 6, 0, 0>} %125 : f32
        } {timing = #hls.t<6 -> 6, 0, 0>}
        %129 = arith.addf %128, %127 {timing = #hls.t<6 -> 11, 5, 1>} : f32
        %130 = affine.load %arg6[%arg8 * 5 + 4, %arg9 * 5 + 4] {partition_indices = [4, 4], timing = #hls.t<0 -> 2, 2, 1>} : memref<40x80xf32, affine_map<(d0, d1) -> (d0 mod 5, d1 mod 5, d0 floordiv 5, d1 floordiv 5)>>
        %131 = arith.mulf %130, %arg1 {timing = #hls.t<2 -> 6, 4, 1>} : f32
        %132 = arith.mulf %111, %27 {timing = #hls.t<2 -> 6, 4, 1>} : f32
        %133 = affine.if affine_set<(d0) : (d0 * 5 == 0)>(%arg7) -> f32 {
          affine.yield {timing = #hls.t<6 -> 6, 0, 0>} %131 : f32
        } else {
          affine.yield {timing = #hls.t<6 -> 6, 0, 0>} %130 : f32
        } {timing = #hls.t<6 -> 6, 0, 0>}
        %134 = arith.addf %133, %132 {timing = #hls.t<6 -> 11, 5, 1>} : f32
        %135 = affine.load %arg2[%arg8 * 5, %arg7 * 5 + 1] {partition_indices = [0, 1], timing = #hls.t<5 -> 7, 2, 1>} : memref<40x50xf32, affine_map<(d0, d1) -> (d0 mod 5, d1 mod 5, d0 floordiv 5, d1 floordiv 5)>>
        %136 = affine.load %arg5[%arg7 * 5 + 1, %arg9 * 5] {partition_indices = [1, 0], timing = #hls.t<5 -> 7, 2, 1>} : memref<50x80xf32, affine_map<(d0, d1) -> (d0 mod 5, d1 mod 5, d0 floordiv 5, d1 floordiv 5)>>
        %137 = arith.mulf %135, %136 {timing = #hls.t<7 -> 11, 4, 1>} : f32
        %138 = arith.addf %6, %137 {timing = #hls.t<11 -> 16, 5, 1>} : f32
        %139 = affine.load %arg5[%arg7 * 5 + 1, %arg9 * 5 + 1] {partition_indices = [1, 1], timing = #hls.t<5 -> 7, 2, 1>} : memref<50x80xf32, affine_map<(d0, d1) -> (d0 mod 5, d1 mod 5, d0 floordiv 5, d1 floordiv 5)>>
        %140 = arith.mulf %135, %139 {timing = #hls.t<7 -> 11, 4, 1>} : f32
        %141 = arith.addf %12, %140 {timing = #hls.t<11 -> 16, 5, 1>} : f32
        %142 = affine.load %arg5[%arg7 * 5 + 1, %arg9 * 5 + 2] {partition_indices = [1, 2], timing = #hls.t<5 -> 7, 2, 1>} : memref<50x80xf32, affine_map<(d0, d1) -> (d0 mod 5, d1 mod 5, d0 floordiv 5, d1 floordiv 5)>>
        %143 = arith.mulf %135, %142 {timing = #hls.t<7 -> 11, 4, 1>} : f32
        %144 = arith.addf %18, %143 {timing = #hls.t<11 -> 16, 5, 1>} : f32
        %145 = affine.load %arg5[%arg7 * 5 + 1, %arg9 * 5 + 3] {partition_indices = [1, 3], timing = #hls.t<5 -> 7, 2, 1>} : memref<50x80xf32, affine_map<(d0, d1) -> (d0 mod 5, d1 mod 5, d0 floordiv 5, d1 floordiv 5)>>
        %146 = arith.mulf %135, %145 {timing = #hls.t<7 -> 11, 4, 1>} : f32
        %147 = arith.addf %24, %146 {timing = #hls.t<11 -> 16, 5, 1>} : f32
        %148 = affine.load %arg5[%arg7 * 5 + 1, %arg9 * 5 + 4] {partition_indices = [1, 4], timing = #hls.t<5 -> 7, 2, 1>} : memref<50x80xf32, affine_map<(d0, d1) -> (d0 mod 5, d1 mod 5, d0 floordiv 5, d1 floordiv 5)>>
        %149 = arith.mulf %135, %148 {timing = #hls.t<7 -> 11, 4, 1>} : f32
        %150 = arith.addf %30, %149 {timing = #hls.t<11 -> 16, 5, 1>} : f32
        %151 = affine.load %arg2[%arg8 * 5 + 1, %arg7 * 5 + 1] {partition_indices = [1, 1], timing = #hls.t<5 -> 7, 2, 1>} : memref<40x50xf32, affine_map<(d0, d1) -> (d0 mod 5, d1 mod 5, d0 floordiv 5, d1 floordiv 5)>>
        %152 = arith.mulf %151, %136 {timing = #hls.t<7 -> 11, 4, 1>} : f32
        %153 = arith.addf %36, %152 {timing = #hls.t<11 -> 16, 5, 1>} : f32
        %154 = arith.mulf %151, %139 {timing = #hls.t<7 -> 11, 4, 1>} : f32
        %155 = arith.addf %41, %154 {timing = #hls.t<11 -> 16, 5, 1>} : f32
        %156 = arith.mulf %151, %142 {timing = #hls.t<7 -> 11, 4, 1>} : f32
        %157 = arith.addf %46, %156 {timing = #hls.t<11 -> 16, 5, 1>} : f32
        %158 = arith.mulf %151, %145 {timing = #hls.t<7 -> 11, 4, 1>} : f32
        %159 = arith.addf %51, %158 {timing = #hls.t<11 -> 16, 5, 1>} : f32
        %160 = arith.mulf %151, %148 {timing = #hls.t<7 -> 11, 4, 1>} : f32
        %161 = arith.addf %56, %160 {timing = #hls.t<11 -> 16, 5, 1>} : f32
        %162 = affine.load %arg2[%arg8 * 5 + 2, %arg7 * 5 + 1] {partition_indices = [2, 1], timing = #hls.t<5 -> 7, 2, 1>} : memref<40x50xf32, affine_map<(d0, d1) -> (d0 mod 5, d1 mod 5, d0 floordiv 5, d1 floordiv 5)>>
        %163 = arith.mulf %162, %136 {timing = #hls.t<7 -> 11, 4, 1>} : f32
        %164 = arith.addf %62, %163 {timing = #hls.t<11 -> 16, 5, 1>} : f32
        %165 = arith.mulf %162, %139 {timing = #hls.t<7 -> 11, 4, 1>} : f32
        %166 = arith.addf %67, %165 {timing = #hls.t<11 -> 16, 5, 1>} : f32
        %167 = arith.mulf %162, %142 {timing = #hls.t<7 -> 11, 4, 1>} : f32
        %168 = arith.addf %72, %167 {timing = #hls.t<11 -> 16, 5, 1>} : f32
        %169 = arith.mulf %162, %145 {timing = #hls.t<7 -> 11, 4, 1>} : f32
        %170 = arith.addf %77, %169 {timing = #hls.t<11 -> 16, 5, 1>} : f32
        %171 = arith.mulf %162, %148 {timing = #hls.t<7 -> 11, 4, 1>} : f32
        %172 = arith.addf %82, %171 {timing = #hls.t<11 -> 16, 5, 1>} : f32
        %173 = affine.load %arg2[%arg8 * 5 + 3, %arg7 * 5 + 1] {partition_indices = [3, 1], timing = #hls.t<5 -> 7, 2, 1>} : memref<40x50xf32, affine_map<(d0, d1) -> (d0 mod 5, d1 mod 5, d0 floordiv 5, d1 floordiv 5)>>
        %174 = arith.mulf %173, %136 {timing = #hls.t<7 -> 11, 4, 1>} : f32
        %175 = arith.addf %88, %174 {timing = #hls.t<11 -> 16, 5, 1>} : f32
        %176 = arith.mulf %173, %139 {timing = #hls.t<7 -> 11, 4, 1>} : f32
        %177 = arith.addf %93, %176 {timing = #hls.t<11 -> 16, 5, 1>} : f32
        %178 = arith.mulf %173, %142 {timing = #hls.t<7 -> 11, 4, 1>} : f32
        %179 = arith.addf %98, %178 {timing = #hls.t<11 -> 16, 5, 1>} : f32
        %180 = arith.mulf %173, %145 {timing = #hls.t<7 -> 11, 4, 1>} : f32
        %181 = arith.addf %103, %180 {timing = #hls.t<11 -> 16, 5, 1>} : f32
        %182 = arith.mulf %173, %148 {timing = #hls.t<7 -> 11, 4, 1>} : f32
        %183 = arith.addf %108, %182 {timing = #hls.t<11 -> 16, 5, 1>} : f32
        %184 = affine.load %arg2[%arg8 * 5 + 4, %arg7 * 5 + 1] {partition_indices = [4, 1], timing = #hls.t<5 -> 7, 2, 1>} : memref<40x50xf32, affine_map<(d0, d1) -> (d0 mod 5, d1 mod 5, d0 floordiv 5, d1 floordiv 5)>>
        %185 = arith.mulf %184, %136 {timing = #hls.t<7 -> 11, 4, 1>} : f32
        %186 = arith.addf %114, %185 {timing = #hls.t<11 -> 16, 5, 1>} : f32
        %187 = arith.mulf %184, %139 {timing = #hls.t<7 -> 11, 4, 1>} : f32
        %188 = arith.addf %119, %187 {timing = #hls.t<11 -> 16, 5, 1>} : f32
        %189 = arith.mulf %184, %142 {timing = #hls.t<7 -> 11, 4, 1>} : f32
        %190 = arith.addf %124, %189 {timing = #hls.t<11 -> 16, 5, 1>} : f32
        %191 = arith.mulf %184, %145 {timing = #hls.t<7 -> 11, 4, 1>} : f32
        %192 = arith.addf %129, %191 {timing = #hls.t<11 -> 16, 5, 1>} : f32
        %193 = arith.mulf %184, %148 {timing = #hls.t<7 -> 11, 4, 1>} : f32
        %194 = arith.addf %134, %193 {timing = #hls.t<11 -> 16, 5, 1>} : f32
        %195 = affine.load %arg2[%arg8 * 5, %arg7 * 5 + 2] {partition_indices = [0, 2], timing = #hls.t<10 -> 12, 2, 1>} : memref<40x50xf32, affine_map<(d0, d1) -> (d0 mod 5, d1 mod 5, d0 floordiv 5, d1 floordiv 5)>>
        %196 = affine.load %arg5[%arg7 * 5 + 2, %arg9 * 5] {partition_indices = [2, 0], timing = #hls.t<10 -> 12, 2, 1>} : memref<50x80xf32, affine_map<(d0, d1) -> (d0 mod 5, d1 mod 5, d0 floordiv 5, d1 floordiv 5)>>
        %197 = arith.mulf %195, %196 {timing = #hls.t<12 -> 16, 4, 1>} : f32
        %198 = arith.addf %138, %197 {timing = #hls.t<16 -> 21, 5, 1>} : f32
        %199 = affine.load %arg5[%arg7 * 5 + 2, %arg9 * 5 + 1] {partition_indices = [2, 1], timing = #hls.t<10 -> 12, 2, 1>} : memref<50x80xf32, affine_map<(d0, d1) -> (d0 mod 5, d1 mod 5, d0 floordiv 5, d1 floordiv 5)>>
        %200 = arith.mulf %195, %199 {timing = #hls.t<12 -> 16, 4, 1>} : f32
        %201 = arith.addf %141, %200 {timing = #hls.t<16 -> 21, 5, 1>} : f32
        %202 = affine.load %arg5[%arg7 * 5 + 2, %arg9 * 5 + 2] {partition_indices = [2, 2], timing = #hls.t<10 -> 12, 2, 1>} : memref<50x80xf32, affine_map<(d0, d1) -> (d0 mod 5, d1 mod 5, d0 floordiv 5, d1 floordiv 5)>>
        %203 = arith.mulf %195, %202 {timing = #hls.t<12 -> 16, 4, 1>} : f32
        %204 = arith.addf %144, %203 {timing = #hls.t<16 -> 21, 5, 1>} : f32
        %205 = affine.load %arg5[%arg7 * 5 + 2, %arg9 * 5 + 3] {partition_indices = [2, 3], timing = #hls.t<10 -> 12, 2, 1>} : memref<50x80xf32, affine_map<(d0, d1) -> (d0 mod 5, d1 mod 5, d0 floordiv 5, d1 floordiv 5)>>
        %206 = arith.mulf %195, %205 {timing = #hls.t<12 -> 16, 4, 1>} : f32
        %207 = arith.addf %147, %206 {timing = #hls.t<16 -> 21, 5, 1>} : f32
        %208 = affine.load %arg5[%arg7 * 5 + 2, %arg9 * 5 + 4] {partition_indices = [2, 4], timing = #hls.t<10 -> 12, 2, 1>} : memref<50x80xf32, affine_map<(d0, d1) -> (d0 mod 5, d1 mod 5, d0 floordiv 5, d1 floordiv 5)>>
        %209 = arith.mulf %195, %208 {timing = #hls.t<12 -> 16, 4, 1>} : f32
        %210 = arith.addf %150, %209 {timing = #hls.t<16 -> 21, 5, 1>} : f32
        %211 = affine.load %arg2[%arg8 * 5 + 1, %arg7 * 5 + 2] {partition_indices = [1, 2], timing = #hls.t<10 -> 12, 2, 1>} : memref<40x50xf32, affine_map<(d0, d1) -> (d0 mod 5, d1 mod 5, d0 floordiv 5, d1 floordiv 5)>>
        %212 = arith.mulf %211, %196 {timing = #hls.t<12 -> 16, 4, 1>} : f32
        %213 = arith.addf %153, %212 {timing = #hls.t<16 -> 21, 5, 1>} : f32
        %214 = arith.mulf %211, %199 {timing = #hls.t<12 -> 16, 4, 1>} : f32
        %215 = arith.addf %155, %214 {timing = #hls.t<16 -> 21, 5, 1>} : f32
        %216 = arith.mulf %211, %202 {timing = #hls.t<12 -> 16, 4, 1>} : f32
        %217 = arith.addf %157, %216 {timing = #hls.t<16 -> 21, 5, 1>} : f32
        %218 = arith.mulf %211, %205 {timing = #hls.t<12 -> 16, 4, 1>} : f32
        %219 = arith.addf %159, %218 {timing = #hls.t<16 -> 21, 5, 1>} : f32
        %220 = arith.mulf %211, %208 {timing = #hls.t<12 -> 16, 4, 1>} : f32
        %221 = arith.addf %161, %220 {timing = #hls.t<16 -> 21, 5, 1>} : f32
        %222 = affine.load %arg2[%arg8 * 5 + 2, %arg7 * 5 + 2] {partition_indices = [2, 2], timing = #hls.t<10 -> 12, 2, 1>} : memref<40x50xf32, affine_map<(d0, d1) -> (d0 mod 5, d1 mod 5, d0 floordiv 5, d1 floordiv 5)>>
        %223 = arith.mulf %222, %196 {timing = #hls.t<12 -> 16, 4, 1>} : f32
        %224 = arith.addf %164, %223 {timing = #hls.t<16 -> 21, 5, 1>} : f32
        %225 = arith.mulf %222, %199 {timing = #hls.t<12 -> 16, 4, 1>} : f32
        %226 = arith.addf %166, %225 {timing = #hls.t<16 -> 21, 5, 1>} : f32
        %227 = arith.mulf %222, %202 {timing = #hls.t<12 -> 16, 4, 1>} : f32
        %228 = arith.addf %168, %227 {timing = #hls.t<16 -> 21, 5, 1>} : f32
        %229 = arith.mulf %222, %205 {timing = #hls.t<12 -> 16, 4, 1>} : f32
        %230 = arith.addf %170, %229 {timing = #hls.t<16 -> 21, 5, 1>} : f32
        %231 = arith.mulf %222, %208 {timing = #hls.t<12 -> 16, 4, 1>} : f32
        %232 = arith.addf %172, %231 {timing = #hls.t<16 -> 21, 5, 1>} : f32
        %233 = affine.load %arg2[%arg8 * 5 + 3, %arg7 * 5 + 2] {partition_indices = [3, 2], timing = #hls.t<10 -> 12, 2, 1>} : memref<40x50xf32, affine_map<(d0, d1) -> (d0 mod 5, d1 mod 5, d0 floordiv 5, d1 floordiv 5)>>
        %234 = arith.mulf %233, %196 {timing = #hls.t<12 -> 16, 4, 1>} : f32
        %235 = arith.addf %175, %234 {timing = #hls.t<16 -> 21, 5, 1>} : f32
        %236 = arith.mulf %233, %199 {timing = #hls.t<12 -> 16, 4, 1>} : f32
        %237 = arith.addf %177, %236 {timing = #hls.t<16 -> 21, 5, 1>} : f32
        %238 = arith.mulf %233, %202 {timing = #hls.t<12 -> 16, 4, 1>} : f32
        %239 = arith.addf %179, %238 {timing = #hls.t<16 -> 21, 5, 1>} : f32
        %240 = arith.mulf %233, %205 {timing = #hls.t<12 -> 16, 4, 1>} : f32
        %241 = arith.addf %181, %240 {timing = #hls.t<16 -> 21, 5, 1>} : f32
        %242 = arith.mulf %233, %208 {timing = #hls.t<12 -> 16, 4, 1>} : f32
        %243 = arith.addf %183, %242 {timing = #hls.t<16 -> 21, 5, 1>} : f32
        %244 = affine.load %arg2[%arg8 * 5 + 4, %arg7 * 5 + 2] {partition_indices = [4, 2], timing = #hls.t<10 -> 12, 2, 1>} : memref<40x50xf32, affine_map<(d0, d1) -> (d0 mod 5, d1 mod 5, d0 floordiv 5, d1 floordiv 5)>>
        %245 = arith.mulf %244, %196 {timing = #hls.t<12 -> 16, 4, 1>} : f32
        %246 = arith.addf %186, %245 {timing = #hls.t<16 -> 21, 5, 1>} : f32
        %247 = arith.mulf %244, %199 {timing = #hls.t<12 -> 16, 4, 1>} : f32
        %248 = arith.addf %188, %247 {timing = #hls.t<16 -> 21, 5, 1>} : f32
        %249 = arith.mulf %244, %202 {timing = #hls.t<12 -> 16, 4, 1>} : f32
        %250 = arith.addf %190, %249 {timing = #hls.t<16 -> 21, 5, 1>} : f32
        %251 = arith.mulf %244, %205 {timing = #hls.t<12 -> 16, 4, 1>} : f32
        %252 = arith.addf %192, %251 {timing = #hls.t<16 -> 21, 5, 1>} : f32
        %253 = arith.mulf %244, %208 {timing = #hls.t<12 -> 16, 4, 1>} : f32
        %254 = arith.addf %194, %253 {timing = #hls.t<16 -> 21, 5, 1>} : f32
        %255 = affine.load %arg2[%arg8 * 5, %arg7 * 5 + 3] {partition_indices = [0, 3], timing = #hls.t<15 -> 17, 2, 1>} : memref<40x50xf32, affine_map<(d0, d1) -> (d0 mod 5, d1 mod 5, d0 floordiv 5, d1 floordiv 5)>>
        %256 = affine.load %arg5[%arg7 * 5 + 3, %arg9 * 5] {partition_indices = [3, 0], timing = #hls.t<15 -> 17, 2, 1>} : memref<50x80xf32, affine_map<(d0, d1) -> (d0 mod 5, d1 mod 5, d0 floordiv 5, d1 floordiv 5)>>
        %257 = arith.mulf %255, %256 {timing = #hls.t<17 -> 21, 4, 1>} : f32
        %258 = arith.addf %198, %257 {timing = #hls.t<21 -> 26, 5, 1>} : f32
        %259 = affine.load %arg5[%arg7 * 5 + 3, %arg9 * 5 + 1] {partition_indices = [3, 1], timing = #hls.t<15 -> 17, 2, 1>} : memref<50x80xf32, affine_map<(d0, d1) -> (d0 mod 5, d1 mod 5, d0 floordiv 5, d1 floordiv 5)>>
        %260 = arith.mulf %255, %259 {timing = #hls.t<17 -> 21, 4, 1>} : f32
        %261 = arith.addf %201, %260 {timing = #hls.t<21 -> 26, 5, 1>} : f32
        %262 = affine.load %arg5[%arg7 * 5 + 3, %arg9 * 5 + 2] {partition_indices = [3, 2], timing = #hls.t<15 -> 17, 2, 1>} : memref<50x80xf32, affine_map<(d0, d1) -> (d0 mod 5, d1 mod 5, d0 floordiv 5, d1 floordiv 5)>>
        %263 = arith.mulf %255, %262 {timing = #hls.t<17 -> 21, 4, 1>} : f32
        %264 = arith.addf %204, %263 {timing = #hls.t<21 -> 26, 5, 1>} : f32
        %265 = affine.load %arg5[%arg7 * 5 + 3, %arg9 * 5 + 3] {partition_indices = [3, 3], timing = #hls.t<15 -> 17, 2, 1>} : memref<50x80xf32, affine_map<(d0, d1) -> (d0 mod 5, d1 mod 5, d0 floordiv 5, d1 floordiv 5)>>
        %266 = arith.mulf %255, %265 {timing = #hls.t<17 -> 21, 4, 1>} : f32
        %267 = arith.addf %207, %266 {timing = #hls.t<21 -> 26, 5, 1>} : f32
        %268 = affine.load %arg5[%arg7 * 5 + 3, %arg9 * 5 + 4] {partition_indices = [3, 4], timing = #hls.t<15 -> 17, 2, 1>} : memref<50x80xf32, affine_map<(d0, d1) -> (d0 mod 5, d1 mod 5, d0 floordiv 5, d1 floordiv 5)>>
        %269 = arith.mulf %255, %268 {timing = #hls.t<17 -> 21, 4, 1>} : f32
        %270 = arith.addf %210, %269 {timing = #hls.t<21 -> 26, 5, 1>} : f32
        %271 = affine.load %arg2[%arg8 * 5 + 1, %arg7 * 5 + 3] {partition_indices = [1, 3], timing = #hls.t<15 -> 17, 2, 1>} : memref<40x50xf32, affine_map<(d0, d1) -> (d0 mod 5, d1 mod 5, d0 floordiv 5, d1 floordiv 5)>>
        %272 = arith.mulf %271, %256 {timing = #hls.t<17 -> 21, 4, 1>} : f32
        %273 = arith.addf %213, %272 {timing = #hls.t<21 -> 26, 5, 1>} : f32
        %274 = arith.mulf %271, %259 {timing = #hls.t<17 -> 21, 4, 1>} : f32
        %275 = arith.addf %215, %274 {timing = #hls.t<21 -> 26, 5, 1>} : f32
        %276 = arith.mulf %271, %262 {timing = #hls.t<17 -> 21, 4, 1>} : f32
        %277 = arith.addf %217, %276 {timing = #hls.t<21 -> 26, 5, 1>} : f32
        %278 = arith.mulf %271, %265 {timing = #hls.t<17 -> 21, 4, 1>} : f32
        %279 = arith.addf %219, %278 {timing = #hls.t<21 -> 26, 5, 1>} : f32
        %280 = arith.mulf %271, %268 {timing = #hls.t<17 -> 21, 4, 1>} : f32
        %281 = arith.addf %221, %280 {timing = #hls.t<21 -> 26, 5, 1>} : f32
        %282 = affine.load %arg2[%arg8 * 5 + 2, %arg7 * 5 + 3] {partition_indices = [2, 3], timing = #hls.t<15 -> 17, 2, 1>} : memref<40x50xf32, affine_map<(d0, d1) -> (d0 mod 5, d1 mod 5, d0 floordiv 5, d1 floordiv 5)>>
        %283 = arith.mulf %282, %256 {timing = #hls.t<17 -> 21, 4, 1>} : f32
        %284 = arith.addf %224, %283 {timing = #hls.t<21 -> 26, 5, 1>} : f32
        %285 = arith.mulf %282, %259 {timing = #hls.t<17 -> 21, 4, 1>} : f32
        %286 = arith.addf %226, %285 {timing = #hls.t<21 -> 26, 5, 1>} : f32
        %287 = arith.mulf %282, %262 {timing = #hls.t<17 -> 21, 4, 1>} : f32
        %288 = arith.addf %228, %287 {timing = #hls.t<21 -> 26, 5, 1>} : f32
        %289 = arith.mulf %282, %265 {timing = #hls.t<17 -> 21, 4, 1>} : f32
        %290 = arith.addf %230, %289 {timing = #hls.t<21 -> 26, 5, 1>} : f32
        %291 = arith.mulf %282, %268 {timing = #hls.t<17 -> 21, 4, 1>} : f32
        %292 = arith.addf %232, %291 {timing = #hls.t<21 -> 26, 5, 1>} : f32
        %293 = affine.load %arg2[%arg8 * 5 + 3, %arg7 * 5 + 3] {partition_indices = [3, 3], timing = #hls.t<15 -> 17, 2, 1>} : memref<40x50xf32, affine_map<(d0, d1) -> (d0 mod 5, d1 mod 5, d0 floordiv 5, d1 floordiv 5)>>
        %294 = arith.mulf %293, %256 {timing = #hls.t<17 -> 21, 4, 1>} : f32
        %295 = arith.addf %235, %294 {timing = #hls.t<21 -> 26, 5, 1>} : f32
        %296 = arith.mulf %293, %259 {timing = #hls.t<17 -> 21, 4, 1>} : f32
        %297 = arith.addf %237, %296 {timing = #hls.t<21 -> 26, 5, 1>} : f32
        %298 = arith.mulf %293, %262 {timing = #hls.t<17 -> 21, 4, 1>} : f32
        %299 = arith.addf %239, %298 {timing = #hls.t<21 -> 26, 5, 1>} : f32
        %300 = arith.mulf %293, %265 {timing = #hls.t<17 -> 21, 4, 1>} : f32
        %301 = arith.addf %241, %300 {timing = #hls.t<21 -> 26, 5, 1>} : f32
        %302 = arith.mulf %293, %268 {timing = #hls.t<17 -> 21, 4, 1>} : f32
        %303 = arith.addf %243, %302 {timing = #hls.t<21 -> 26, 5, 1>} : f32
        %304 = affine.load %arg2[%arg8 * 5 + 4, %arg7 * 5 + 3] {partition_indices = [4, 3], timing = #hls.t<15 -> 17, 2, 1>} : memref<40x50xf32, affine_map<(d0, d1) -> (d0 mod 5, d1 mod 5, d0 floordiv 5, d1 floordiv 5)>>
        %305 = arith.mulf %304, %256 {timing = #hls.t<17 -> 21, 4, 1>} : f32
        %306 = arith.addf %246, %305 {timing = #hls.t<21 -> 26, 5, 1>} : f32
        %307 = arith.mulf %304, %259 {timing = #hls.t<17 -> 21, 4, 1>} : f32
        %308 = arith.addf %248, %307 {timing = #hls.t<21 -> 26, 5, 1>} : f32
        %309 = arith.mulf %304, %262 {timing = #hls.t<17 -> 21, 4, 1>} : f32
        %310 = arith.addf %250, %309 {timing = #hls.t<21 -> 26, 5, 1>} : f32
        %311 = arith.mulf %304, %265 {timing = #hls.t<17 -> 21, 4, 1>} : f32
        %312 = arith.addf %252, %311 {timing = #hls.t<21 -> 26, 5, 1>} : f32
        %313 = arith.mulf %304, %268 {timing = #hls.t<17 -> 21, 4, 1>} : f32
        %314 = arith.addf %254, %313 {timing = #hls.t<21 -> 26, 5, 1>} : f32
        %315 = affine.load %arg2[%arg8 * 5, %arg7 * 5 + 4] {partition_indices = [0, 4], timing = #hls.t<20 -> 22, 2, 1>} : memref<40x50xf32, affine_map<(d0, d1) -> (d0 mod 5, d1 mod 5, d0 floordiv 5, d1 floordiv 5)>>
        %316 = affine.load %arg5[%arg7 * 5 + 4, %arg9 * 5] {partition_indices = [4, 0], timing = #hls.t<20 -> 22, 2, 1>} : memref<50x80xf32, affine_map<(d0, d1) -> (d0 mod 5, d1 mod 5, d0 floordiv 5, d1 floordiv 5)>>
        %317 = arith.mulf %315, %316 {timing = #hls.t<22 -> 26, 4, 1>} : f32
        %318 = arith.addf %258, %317 {timing = #hls.t<26 -> 31, 5, 1>} : f32
        affine.store %318, %arg6[%arg8 * 5, %arg9 * 5] {partition_indices = [0, 0], timing = #hls.t<31 -> 32, 1, 1>} : memref<40x80xf32, affine_map<(d0, d1) -> (d0 mod 5, d1 mod 5, d0 floordiv 5, d1 floordiv 5)>>
        %319 = affine.load %arg5[%arg7 * 5 + 4, %arg9 * 5 + 1] {partition_indices = [4, 1], timing = #hls.t<20 -> 22, 2, 1>} : memref<50x80xf32, affine_map<(d0, d1) -> (d0 mod 5, d1 mod 5, d0 floordiv 5, d1 floordiv 5)>>
        %320 = arith.mulf %315, %319 {timing = #hls.t<22 -> 26, 4, 1>} : f32
        %321 = arith.addf %261, %320 {timing = #hls.t<26 -> 31, 5, 1>} : f32
        affine.store %321, %arg6[%arg8 * 5, %arg9 * 5 + 1] {partition_indices = [0, 1], timing = #hls.t<31 -> 32, 1, 1>} : memref<40x80xf32, affine_map<(d0, d1) -> (d0 mod 5, d1 mod 5, d0 floordiv 5, d1 floordiv 5)>>
        %322 = affine.load %arg5[%arg7 * 5 + 4, %arg9 * 5 + 2] {partition_indices = [4, 2], timing = #hls.t<20 -> 22, 2, 1>} : memref<50x80xf32, affine_map<(d0, d1) -> (d0 mod 5, d1 mod 5, d0 floordiv 5, d1 floordiv 5)>>
        %323 = arith.mulf %315, %322 {timing = #hls.t<22 -> 26, 4, 1>} : f32
        %324 = arith.addf %264, %323 {timing = #hls.t<26 -> 31, 5, 1>} : f32
        affine.store %324, %arg6[%arg8 * 5, %arg9 * 5 + 2] {partition_indices = [0, 2], timing = #hls.t<31 -> 32, 1, 1>} : memref<40x80xf32, affine_map<(d0, d1) -> (d0 mod 5, d1 mod 5, d0 floordiv 5, d1 floordiv 5)>>
        %325 = affine.load %arg5[%arg7 * 5 + 4, %arg9 * 5 + 3] {partition_indices = [4, 3], timing = #hls.t<20 -> 22, 2, 1>} : memref<50x80xf32, affine_map<(d0, d1) -> (d0 mod 5, d1 mod 5, d0 floordiv 5, d1 floordiv 5)>>
        %326 = arith.mulf %315, %325 {timing = #hls.t<22 -> 26, 4, 1>} : f32
        %327 = arith.addf %267, %326 {timing = #hls.t<26 -> 31, 5, 1>} : f32
        affine.store %327, %arg6[%arg8 * 5, %arg9 * 5 + 3] {partition_indices = [0, 3], timing = #hls.t<31 -> 32, 1, 1>} : memref<40x80xf32, affine_map<(d0, d1) -> (d0 mod 5, d1 mod 5, d0 floordiv 5, d1 floordiv 5)>>
        %328 = affine.load %arg5[%arg7 * 5 + 4, %arg9 * 5 + 4] {partition_indices = [4, 4], timing = #hls.t<20 -> 22, 2, 1>} : memref<50x80xf32, affine_map<(d0, d1) -> (d0 mod 5, d1 mod 5, d0 floordiv 5, d1 floordiv 5)>>
        %329 = arith.mulf %315, %328 {timing = #hls.t<22 -> 26, 4, 1>} : f32
        %330 = arith.addf %270, %329 {timing = #hls.t<26 -> 31, 5, 1>} : f32
        affine.store %330, %arg6[%arg8 * 5, %arg9 * 5 + 4] {partition_indices = [0, 4], timing = #hls.t<31 -> 32, 1, 1>} : memref<40x80xf32, affine_map<(d0, d1) -> (d0 mod 5, d1 mod 5, d0 floordiv 5, d1 floordiv 5)>>
        %331 = affine.load %arg2[%arg8 * 5 + 1, %arg7 * 5 + 4] {partition_indices = [1, 4], timing = #hls.t<20 -> 22, 2, 1>} : memref<40x50xf32, affine_map<(d0, d1) -> (d0 mod 5, d1 mod 5, d0 floordiv 5, d1 floordiv 5)>>
        %332 = arith.mulf %331, %316 {timing = #hls.t<22 -> 26, 4, 1>} : f32
        %333 = arith.addf %273, %332 {timing = #hls.t<26 -> 31, 5, 1>} : f32
        affine.store %333, %arg6[%arg8 * 5 + 1, %arg9 * 5] {partition_indices = [1, 0], timing = #hls.t<31 -> 32, 1, 1>} : memref<40x80xf32, affine_map<(d0, d1) -> (d0 mod 5, d1 mod 5, d0 floordiv 5, d1 floordiv 5)>>
        %334 = arith.mulf %331, %319 {timing = #hls.t<22 -> 26, 4, 1>} : f32
        %335 = arith.addf %275, %334 {timing = #hls.t<26 -> 31, 5, 1>} : f32
        affine.store %335, %arg6[%arg8 * 5 + 1, %arg9 * 5 + 1] {partition_indices = [1, 1], timing = #hls.t<31 -> 32, 1, 1>} : memref<40x80xf32, affine_map<(d0, d1) -> (d0 mod 5, d1 mod 5, d0 floordiv 5, d1 floordiv 5)>>
        %336 = arith.mulf %331, %322 {timing = #hls.t<22 -> 26, 4, 1>} : f32
        %337 = arith.addf %277, %336 {timing = #hls.t<26 -> 31, 5, 1>} : f32
        affine.store %337, %arg6[%arg8 * 5 + 1, %arg9 * 5 + 2] {partition_indices = [1, 2], timing = #hls.t<31 -> 32, 1, 1>} : memref<40x80xf32, affine_map<(d0, d1) -> (d0 mod 5, d1 mod 5, d0 floordiv 5, d1 floordiv 5)>>
        %338 = arith.mulf %331, %325 {timing = #hls.t<22 -> 26, 4, 1>} : f32
        %339 = arith.addf %279, %338 {timing = #hls.t<26 -> 31, 5, 1>} : f32
        affine.store %339, %arg6[%arg8 * 5 + 1, %arg9 * 5 + 3] {partition_indices = [1, 3], timing = #hls.t<31 -> 32, 1, 1>} : memref<40x80xf32, affine_map<(d0, d1) -> (d0 mod 5, d1 mod 5, d0 floordiv 5, d1 floordiv 5)>>
        %340 = arith.mulf %331, %328 {timing = #hls.t<22 -> 26, 4, 1>} : f32
        %341 = arith.addf %281, %340 {timing = #hls.t<26 -> 31, 5, 1>} : f32
        affine.store %341, %arg6[%arg8 * 5 + 1, %arg9 * 5 + 4] {partition_indices = [1, 4], timing = #hls.t<31 -> 32, 1, 1>} : memref<40x80xf32, affine_map<(d0, d1) -> (d0 mod 5, d1 mod 5, d0 floordiv 5, d1 floordiv 5)>>
        %342 = affine.load %arg2[%arg8 * 5 + 2, %arg7 * 5 + 4] {partition_indices = [2, 4], timing = #hls.t<20 -> 22, 2, 1>} : memref<40x50xf32, affine_map<(d0, d1) -> (d0 mod 5, d1 mod 5, d0 floordiv 5, d1 floordiv 5)>>
        %343 = arith.mulf %342, %316 {timing = #hls.t<22 -> 26, 4, 1>} : f32
        %344 = arith.addf %284, %343 {timing = #hls.t<26 -> 31, 5, 1>} : f32
        affine.store %344, %arg6[%arg8 * 5 + 2, %arg9 * 5] {partition_indices = [2, 0], timing = #hls.t<31 -> 32, 1, 1>} : memref<40x80xf32, affine_map<(d0, d1) -> (d0 mod 5, d1 mod 5, d0 floordiv 5, d1 floordiv 5)>>
        %345 = arith.mulf %342, %319 {timing = #hls.t<22 -> 26, 4, 1>} : f32
        %346 = arith.addf %286, %345 {timing = #hls.t<26 -> 31, 5, 1>} : f32
        affine.store %346, %arg6[%arg8 * 5 + 2, %arg9 * 5 + 1] {partition_indices = [2, 1], timing = #hls.t<31 -> 32, 1, 1>} : memref<40x80xf32, affine_map<(d0, d1) -> (d0 mod 5, d1 mod 5, d0 floordiv 5, d1 floordiv 5)>>
        %347 = arith.mulf %342, %322 {timing = #hls.t<22 -> 26, 4, 1>} : f32
        %348 = arith.addf %288, %347 {timing = #hls.t<26 -> 31, 5, 1>} : f32
        affine.store %348, %arg6[%arg8 * 5 + 2, %arg9 * 5 + 2] {partition_indices = [2, 2], timing = #hls.t<31 -> 32, 1, 1>} : memref<40x80xf32, affine_map<(d0, d1) -> (d0 mod 5, d1 mod 5, d0 floordiv 5, d1 floordiv 5)>>
        %349 = arith.mulf %342, %325 {timing = #hls.t<22 -> 26, 4, 1>} : f32
        %350 = arith.addf %290, %349 {timing = #hls.t<26 -> 31, 5, 1>} : f32
        affine.store %350, %arg6[%arg8 * 5 + 2, %arg9 * 5 + 3] {partition_indices = [2, 3], timing = #hls.t<31 -> 32, 1, 1>} : memref<40x80xf32, affine_map<(d0, d1) -> (d0 mod 5, d1 mod 5, d0 floordiv 5, d1 floordiv 5)>>
        %351 = arith.mulf %342, %328 {timing = #hls.t<22 -> 26, 4, 1>} : f32
        %352 = arith.addf %292, %351 {timing = #hls.t<26 -> 31, 5, 1>} : f32
        affine.store %352, %arg6[%arg8 * 5 + 2, %arg9 * 5 + 4] {partition_indices = [2, 4], timing = #hls.t<31 -> 32, 1, 1>} : memref<40x80xf32, affine_map<(d0, d1) -> (d0 mod 5, d1 mod 5, d0 floordiv 5, d1 floordiv 5)>>
        %353 = affine.load %arg2[%arg8 * 5 + 3, %arg7 * 5 + 4] {partition_indices = [3, 4], timing = #hls.t<20 -> 22, 2, 1>} : memref<40x50xf32, affine_map<(d0, d1) -> (d0 mod 5, d1 mod 5, d0 floordiv 5, d1 floordiv 5)>>
        %354 = arith.mulf %353, %316 {timing = #hls.t<22 -> 26, 4, 1>} : f32
        %355 = arith.addf %295, %354 {timing = #hls.t<26 -> 31, 5, 1>} : f32
        affine.store %355, %arg6[%arg8 * 5 + 3, %arg9 * 5] {partition_indices = [3, 0], timing = #hls.t<31 -> 32, 1, 1>} : memref<40x80xf32, affine_map<(d0, d1) -> (d0 mod 5, d1 mod 5, d0 floordiv 5, d1 floordiv 5)>>
        %356 = arith.mulf %353, %319 {timing = #hls.t<22 -> 26, 4, 1>} : f32
        %357 = arith.addf %297, %356 {timing = #hls.t<26 -> 31, 5, 1>} : f32
        affine.store %357, %arg6[%arg8 * 5 + 3, %arg9 * 5 + 1] {partition_indices = [3, 1], timing = #hls.t<31 -> 32, 1, 1>} : memref<40x80xf32, affine_map<(d0, d1) -> (d0 mod 5, d1 mod 5, d0 floordiv 5, d1 floordiv 5)>>
        %358 = arith.mulf %353, %322 {timing = #hls.t<22 -> 26, 4, 1>} : f32
        %359 = arith.addf %299, %358 {timing = #hls.t<26 -> 31, 5, 1>} : f32
        affine.store %359, %arg6[%arg8 * 5 + 3, %arg9 * 5 + 2] {partition_indices = [3, 2], timing = #hls.t<31 -> 32, 1, 1>} : memref<40x80xf32, affine_map<(d0, d1) -> (d0 mod 5, d1 mod 5, d0 floordiv 5, d1 floordiv 5)>>
        %360 = arith.mulf %353, %325 {timing = #hls.t<22 -> 26, 4, 1>} : f32
        %361 = arith.addf %301, %360 {timing = #hls.t<26 -> 31, 5, 1>} : f32
        affine.store %361, %arg6[%arg8 * 5 + 3, %arg9 * 5 + 3] {partition_indices = [3, 3], timing = #hls.t<31 -> 32, 1, 1>} : memref<40x80xf32, affine_map<(d0, d1) -> (d0 mod 5, d1 mod 5, d0 floordiv 5, d1 floordiv 5)>>
        %362 = arith.mulf %353, %328 {timing = #hls.t<22 -> 26, 4, 1>} : f32
        %363 = arith.addf %303, %362 {timing = #hls.t<26 -> 31, 5, 1>} : f32
        affine.store %363, %arg6[%arg8 * 5 + 3, %arg9 * 5 + 4] {partition_indices = [3, 4], timing = #hls.t<31 -> 32, 1, 1>} : memref<40x80xf32, affine_map<(d0, d1) -> (d0 mod 5, d1 mod 5, d0 floordiv 5, d1 floordiv 5)>>
        %364 = affine.load %arg2[%arg8 * 5 + 4, %arg7 * 5 + 4] {partition_indices = [4, 4], timing = #hls.t<20 -> 22, 2, 1>} : memref<40x50xf32, affine_map<(d0, d1) -> (d0 mod 5, d1 mod 5, d0 floordiv 5, d1 floordiv 5)>>
        %365 = arith.mulf %364, %316 {timing = #hls.t<22 -> 26, 4, 1>} : f32
        %366 = arith.addf %306, %365 {timing = #hls.t<26 -> 31, 5, 1>} : f32
        affine.store %366, %arg6[%arg8 * 5 + 4, %arg9 * 5] {partition_indices = [4, 0], timing = #hls.t<31 -> 32, 1, 1>} : memref<40x80xf32, affine_map<(d0, d1) -> (d0 mod 5, d1 mod 5, d0 floordiv 5, d1 floordiv 5)>>
        %367 = arith.mulf %364, %319 {timing = #hls.t<22 -> 26, 4, 1>} : f32
        %368 = arith.addf %308, %367 {timing = #hls.t<26 -> 31, 5, 1>} : f32
        affine.store %368, %arg6[%arg8 * 5 + 4, %arg9 * 5 + 1] {partition_indices = [4, 1], timing = #hls.t<31 -> 32, 1, 1>} : memref<40x80xf32, affine_map<(d0, d1) -> (d0 mod 5, d1 mod 5, d0 floordiv 5, d1 floordiv 5)>>
        %369 = arith.mulf %364, %322 {timing = #hls.t<22 -> 26, 4, 1>} : f32
        %370 = arith.addf %310, %369 {timing = #hls.t<26 -> 31, 5, 1>} : f32
        affine.store %370, %arg6[%arg8 * 5 + 4, %arg9 * 5 + 2] {partition_indices = [4, 2], timing = #hls.t<31 -> 32, 1, 1>} : memref<40x80xf32, affine_map<(d0, d1) -> (d0 mod 5, d1 mod 5, d0 floordiv 5, d1 floordiv 5)>>
        %371 = arith.mulf %364, %325 {timing = #hls.t<22 -> 26, 4, 1>} : f32
        %372 = arith.addf %312, %371 {timing = #hls.t<26 -> 31, 5, 1>} : f32
        affine.store %372, %arg6[%arg8 * 5 + 4, %arg9 * 5 + 3] {partition_indices = [4, 3], timing = #hls.t<31 -> 32, 1, 1>} : memref<40x80xf32, affine_map<(d0, d1) -> (d0 mod 5, d1 mod 5, d0 floordiv 5, d1 floordiv 5)>>
        %373 = arith.mulf %364, %328 {timing = #hls.t<22 -> 26, 4, 1>} : f32
        %374 = arith.addf %314, %373 {timing = #hls.t<26 -> 31, 5, 1>} : f32
        affine.store %374, %arg6[%arg8 * 5 + 4, %arg9 * 5 + 4] {partition_indices = [4, 4], timing = #hls.t<31 -> 32, 1, 1>} : memref<40x80xf32, affine_map<(d0, d1) -> (d0 mod 5, d1 mod 5, d0 floordiv 5, d1 floordiv 5)>>
      } {loop_directive = #hls.ld<pipeline=true, targetII=3, dataflow=false, flatten=false>, loop_info = #hls.l<flattenTripCount=16, iterLatency=32, minII=3>, parallel, timing = #hls.t<0 -> 79, 79, 79>}
    } {loop_directive = #hls.ld<pipeline=false, targetII=1, dataflow=false, flatten=true>, loop_info = #hls.l<flattenTripCount=128, iterLatency=32, minII=3>, parallel, timing = #hls.t<0 -> 415, 415, 415>}
  } {loop_directive = #hls.ld<pipeline=false, targetII=1, dataflow=false, flatten=true>, loop_info = #hls.l<flattenTripCount=1280, iterLatency=32, minII=3>, timing = #hls.t<0 -> 3871, 3871, 3871>}
  return {timing = #hls.t<3871 -> 3871, 0, 0>}
}
